models/Prob_Noise_DeepNet_BufferPlus_Learn_FreqMin_BatchNorm_03/agent_1_actor.pth (torch_old, 302229 bytes, 18 tensors)

bn0.weight f4 [24]
0	0x3b8bb500	0.0042635202
1	0x3dd834c0	0.10556936
2	0x3e9259f2	0.28584248
3	0x3cdcd060	0.02695483
4	0x3ef17770	0.47161436
5	0x3d763c80	0.06011629
6	0x3f459900	0.77186584
7	0x3f3e6315	0.7436994
8	0x3f182bfd	0.5944212
9	0x3f634a93	0.88785666
10	0x3ee6ed94	0.45103133
11	0x3f4cab6b	0.79949063
12	0x3e196fe4	0.14984089
13	0x3ecd8d52	0.4014688
14	0x3d5de8a0	0.054176927
15	0x3eeb372a	0.45940524
16	0x3e33d1dc	0.17560524
17	0x3f72fda6	0.94918287
18	0x3f58e9e0	0.84731865
19	0x3f5ff694	0.87485623
20	0x3f25f7ac	0.6483104
21	0x3e5be974	0.21475774
22	0x3f7305a7	0.949305
23	0x3c466380	0.012108684

bn0.bias f4 [24]
0	0x00000000	0.0
1	0x00000000	0.0
2	0x00000000	0.0
3	0x00000000	0.0
4	0x00000000	0.0
5	0x00000000	0.0
6	0x00000000	0.0
7	0x00000000	0.0
8	0x00000000	0.0
9	0x00000000	0.0
10	0x00000000	0.0
11	0x00000000	0.0
12	0x00000000	0.0
13	0x00000000	0.0
14	0x00000000	0.0
15	0x00000000	0.0
16	0x00000000	0.0
17	0x00000000	0.0
18	0x00000000	0.0
19	0x00000000	0.0
20	0x00000000	0.0
21	0x00000000	0.0
22	0x00000000	0.0
23	0x00000000	0.0

bn0.running_mean f4 [24]
0	0x00000000	0.0
1	0x00000000	0.0
2	0x00000000	0.0
3	0x00000000	0.0
4	0x00000000	0.0
5	0x00000000	0.0
6	0x00000000	0.0
7	0x00000000	0.0
8	0x00000000	0.0
9	0x00000000	0.0
10	0x00000000	0.0
11	0x00000000	0.0
12	0x00000000	0.0
13	0x00000000	0.0
14	0x00000000	0.0
15	0x00000000	0.0
16	0x00000000	0.0
17	0x00000000	0.0
18	0x00000000	0.0
19	0x00000000	0.0
20	0x00000000	0.0
21	0x00000000	0.0
22	0x00000000	0.0
23	0x00000000	0.0

bn0.running_var f4 [24]
0	0x3f800000	1.0
1	0x3f800000	1.0
2	0x3f800000	1.0
3	0x3f800000	1.0
4	0x3f800000	1.0
5	0x3f800000	1.0
6	0x3f800000	1.0
7	0x3f800000	1.0
8	0x3f800000	1.0
9	0x3f800000	1.0
10	0x3f800000	1.0
11	0x3f800000	1.0
12	0x3f800000	1.0
13	0x3f800000	1.0
14	0x3f800000	1.0
15	0x3f800000	1.0
16	0x3f800000	1.0
17	0x3f800000	1.0
18	0x3f800000	1.0
19	0x3f800000	1.0
20	0x3f800000	1.0
21	0x3f800000	1.0
22	0x3f800000	1.0
23	0x3f800000	1.0

fc1.weight f4 [256, 24]
0	0x3c7350fe	0.014850853
1	0x3e050d50	0.1299336
2	0xbd7ad923	-0.061242234
3	0x3d1625d3	0.036657166
4	0xbd9de397	-0.07709425
5	0x3d5ed00e	0.054397635
6	0xbc943f7d	-0.01809668
7	0xbbc399b6	-0.0059692515
8	0xbd7aa945	-0.061196584
9	0x3d98bb45	0.07457594
10	0xbcdc626f	-0.026902406
11	0x3e1159f1	0.14194466
12	0x3d9819fb	0.074268304
13	0x3d0008b1	0.03125829
14	0xbdbedb6f	-0.093191974
15	0x3e124f41	0.14288045
16	0x3ce4c127	0.027924133
17	0x3e093007	0.13397227
18	0x3c8e220c	0.01735022
19	0xbb92db8a	-0.0044817375
20	0x3e1c7363	0.15278392
21	0x3cad9a57	0.021191759
22	0xbbe00a7c	-0.0068371873
23	0x3d93314c	0.07187137
24	0x3d05d1c9	0.03267077
25	0xbd8907e9	-0.06690962
26	0x3d0fdac1	0.03512073
27	0xbb2ea75e	-0.0026650052
28	0xbd4b5bb6	-0.04964801
29	0x3dc95b54	0.098318726
30	0xbd970ff9	-0.073760934
31	0xbc102dc5	-0.008799975
32	0xbb22441f	-0.0024759842
33	0xbdf247ed	-0.11830125
34	0x3d29833d	0.041384924
35	0xbc38d195	-0.011280437
36	0x3e1c6d75	0.1527613
37	0x3e58cdae	0.2117221
38	0xbaade619	-0.0013267427
39	0xbd0d5096	-0.03450068
40	0x3d0b907b	0.034073334
41	0xbdf34ac4	-0.11879495
42	0x3c931c72	0.0179579
43	0x3cf0b460	0.029382885
44	0x3e9fc577	0.3120534
45	0x3e106aa4	0.1410318
46	0xbc4e275a	-0.012582624
47	0x3d787464	0.060657874
48	0x3d0d9c88	0.034573108
49	0x3d23e6f4	0.040015176
50	0x3c7b43d7	0.0153359985
51	0x3c8f6504	0.017504223
52	0xbe5c7ed0	-0.2153275
53	0xbc89daa0	-0.016827881
54	0xbc938dbf	-0.018011926
55	0xbd200e6d	-0.039076257
56	0x3cd2ef32	0.025748823
57	0x3d56da3f	0.05245423
58	0x3d5f41be	0.054506056
59	0x3df686bd	0.12037418
60	0x3c7c4a08	0.01539851
61	0x3d16b430	0.036792934
62	0xbd629ae2	-0.05532349
63	0x3db78f0f	0.08962833
64	0xbc6d2171	-0.014473305
65	0x3e055e8c	0.13024348
66	0x3de44f56	0.11147945
67	0xbc57f505	-0.013180976
68	0x3d86b6cf	0.06577837
69	0x3de95538	0.11393207
70	0x3c3e230a	0.011605034
71	0x3c542eeb	0.012950639
72	0x3d971d72	0.07378663
73	0xbd92d840	-0.07170153
74	0x3b45a3e2	0.0030157496
75	0xbd877d6e	-0.06615721
76	0xbe0d33a6	-0.13789234
77	0x3dd97cde	0.1061952
78	0x3c978c96	0.018499654
79	0xbd93511f	-0.07193207
80	0x3cd1c746	0.025607716
81	0xbd4ecd65	-0.05048885
82	0xbcd6529b	-0.026162436
83	0x3db9dde6	0.09075527
84	0xbcd8a541	-0.026445987
85	0x3db7be10	0.089717984
86	0x3bdb7eb2	0.006698453
87	0x3d60199c	0.054711923
88	0xbbd8de9d	-0.0066183344
89	0xbd204abd	-0.039133776
90	0x3cb439a6	0.022000145
91	0x3e319e0f	0.17345451
92	0x3d60dd47	0.054898527
93	0x3c493d40	0.01228267
94	0x3cffaa75	0.03120921
95	0x3e30d851	0.17270018
96	0xbd12165e	-0.035665862
97	0x3d53023b	0.0515158
98	0x3c8798dd	0.016552383
99	0x3d7eb137	0.062180724
100	0x3e27a6e1	0.16372253
101	0xbb73538b	-0.0037128653
102	0x3b140b70	0.0022589825
103	0x3dcf6af3	0.10127821
104	0xbdd462c3	-0.103704
105	0x3c415452	0.011799889
106	0x3c55652e	0.013024611
107	0xbca0f17a	-0.019646395
108	0x3ce21ef3	0.027602648
109	0xbc842872	-0.016132567
110	0xbba22e7b	-0.0049493886
111	0xbc6f4e7c	-0.0146061145
112	0xbccea5e7	-0.025225593
113	0xbdb32431	-0.08747137
114	0x3c70a38e	0.014687432
115	0xbd15bd04	-0.036557212
116	0xbe23b3c4	-0.15986544
117	0xbe399cd1	-0.18126227
118	0x3d106845	0.03525569
119	0xbd963830	-0.07334936
120	0x3d22178d	0.03957324
121	0xbcb936dc	-0.022609167
122	0xbc141f24	-0.009040628
123	0xbc08fa76	-0.008360496
124	0x3bc9444c	0.006142175
125	0xbd88f482	-0.06687261
126	0x3cfb868b	0.030703804
127	0xbdf99034	-0.12185708
128	0x3d17e672	0.037085004
129	0xbde88a07	-0.113544516
130	0xbb383b8c	-0.0028111665
131	0x3d193368	0.03740254
132	0xbdd4c5b6	-0.10389273
133	0xbd6e24d8	-0.058140606
134	0x3ceff844	0.029293187
135	0x3d23c4a4	0.039982453
136	0xbc1f478e	-0.00972165
137	0xbddaf469	-0.10691149
138	0xbcecf31c	-0.028924517
139	0x3dfa7e5d	0.12231133
140	0xbe2ccedf	-0.1687579
141	0xbc443c46	-0.011977261
142	0x3d4cebc9	0.05002955
143	0x3e20cdf7	0.1570357
144	0xbbbf1849	-0.0058317524
145	0x3d735ac2	0.059412725
146	0x3bdf9b3b	0.006823925
147	0xbd387bf2	-0.04504008
148	0x3e55946d	0.20857401
149	0xbde96571	-0.113963015
150	0x3d27b205	0.040941257
151	0xbc9cf410	-0.019159347
152	0x3ccd9434	0.025095083
153	0xba740beb	-0.0009309637
154	0xbd1edb43	-0.038783323
155	0xbd8382d5	-0.064214386
156	0x3dbe7a9b	0.09300729
157	0xbd182265	-0.037142176
158	0x3d5d5895	0.054039557
159	0xbdf71f72	-0.120665446
160	0xbd4e2474	-0.050327733
161	0xbd050767	-0.032477763
162	0x3bca6cdf	0.006177529
163	0x3d5ecde8	0.054395586
164	0xbe03ad27	-0.12859021
165	0x3e0e2067	0.13879548
166	0x3cd5531f	0.026040612
167	0x3c318650	0.010835245
168	0x3b9945f4	0.0046775285
169	0xbe0caf2d	-0.137387
170	0x3d3f3ae0	0.046687007
171	0xbdaabff4	-0.083373934
172	0x3e48a56e	0.19594356
173	0xbd9f0d5c	-0.0776622
174	0xbbfeb587	-0.0077731046
175	0xbd2c513a	-0.04206965
176	0xbd0754df	-0.033039924
177	0xbe07b749	-0.13253511
178	0x3d44b403	0.048023235
179	0x3c020478	0.007935636
180	0x3cf1f427	0.029535366
181	0x3d664282	0.05621577
182	0xbc787a6c	-0.015165906
183	0xbc796b4c	-0.0152233355
184	0xbd98d1a4	-0.07461861
185	0xbe45cca9	-0.19316353
186	0x3c3468ef	0.011011346
187	0xbcd875e2	-0.026423398
188	0xbd9c4f81	-0.07632352
189	0x3e45f3c3	0.19331269
190	0xbcae4b1f	-0.021276055
191	0xbd857ef8	-0.06518358
192	0x3d71d602	0.059041984
193	0xbdc8454a	-0.09778841
194	0xbd560c18	-0.052257627
195	0x3bf89cf7	0.007587071
196	0xbd6f7e4d	-0.05847006
197	0xbcc374f4	-0.023859479
198	0x3ad277bd	0.0016057413
199	0xbd556d17	-0.05210599
200	0xbcf4bd4d	-0.029875422
201	0xbd729daf	-0.05923241
202	0x3c55d7e7	0.013051963
203	0xbdd9436b	-0.10608562
204	0x3d2a2829	0.041542206
205	0xbcf5ce5a	-0.030005623
206	0xb98dc72a	-0.00027042005
207	0xbdabc27f	-0.083867066
208	0xbd7ad96d	-0.06124251
209	0xbde1d531	-0.11026991
210	0x3d1ff4cb	0.039051812
211	0xbca4a9c7	-0.020100487
212	0x3e070c43	0.13188271
213	0x3e1084ba	0.14113131
214	0x3cdcf0a8	0.026970223
215	0xbcc38953	-0.023869192
216	0x3d277dd5	0.040891487
217	0x3e554cdf	0.20830105
218	0x3d775d85	0.06039192
219	0xbd4a2f2c	-0.049361393
220	0x3e20851b	0.15675776
221	0xbdf8f91e	-0.1215689
222	0xbc4c70b8	-0.012478046
223	0xbd7f4054	-0.062317207
224	0x3d0d49bf	0.034494158
225	0x3e379d3f	0.17931078
226	0xbd2a1a34	-0.041528895
227	0xbdd68d76	-0.104762
228	0x3d8a19fe	0.06743239
229	0xbdeb2090	-0.1148082
230	0x3d49098a	0.049081363
231	0xbdce8c1c	-0.100853175
232	0x3dc4bf0c	0.09606752
233	0x3e4d4320	0.20045137
234	0xbd03badc	-0.032160625
235	0x3b25dad0	0.0025307424
236	0xbd2e300e	-0.042526297
237	0xbd1e6548	-0.038670808
238	0x3d0cc33e	0.034365885
239	0xbdb32af6	-0.087484285
240	0x3e001a10	0.12509942
241	0x3e1fecb1	0.15617634
242	0x3cfc360f	0.030787496
243	0x3d6b15ee	0.05739396
244	0x3de3179f	0.1108849
245	0xbdb9a9a7	-0.09065562
246	0xbd642467	-0.05569878
247	0xb902b31f	-0.00012464494
248	0x3d717644	0.058950678
249	0x3e25bcb7	0.1618527
250	0xbcdff549	-0.02733864
251	0xbc2a6581	-0.010400177
252	0x3ce54e96	0.027991574
253	0xbd36bc8f	-0.044613417
254	0x3d005591	0.031331602
255	0xbcdaad2c	-0.026693903

fc1.bias f4 [256]
0	0xbd5d6db3	-0.054059695
1	0xbe239a49	-0.15976824
2	0xbda787ce	-0.081801996
3	0xbe669203	-0.22516637
4	0x3dc804e5	0.097665586
5	0x3e0d217f	0.13782309
6	0x3dc3d59a	0.09562226
7	0x3ccdaeac	0.025107704
8	0xbe833136	-0.25623482
9	0x3cd0adf4	0.025473572
10	0x3d45dc1d	0.04830562
11	0x3d3bca18	0.04584703
12	0x3e22043e	0.15821931
13	0x3dddc3c9	0.10828359
14	0xbd8328a3	-0.06404235
15	0x3d60f273	0.054918718
16	0xbe3ba6e9	-0.1832539
17	0xbe1d16fb	-0.15340798
18	0x3dd04117	0.10168665
19	0xbd57d73c	-0.052695498
20	0xbe29cbaf	-0.16581605
21	0xbe72e7fd	-0.23721309
22	0x3e5bbead	0.21459456
23	0xbe4c6b85	-0.1996289
24	0xbe1f40f0	-0.15552115
25	0x3d8bd0b2	0.06826915
26	0x3e34a258	0.17640054
27	0xbd9b5865	-0.07585219
28	0xbe11ca77	-0.1423739
29	0x3e3e0347	0.18555938
30	0xbe37ad53	-0.17937212
31	0xbdf8b707	-0.12144285
32	0xbdaef594	-0.08542934
33	0x3de5c9ba	0.11220117
34	0xbda8b122	-0.082369104
35	0xbda560e2	-0.080751196
36	0x3dfb3182	0.12265302
37	0xbd0d6d5a	-0.034528114
38	0xbe3a715f	-0.1820731
39	0x3e054d3b	0.13017742
40	0xbe15e755	-0.14639027
41	0xbe116d93	-0.14201955
42	0xbd92c44c	-0.07166347
43	0xbd144681	-0.03620005
44	0x3d073917	0.03301343
45	0x3e45ba2b	0.19309299
46	0xbd2b2d3c	-0.041791186
47	0xbe6a4e2a	-0.2288138
48	0xbe70e905	-0.2352639
49	0x3e48ed5d	0.19621797
50	0xbe83da99	-0.25752714
51	0xbe1ccd98	-0.15312803
52	0xbe3effd5	-0.1865228
53	0xbc32730c	-0.010891687
54	0xbe046129	-0.12927689
55	0x3e304666	0.17214355
56	0x3d0eef0e	0.03489595
57	0xbe720fed	-0.23638888
58	0x3b3e7822	0.0029063304
59	0xbe26a4a6	-0.16273746
60	0x3d0fea76	0.03513571
61	0xbe043db6	-0.12914166
62	0x3e948055	0.2900416
63	0xbcc0d25a	-0.023537803
64	0xbdafac9a	-0.08577843
65	0xbcd10c04	-0.025518425
66	0x3dc2b07c	0.09506318
67	0xbd2e55de	-0.042562358
68	0x3e1da20c	0.15393847
69	0xbd3bd207	-0.045854595
70	0xbd5d3ca1	-0.0540129
71	0xbda81b6f	-0.082083575
72	0xbd47d9ea	-0.048791803
73	0xbe113cc3	-0.14183335
74	0xbd7b5a36	-0.06136533
75	0xbd7bdef8	-0.061491936
76	0xbe087fed	-0.1333005
77	0x3e6db3de	0.23213145
78	0xbe3bc809	-0.18338026
79	0xbd374747	-0.04474571
80	0xbd71a41b	-0.058994394
81	0x3b856b26	0.004071611
82	0xbe037883	-0.1283894
83	0xbd06c66a	-0.032904066
84	0x3db5011f	0.088381045
85	0xbe67ca41	-0.22635747
86	0xbd757256	-0.059923492
87	0x3e85f13b	0.26160607
88	0xbde589fb	-0.11207958
89	0xbde34091	-0.110962994
90	0xbd7bd354	-0.061480835
91	0xbdf3ce9d	-0.11904643
92	0xbe0e5b14	-0.13901931
93	0x3e78431b	0.24244349
94	0x3d088a2d	0.0333349
95	0xbdc370cc	-0.09542999
96	0x3e171eba	0.14757815
97	0xbd7a6684	-0.061132923
98	0x3d7d9895	0.06191309
99	0x3c499ca7	0.012305415
100	0xbd9cc00e	-0.07653819
101	0xbe1c76ff	-0.15279768
102	0xb9a2ccbc	-0.00031051587
103	0xbca796af	-0.020457594
104	0x3e75e87b	0.24014466
105	0xbe342179	-0.17590894
106	0xbe0af072	-0.13568285
107	0xbe037eda	-0.12841359
108	0x3deadf90	0.114684224
109	0x3d838a70	0.06422889
110	0xbe0ef3cd	-0.1396019
111	0xbda83c11	-0.08214582
112	0xbe07e01e	-0.13269088
113	0x3de6614e	0.11249028
114	0x3db276bf	0.08714055
115	0xbdbd01e4	-0.09228876
116	0xbdb9f85b	-0.09080573
117	0x3cea25fc	0.028582565
118	0x3e094393	0.13404684
119	0xbdb195c4	-0.08671144
120	0xbe39721b	-0.18109934
121	0x3d3fcea0	0.046827912
122	0xbe0f7ede	-0.1401324
123	0x3e87e537	0.26542065
124	0xbd5a4f87	-0.0532985
125	0x3da9f35c	0.0829837
126	0xbda4e557	-0.080515556
127	0xbe164eee	-0.14678547
128	0x3e0910eb	0.1338536
129	0x3dfc4638	0.12318081
130	0x3dee6b62	0.116415754
131	0xbd84bb8b	-0.064810835
132	0xbcf7c333	-0.030244445
133	0xbd4294f6	-0.04750534
134	0x3ddcf7bf	0.10789441
135	0xbd00103b	-0.03126548
136	0x3d880682	0.06641866
137	0x3e8a16c8	0.26970506
138	0xbd1cb0e2	-0.038254626
139	0x3d48f73e	0.049063914
140	0xbc96cb65	-0.018407533
141	0xbe30f9e0	-0.1728282
142	0x3c934f40	0.017982125
143	0x3afe1df0	0.0019387584
144	0x3d611a2c	0.0549566
145	0x3d208e71	0.039198343
146	0x3e45358c	0.19258708
147	0xbbc9b361	-0.006155417
148	0xbd692f2a	-0.056929745
149	0xbca5347a	-0.020166624
150	0x3c9333b4	0.01796899
151	0x3e13c4d1	0.14430548
152	0x3d3aa9a0	0.045571923
153	0xbe1ab382	-0.1510754
154	0xbaef3ba9	-0.0018252033
155	0x3e012b34	0.12614137
156	0x3e0d2fb9	0.13787736
157	0xbd9ab99c	-0.075549334
158	0x3d93cb74	0.0721654
159	0x3c5466ff	0.012964009
160	0xbba18a5e	-0.0049298247
161	0xbdda0d72	-0.10647096
162	0xbe2f6ccb	-0.17131345
163	0xbe1ee36c	-0.15516442
164	0xbd278a8c	-0.040903613
165	0xbe465fb0	-0.1937244
166	0x3da45e29	0.08025772
167	0xbdcf8b31	-0.101339705
168	0x3e3646d7	0.17800461
169	0xbc79c148	-0.015243836
170	0x3d25332a	0.040331997
171	0x3c7f4f8c	0.01558293
172	0xbd28872f	-0.041144546
173	0x3c3be367	0.011467791
174	0x3e2b19f0	0.16709113
175	0x3dd82907	0.105547
176	0x3e1c0f1e	0.15240142
177	0x3d9a1c20	0.07524896
178	0x3e246211	0.16053034
179	0xbdc2e7ad	-0.09516845
180	0xbd25968b	-0.040426772
181	0x3d95b6ff	0.07310294
182	0x3e255b5e	0.16148135
183	0x3e12d10f	0.14337562
184	0x3d784379	0.060611222
185	0xbe8694df	-0.26285455
186	0x3e193846	0.14962873
187	0xbde74730	-0.11292875
188	0x3e1c17e9	0.15243496
189	0xbdf22a59	-0.118244834
190	0xbdd078b5	-0.10179273
191	0x3e22a54c	0.15883368
192	0xbc5eba93	-0.013594287
193	0xbda2a314	-0.07941261
194	0x3db0f421	0.08640314
195	0xbd9d8ec2	-0.076932445
196	0xbda6f194	-0.08151546
197	0xbd3c1020	-0.045913815
198	0x3c14c5ad	0.009080333
199	0x3e2fb565	0.1715904
200	0x3deea1e9	0.11651976
201	0x3dcd317e	0.100192055
202	0xbcccdf3a	-0.025008786
203	0xbd7aa834	-0.061195567
204	0x3e20099a	0.15628663
205	0x3d8b5f31	0.06805266
206	0xbb79dfd0	-0.0038127787
207	0x3dc28ac0	0.09499121
208	0xbd18a42d	-0.037265945
209	0x3c962146	0.018326413
210	0xbdff6dbc	-0.12472102
211	0xbe39ff2f	-0.18163751
212	0x3e6fd16a	0.23419729
213	0xbd15fd8e	-0.03661876
214	0xbe254e61	-0.1614318
215	0x3e02214e	0.12708017
216	0xbdd59310	-0.104284406
217	0xbdaaca02	-0.08339311
218	0x3d8cba6a	0.06871493
219	0x3df7ae7b	0.120938264
220	0xbb9ab625	-0.0047214204
221	0x3e171010	0.14752221
222	0xbe76417a	-0.24048415
223	0xbbc7f21e	-0.0061018607
224	0xbe0ba7df	-0.13638256
225	0x3e1f300c	0.15545672
226	0xbcd9e7fa	-0.026599873
227	0xbe149b7c	-0.14512438
228	0x3df50bb7	0.11965125
229	0xbdd6c38f	-0.104865186
230	0xbdb75321	-0.089514025
231	0xbe1057e5	-0.14096029
232	0x3d5d3a8b	0.05401091
233	0xbc70b047	-0.014690465
234	0xbaa32335	-0.0012446406
235	0xbe3f7de9	-0.18700375
236	0xbe416eeb	-0.18889968
237	0x3c63946a	0.013890365
238	0xbe108ef0	-0.14117026
239	0x3e0a317b	0.13495438
240	0x3d8a3af9	0.067495294
241	0x3daca6b0	0.084302306
242	0x3b067926	0.0020518987
243	0x3d8156bd	0.06315372
244	0xbdeb3e5b	-0.11486503
245	0xbdf022a2	-0.11725356
246	0x3d899e4e	0.06719647
247	0xbe0f693e	-0.1400499
248	0xbd7a2832	-0.06107349
249	0x3e3a34f8	0.18184268
250	0x3d705dd3	0.058683228
251	0x3bc19cee	0.0059086
252	0x3dca2cd5	0.09871832
253	0x3a97d5ba	0.0011584081
254	0xbd474e27	-0.048658516
255	0x3e794ef9	0.24346532

bn1.weight f4 [256]
0	0x3f318948	0.693501
1	0x3f44a120	0.7680836
2	0x3efdd42e	0.49575943
3	0x3f0ae6c4	0.5425837
4	0x3f17f8e7	0.5936417
5	0x3d52d2f0	0.051470697
6	0x3f280f42	0.6564828
7	0x3e9664c2	0.29373747
8	0x3f458d27	0.77168506
9	0x3f323103	0.69606036
10	0x3e18fa48	0.14939225
11	0x3e34fc1c	0.17674297
12	0x3da9c6f0	0.082898974
13	0x3f766c6c	0.9625919
14	0x3ee69c08	0.45040917
15	0x3ead3bd8	0.3383472
16	0x3b785000	0.003788948
17	0x3e90d9d0	0.28291178
18	0x3db02390	0.08600533
19	0x3e8b6c7e	0.2723121
20	0x3efe78f4	0.49701655
21	0x3f3b5288	0.7317281
22	0x3cce49a0	0.025181592
23	0x3f71860e	0.94345176
24	0x3d445f50	0.04794246
25	0x3c5cb780	0.013471484
26	0x3e0f8aac	0.14017743
27	0x3f78647c	0.97028327
28	0x3eef95b4	0.46793902
29	0x3f39793a	0.724506
30	0x3f501e4a	0.8129622
31	0x3f67d787	0.90563244
32	0x3e5af1f8	0.21381366
33	0x3cb46c20	0.022024214
34	0x3f6f4cdd	0.9347666
35	0x3f532cad	0.82490045
36	0x3d00e580	0.03146887
37	0x3e9b6554	0.30350745
38	0x3f30514f	0.6887407
39	0x3f4e56f5	0.80601436
40	0x3eaaa13e	0.33326143
41	0x3f15dfec	0.585448
42	0x3eb1f162	0.34754473
43	0x3e759204	0.23981482
44	0x3f780bd0	0.96893024
45	0x3d8a5700	0.06754875
46	0x3edbf406	0.42959613
47	0x3f114397	0.5674376
48	0x3f6ddebf	0.9291801
49	0x3e992f32	0.2991882
50	0x3f5f6bd3	0.872739
51	0x3f49647d	0.7866896
52	0x3ce7b280	0.028283358
53	0x3f7a2eae	0.9772748
54	0x3e1f1338	0.15534675
55	0x3ec67ac4	0.38765538
56	0x3e15791c	0.14596981
57	0x3f62c881	0.88587195
58	0x3d2f88a0	0.042854905
59	0x3efa9e12	0.48948723
60	0x3f6ada73	0.9173958
61	0x3f5214e1	0.8206311
62	0x3f2bef08	0.6716161
63	0x3b5b4a00	0.0033460855
64	0x3ecf5c54	0.40500128
65	0x3e7963d8	0.24354494
66	0x3f03fb1e	0.5155505
67	0x3f7cf113	0.9880535
68	0x3f1247cd	0.5714081
69	0x3ed389c0	0.41316032
70	0x3e6eb59c	0.23311466
71	0x3d429320	0.04750359
72	0x3ee04a50	0.43806696
73	0x3e197064	0.1498428
74	0x3ef9739e	0.4872102
75	0x3d6abfb0	0.057311714
76	0x3f1debdf	0.61688036
77	0x3eb608f8	0.35553718
78	0x3d1712c0	0.036883116
79	0x3ed25f56	0.4108836
80	0x3e05ef58	0.13079584
81	0x3ee0186a	0.43768626
82	0x3f57902e	0.84204376
83	0x3c9a6f00	0.018851757
84	0x3daebbe0	0.08531928
85	0x3f5843ea	0.8447863
86	0x3f2bbc32	0.6708404
87	0x3e5df56c	0.21675652
88	0x3f74ab03	0.95573443
89	0x3e5f9c54	0.21836978
90	0x3f795982	0.97402203
91	0x3f3f66c2	0.7476617
92	0x3f3335ae	0.70003784
93	0x3f4c313a	0.79762614
94	0x3e450634	0.19240648
95	0x3d817010	0.06320202
96	0x3ecf4a94	0.40486586
97	0x3ef36ae0	0.47542477
98	0x3e99d248	0.30043244
99	0x3e977f0c	0.29589117
100	0x3f6c58aa	0.9232279
101	0x3e1021dc	0.14075416
102	0x3ee19cac	0.44064844
103	0x3f2aad47	0.6667065
104	0x3ca93380	0.02065444
105	0x3e99e7d2	0.30059677
106	0x3e0b25e4	0.13588673
107	0x3f4a0f8e	0.78929985
108	0x3f19c80e	0.60070884
109	0x3f6b5930	0.91932964
110	0x3f2f7a9c	0.6854646
111	0x3f6d7c80	0.92768097
112	0x3e3330f0	0.17499137
113	0x3f67bed4	0.90525556
114	0x3efe9b00	0.4972763
115	0x3f000056	0.5000051
116	0x3f04f204	0.51931787
117	0x3ec18db0	0.3780341
118	0x3d9485d8	0.07252091
119	0x3e741e4c	0.23839682
120	0x3f38742d	0.7205227
121	0x3f06efc7	0.5270962
122	0x3e490ae8	0.19633067
123	0x3e4b38d4	0.19845897
124	0x3f6e30a8	0.93042994
125	0x3f724a63	0.94644755
126	0x3d472280	0.048616886
127	0x3e73a094	0.23791724
128	0x3ef04dcc	0.46934354
129	0x3edf84c0	0.43655968
130	0x3e8cb41e	0.27481169
131	0x3f4f77bc	0.81042075
132	0x3f23feb1	0.64060503
133	0x3e0af9a4	0.13571793
134	0x3f57d125	0.84303504
135	0x3ecc1b40	0.3986454
136	0x3f6b0331	0.91801745
137	0x3c9ecba0	0.019384205
138	0x3e721530	0.23640895
139	0x3ed59b3a	0.4171999
140	0x3e796ea0	0.24358606
141	0x3f301ab4	0.68790746
142	0x3f0f183c	0.55896354
143	0x3f31934c	0.6936538
144	0x3f062f42	0.5241586
145	0x3f4c1df7	0.7973322
146	0x3d26fbd0	0.04076749
147	0x3df5f7e0	0.12010169
148	0x3e5df5dc	0.21675819
149	0x3f3203b7	0.6953692
150	0x3f50c2d2	0.8154727
151	0x3e5d57cc	0.21615523
152	0x3e8683a0	0.26272297
153	0x3e0b126c	0.13581246
154	0x3f5efe8e	0.8710717
155	0x3dff4260	0.12463832
156	0x3e3a1b34	0.1817444
157	0x3ea04594	0.31303084
158	0x3da907d0	0.08253443
159	0x3ee479b0	0.4462409
160	0x3f49e74c	0.78868556
161	0x3d5c6b40	0.05381322
162	0x3e93e0c8	0.28882432
163	0x3f3ec424	0.74518037
164	0x3f5bdff0	0.85888577
165	0x3d094b00	0.03351879
166	0x3f42cfdf	0.76098436
167	0x3cf93120	0.030418932
168	0x3f26573d	0.64976865
169	0x3ee63398	0.44961238
170	0x3e257454	0.16157657
171	0x3f7e6c77	0.99384254
172	0x3e19c664	0.15017086
173	0x3f1e6110	0.61866856
174	0x3dffda80	0.124928474
175	0x3f77092f	0.9649839
176	0x3f3ea449	0.7446943
177	0x3ee8950e	0.4542622
178	0x3e9886ac	0.29790246
179	0x3f18e91e	0.5973071
180	0x3f35b555	0.70979816
181	0x3f12ace3	0.57295054
182	0x3f4147bd	0.7550009
183	0x3f2f68c3	0.6851923
184	0x3ee1793a	0.440378
185	0x3e2864e0	0.16444731
186	0x3e808332	0.25100094
187	0x3d1e66a0	0.03867209
188	0x3f7e052d	0.9922665
189	0x3f37a362	0.7173368
190	0x3ea2e752	0.31817108
191	0x3e82bb70	0.25533628
192	0x3f28133d	0.65654355
193	0x3effe17e	0.49976724
194	0x3ecc3032	0.3988052
195	0x3ef91f5e	0.48656744
196	0x3f1365ca	0.5757719
197	0x3e82a8c2	0.25519377
198	0x3f46ce47	0.77658504
199	0x3f172caa	0.59052527
200	0x3eca8690	0.39555788
201	0x3f01b385	0.5066455
202	0x3ee46c4a	0.44613868
203	0x3f736f70	0.95091915
204	0x3f3f9360	0.7483425
205	0x3f657dc5	0.89645034
206	0x3f3d2ebd	0.7389944
207	0x3e2f2374	0.17103368
208	0x3f3a456d	0.72762185
209	0x3f7f6fc4	0.99779916
210	0x3d3dc0a0	0.04632628
211	0x3e105df0	0.14098334
212	0x3dd609e0	0.10451102
213	0x3ede06e4	0.43364632
214	0x3f198131	0.59962755
215	0x3f2cbe5f	0.67477983
216	0x3ef91168	0.48646092
217	0x3e651a38	0.22373283
218	0x3ef4f10a	0.47840148
219	0x3ea98972	0.33112675
220	0x3f040607	0.51571697
221	0x3f3d87ee	0.7403554
222	0x3ea10b8c	0.31454122
223	0x3ed6a09e	0.41919416
224	0x3ec4f4b0	0.38467932
225	0x3e0a8bcc	0.13529891
226	0x3ae93800	0.0017793179
227	0x3f7c1a6a	0.98477805
228	0x3f63ea71	0.89029604
229	0x3d807e38	0.06274074
230	0x3f21ec4e	0.632512
231	0x3f363a3d	0.71182615
232	0x3f30b534	0.69026494
233	0x3f3613a9	0.7112375
234	0x3e55cdd8	0.20879304
235	0x3f61de32	0.8822967
236	0x3f0b7293	0.544717
237	0x3f005627	0.5013146
238	0x3f1930a2	0.5983983
239	0x3ee31c70	0.44357634
240	0x3f08aa30	0.53384686
241	0x3e601fa8	0.21887076
242	0x3e6babc0	0.23014736
243	0x3f123f9e	0.5712832
244	0x3f6b9924	0.9203055
245	0x3f1b7bb1	0.60735613
246	0x3f22482f	0.63391393
247	0x3f268cd8	0.6505866
248	0x3f49f0b5	0.78882915
249	0x3f6dadf0	0.9284353
250	0x3c5b3d80	0.013381362
251	0x3e8c4fc6	0.27404612
252	0x3b9d1400	0.004793644
253	0x3f4c5f23	0.7983267
254	0x3f106068	0.56397104
255	0x3f7f6095	0.9975675

bn1.bias f4 [256]
0	0x00000000	0.0
1	0x00000000	0.0
2	0x00000000	0.0
3	0x00000000	0.0
4	0x00000000	0.0
5	0x00000000	0.0
6	0x00000000	0.0
7	0x00000000	0.0
8	0x00000000	0.0
9	0x00000000	0.0
10	0x00000000	0.0
11	0x00000000	0.0
12	0x00000000	0.0
13	0x00000000	0.0
14	0x00000000	0.0
15	0x00000000	0.0
16	0x00000000	0.0
17	0x00000000	0.0
18	0x00000000	0.0
19	0x00000000	0.0
20	0x00000000	0.0
21	0x00000000	0.0
22	0x00000000	0.0
23	0x00000000	0.0
24	0x00000000	0.0
25	0x00000000	0.0
26	0x00000000	0.0
27	0x00000000	0.0
28	0x00000000	0.0
29	0x00000000	0.0
30	0x00000000	0.0
31	0x00000000	0.0
32	0x00000000	0.0
33	0x00000000	0.0
34	0x00000000	0.0
35	0x00000000	0.0
36	0x00000000	0.0
37	0x00000000	0.0
38	0x00000000	0.0
39	0x00000000	0.0
40	0x00000000	0.0
41	0x00000000	0.0
42	0x00000000	0.0
43	0x00000000	0.0
44	0x00000000	0.0
45	0x00000000	0.0
46	0x00000000	0.0
47	0x00000000	0.0
48	0x00000000	0.0
49	0x00000000	0.0
50	0x00000000	0.0
51	0x00000000	0.0
52	0x00000000	0.0
53	0x00000000	0.0
54	0x00000000	0.0
55	0x00000000	0.0
56	0x00000000	0.0
57	0x00000000	0.0
58	0x00000000	0.0
59	0x00000000	0.0
60	0x00000000	0.0
61	0x00000000	0.0
62	0x00000000	0.0
63	0x00000000	0.0
64	0x00000000	0.0
65	0x00000000	0.0
66	0x00000000	0.0
67	0x00000000	0.0
68	0x00000000	0.0
69	0x00000000	0.0
70	0x00000000	0.0
71	0x00000000	0.0
72	0x00000000	0.0
73	0x00000000	0.0
74	0x00000000	0.0
75	0x00000000	0.0
76	0x00000000	0.0
77	0x00000000	0.0
78	0x00000000	0.0
79	0x00000000	0.0
80	0x00000000	0.0
81	0x00000000	0.0
82	0x00000000	0.0
83	0x00000000	0.0
84	0x00000000	0.0
85	0x00000000	0.0
86	0x00000000	0.0
87	0x00000000	0.0
88	0x00000000	0.0
89	0x00000000	0.0
90	0x00000000	0.0
91	0x00000000	0.0
92	0x00000000	0.0
93	0x00000000	0.0
94	0x00000000	0.0
95	0x00000000	0.0
96	0x00000000	0.0
97	0x00000000	0.0
98	0x00000000	0.0
99	0x00000000	0.0
100	0x00000000	0.0
101	0x00000000	0.0
102	0x00000000	0.0
103	0x00000000	0.0
104	0x00000000	0.0
105	0x00000000	0.0
106	0x00000000	0.0
107	0x00000000	0.0
108	0x00000000	0.0
109	0x00000000	0.0
110	0x00000000	0.0
111	0x00000000	0.0
112	0x00000000	0.0
113	0x00000000	0.0
114	0x00000000	0.0
115	0x00000000	0.0
116	0x00000000	0.0
117	0x00000000	0.0
118	0x00000000	0.0
119	0x00000000	0.0
120	0x00000000	0.0
121	0x00000000	0.0
122	0x00000000	0.0
123	0x00000000	0.0
124	0x00000000	0.0
125	0x00000000	0.0
126	0x00000000	0.0
127	0x00000000	0.0
128	0x00000000	0.0
129	0x00000000	0.0
130	0x00000000	0.0
131	0x00000000	0.0
132	0x00000000	0.0
133	0x00000000	0.0
134	0x00000000	0.0
135	0x00000000	0.0
136	0x00000000	0.0
137	0x00000000	0.0
138	0x00000000	0.0
139	0x00000000	0.0
140	0x00000000	0.0
141	0x00000000	0.0
142	0x00000000	0.0
143	0x00000000	0.0
144	0x00000000	0.0
145	0x00000000	0.0
146	0x00000000	0.0
147	0x00000000	0.0
148	0x00000000	0.0
149	0x00000000	0.0
150	0x00000000	0.0
151	0x00000000	0.0
152	0x00000000	0.0
153	0x00000000	0.0
154	0x00000000	0.0
155	0x00000000	0.0
156	0x00000000	0.0
157	0x00000000	0.0
158	0x00000000	0.0
159	0x00000000	0.0
160	0x00000000	0.0
161	0x00000000	0.0
162	0x00000000	0.0
163	0x00000000	0.0
164	0x00000000	0.0
165	0x00000000	0.0
166	0x00000000	0.0
167	0x00000000	0.0
168	0x00000000	0.0
169	0x00000000	0.0
170	0x00000000	0.0
171	0x00000000	0.0
172	0x00000000	0.0
173	0x00000000	0.0
174	0x00000000	0.0
175	0x00000000	0.0
176	0x00000000	0.0
177	0x00000000	0.0
178	0x00000000	0.0
179	0x00000000	0.0
180	0x00000000	0.0
181	0x00000000	0.0
182	0x00000000	0.0
183	0x00000000	0.0
184	0x00000000	0.0
185	0x00000000	0.0
186	0x00000000	0.0
187	0x00000000	0.0
188	0x00000000	0.0
189	0x00000000	0.0
190	0x00000000	0.0
191	0x00000000	0.0
192	0x00000000	0.0
193	0x00000000	0.0
194	0x00000000	0.0
195	0x00000000	0.0
196	0x00000000	0.0
197	0x00000000	0.0
198	0x00000000	0.0
199	0x00000000	0.0
200	0x00000000	0.0
201	0x00000000	0.0
202	0x00000000	0.0
203	0x00000000	0.0
204	0x00000000	0.0
205	0x00000000	0.0
206	0x00000000	0.0
207	0x00000000	0.0
208	0x00000000	0.0
209	0x00000000	0.0
210	0x00000000	0.0
211	0x00000000	0.0
212	0x00000000	0.0
213	0x00000000	0.0
214	0x00000000	0.0
215	0x00000000	0.0
216	0x00000000	0.0
217	0x00000000	0.0
218	0x00000000	0.0
219	0x00000000	0.0
220	0x00000000	0.0
221	0x00000000	0.0
222	0x00000000	0.0
223	0x00000000	0.0
224	0x00000000	0.0
225	0x00000000	0.0
226	0x00000000	0.0
227	0x00000000	0.0
228	0x00000000	0.0
229	0x00000000	0.0
230	0x00000000	0.0
231	0x00000000	0.0
232	0x00000000	0.0
233	0x00000000	0.0
234	0x00000000	0.0
235	0x00000000	0.0
236	0x00000000	0.0
237	0x00000000	0.0
238	0x00000000	0.0
239	0x00000000	0.0
240	0x00000000	0.0
241	0x00000000	0.0
242	0x00000000	0.0
243	0x00000000	0.0
244	0x00000000	0.0
245	0x00000000	0.0
246	0x00000000	0.0
247	0x00000000	0.0
248	0x00000000	0.0
249	0x00000000	0.0
250	0x00000000	0.0
251	0x00000000	0.0
252	0x00000000	0.0
253	0x00000000	0.0
254	0x00000000	0.0
255	0x00000000	0.0

bn1.running_mean f4 [256]
0	0x00000000	0.0
1	0x00000000	0.0
2	0x00000000	0.0
3	0x00000000	0.0
4	0x00000000	0.0
5	0x00000000	0.0
6	0x00000000	0.0
7	0x00000000	0.0
8	0x00000000	0.0
9	0x00000000	0.0
10	0x00000000	0.0
11	0x00000000	0.0
12	0x00000000	0.0
13	0x00000000	0.0
14	0x00000000	0.0
15	0x00000000	0.0
16	0x00000000	0.0
17	0x00000000	0.0
18	0x00000000	0.0
19	0x00000000	0.0
20	0x00000000	0.0
21	0x00000000	0.0
22	0x00000000	0.0
23	0x00000000	0.0
24	0x00000000	0.0
25	0x00000000	0.0
26	0x00000000	0.0
27	0x00000000	0.0
28	0x00000000	0.0
29	0x00000000	0.0
30	0x00000000	0.0
31	0x00000000	0.0
32	0x00000000	0.0
33	0x00000000	0.0
34	0x00000000	0.0
35	0x00000000	0.0
36	0x00000000	0.0
37	0x00000000	0.0
38	0x00000000	0.0
39	0x00000000	0.0
40	0x00000000	0.0
41	0x00000000	0.0
42	0x00000000	0.0
43	0x00000000	0.0
44	0x00000000	0.0
45	0x00000000	0.0
46	0x00000000	0.0
47	0x00000000	0.0
48	0x00000000	0.0
49	0x00000000	0.0
50	0x00000000	0.0
51	0x00000000	0.0
52	0x00000000	0.0
53	0x00000000	0.0
54	0x00000000	0.0
55	0x00000000	0.0
56	0x00000000	0.0
57	0x00000000	0.0
58	0x00000000	0.0
59	0x00000000	0.0
60	0x00000000	0.0
61	0x00000000	0.0
62	0x00000000	0.0
63	0x00000000	0.0
64	0x00000000	0.0
65	0x00000000	0.0
66	0x00000000	0.0
67	0x00000000	0.0
68	0x00000000	0.0
69	0x00000000	0.0
70	0x00000000	0.0
71	0x00000000	0.0
72	0x00000000	0.0
73	0x00000000	0.0
74	0x00000000	0.0
75	0x00000000	0.0
76	0x00000000	0.0
77	0x00000000	0.0
78	0x00000000	0.0
79	0x00000000	0.0
80	0x00000000	0.0
81	0x00000000	0.0
82	0x00000000	0.0
83	0x00000000	0.0
84	0x00000000	0.0
85	0x00000000	0.0
86	0x00000000	0.0
87	0x00000000	0.0
88	0x00000000	0.0
89	0x00000000	0.0
90	0x00000000	0.0
91	0x00000000	0.0
92	0x00000000	0.0
93	0x00000000	0.0
94	0x00000000	0.0
95	0x00000000	0.0
96	0x00000000	0.0
97	0x00000000	0.0
98	0x00000000	0.0
99	0x00000000	0.0
100	0x00000000	0.0
101	0x00000000	0.0
102	0x00000000	0.0
103	0x00000000	0.0
104	0x00000000	0.0
105	0x00000000	0.0
106	0x00000000	0.0
107	0x00000000	0.0
108	0x00000000	0.0
109	0x00000000	0.0
110	0x00000000	0.0
111	0x00000000	0.0
112	0x00000000	0.0
113	0x00000000	0.0
114	0x00000000	0.0
115	0x00000000	0.0
116	0x00000000	0.0
117	0x00000000	0.0
118	0x00000000	0.0
119	0x00000000	0.0
120	0x00000000	0.0
121	0x00000000	0.0
122	0x00000000	0.0
123	0x00000000	0.0
124	0x00000000	0.0
125	0x00000000	0.0
126	0x00000000	0.0
127	0x00000000	0.0
128	0x00000000	0.0
129	0x00000000	0.0
130	0x00000000	0.0
131	0x00000000	0.0
132	0x00000000	0.0
133	0x00000000	0.0
134	0x00000000	0.0
135	0x00000000	0.0
136	0x00000000	0.0
137	0x00000000	0.0
138	0x00000000	0.0
139	0x00000000	0.0
140	0x00000000	0.0
141	0x00000000	0.0
142	0x00000000	0.0
143	0x00000000	0.0
144	0x00000000	0.0
145	0x00000000	0.0
146	0x00000000	0.0
147	0x00000000	0.0
148	0x00000000	0.0
149	0x00000000	0.0
150	0x00000000	0.0
151	0x00000000	0.0
152	0x00000000	0.0
153	0x00000000	0.0
154	0x00000000	0.0
155	0x00000000	0.0
156	0x00000000	0.0
157	0x00000000	0.0
158	0x00000000	0.0
159	0x00000000	0.0
160	0x00000000	0.0
161	0x00000000	0.0
162	0x00000000	0.0
163	0x00000000	0.0
164	0x00000000	0.0
165	0x00000000	0.0
166	0x00000000	0.0
167	0x00000000	0.0
168	0x00000000	0.0
169	0x00000000	0.0
170	0x00000000	0.0
171	0x00000000	0.0
172	0x00000000	0.0
173	0x00000000	0.0
174	0x00000000	0.0
175	0x00000000	0.0
176	0x00000000	0.0
177	0x00000000	0.0
178	0x00000000	0.0
179	0x00000000	0.0
180	0x00000000	0.0
181	0x00000000	0.0
182	0x00000000	0.0
183	0x00000000	0.0
184	0x00000000	0.0
185	0x00000000	0.0
186	0x00000000	0.0
187	0x00000000	0.0
188	0x00000000	0.0
189	0x00000000	0.0
190	0x00000000	0.0
191	0x00000000	0.0
192	0x00000000	0.0
193	0x00000000	0.0
194	0x00000000	0.0
195	0x00000000	0.0
196	0x00000000	0.0
197	0x00000000	0.0
198	0x00000000	0.0
199	0x00000000	0.0
200	0x00000000	0.0
201	0x00000000	0.0
202	0x00000000	0.0
203	0x00000000	0.0
204	0x00000000	0.0
205	0x00000000	0.0
206	0x00000000	0.0
207	0x00000000	0.0
208	0x00000000	0.0
209	0x00000000	0.0
210	0x00000000	0.0
211	0x00000000	0.0
212	0x00000000	0.0
213	0x00000000	0.0
214	0x00000000	0.0
215	0x00000000	0.0
216	0x00000000	0.0
217	0x00000000	0.0
218	0x00000000	0.0
219	0x00000000	0.0
220	0x00000000	0.0
221	0x00000000	0.0
222	0x00000000	0.0
223	0x00000000	0.0
224	0x00000000	0.0
225	0x00000000	0.0
226	0x00000000	0.0
227	0x00000000	0.0
228	0x00000000	0.0
229	0x00000000	0.0
230	0x00000000	0.0
231	0x00000000	0.0
232	0x00000000	0.0
233	0x00000000	0.0
234	0x00000000	0.0
235	0x00000000	0.0
236	0x00000000	0.0
237	0x00000000	0.0
238	0x00000000	0.0
239	0x00000000	0.0
240	0x00000000	0.0
241	0x00000000	0.0
242	0x00000000	0.0
243	0x00000000	0.0
244	0x00000000	0.0
245	0x00000000	0.0
246	0x00000000	0.0
247	0x00000000	0.0
248	0x00000000	0.0
249	0x00000000	0.0
250	0x00000000	0.0
251	0x00000000	0.0
252	0x00000000	0.0
253	0x00000000	0.0
254	0x00000000	0.0
255	0x00000000	0.0

bn1.running_var f4 [256]
0	0x3f800000	1.0
1	0x3f800000	1.0
2	0x3f800000	1.0
3	0x3f800000	1.0
4	0x3f800000	1.0
5	0x3f800000	1.0
6	0x3f800000	1.0
7	0x3f800000	1.0
8	0x3f800000	1.0
9	0x3f800000	1.0
10	0x3f800000	1.0
11	0x3f800000	1.0
12	0x3f800000	1.0
13	0x3f800000	1.0
14	0x3f800000	1.0
15	0x3f800000	1.0
16	0x3f800000	1.0
17	0x3f800000	1.0
18	0x3f800000	1.0
19	0x3f800000	1.0
20	0x3f800000	1.0
21	0x3f800000	1.0
22	0x3f800000	1.0
23	0x3f800000	1.0
24	0x3f800000	1.0
25	0x3f800000	1.0
26	0x3f800000	1.0
27	0x3f800000	1.0
28	0x3f800000	1.0
29	0x3f800000	1.0
30	0x3f800000	1.0
31	0x3f800000	1.0
32	0x3f800000	1.0
33	0x3f800000	1.0
34	0x3f800000	1.0
35	0x3f800000	1.0
36	0x3f800000	1.0
37	0x3f800000	1.0
38	0x3f800000	1.0
39	0x3f800000	1.0
40	0x3f800000	1.0
41	0x3f800000	1.0
42	0x3f800000	1.0
43	0x3f800000	1.0
44	0x3f800000	1.0
45	0x3f800000	1.0
46	0x3f800000	1.0
47	0x3f800000	1.0
48	0x3f800000	1.0
49	0x3f800000	1.0
50	0x3f800000	1.0
51	0x3f800000	1.0
52	0x3f800000	1.0
53	0x3f800000	1.0
54	0x3f800000	1.0
55	0x3f800000	1.0
56	0x3f800000	1.0
57	0x3f800000	1.0
58	0x3f800000	1.0
59	0x3f800000	1.0
60	0x3f800000	1.0
61	0x3f800000	1.0
62	0x3f800000	1.0
63	0x3f800000	1.0
64	0x3f800000	1.0
65	0x3f800000	1.0
66	0x3f800000	1.0
67	0x3f800000	1.0
68	0x3f800000	1.0
69	0x3f800000	1.0
70	0x3f800000	1.0
71	0x3f800000	1.0
72	0x3f800000	1.0
73	0x3f800000	1.0
74	0x3f800000	1.0
75	0x3f800000	1.0
76	0x3f800000	1.0
77	0x3f800000	1.0
78	0x3f800000	1.0
79	0x3f800000	1.0
80	0x3f800000	1.0
81	0x3f800000	1.0
82	0x3f800000	1.0
83	0x3f800000	1.0
84	0x3f800000	1.0
85	0x3f800000	1.0
86	0x3f800000	1.0
87	0x3f800000	1.0
88	0x3f800000	1.0
89	0x3f800000	1.0
90	0x3f800000	1.0
91	0x3f800000	1.0
92	0x3f800000	1.0
93	0x3f800000	1.0
94	0x3f800000	1.0
95	0x3f800000	1.0
96	0x3f800000	1.0
97	0x3f800000	1.0
98	0x3f800000	1.0
99	0x3f800000	1.0
100	0x3f800000	1.0
101	0x3f800000	1.0
102	0x3f800000	1.0
103	0x3f800000	1.0
104	0x3f800000	1.0
105	0x3f800000	1.0
106	0x3f800000	1.0
107	0x3f800000	1.0
108	0x3f800000	1.0
109	0x3f800000	1.0
110	0x3f800000	1.0
111	0x3f800000	1.0
112	0x3f800000	1.0
113	0x3f800000	1.0
114	0x3f800000	1.0
115	0x3f800000	1.0
116	0x3f800000	1.0
117	0x3f800000	1.0
118	0x3f800000	1.0
119	0x3f800000	1.0
120	0x3f800000	1.0
121	0x3f800000	1.0
122	0x3f800000	1.0
123	0x3f800000	1.0
124	0x3f800000	1.0
125	0x3f800000	1.0
126	0x3f800000	1.0
127	0x3f800000	1.0
128	0x3f800000	1.0
129	0x3f800000	1.0
130	0x3f800000	1.0
131	0x3f800000	1.0
132	0x3f800000	1.0
133	0x3f800000	1.0
134	0x3f800000	1.0
135	0x3f800000	1.0
136	0x3f800000	1.0
137	0x3f800000	1.0
138	0x3f800000	1.0
139	0x3f800000	1.0
140	0x3f800000	1.0
141	0x3f800000	1.0
142	0x3f800000	1.0
143	0x3f800000	1.0
144	0x3f800000	1.0
145	0x3f800000	1.0
146	0x3f800000	1.0
147	0x3f800000	1.0
148	0x3f800000	1.0
149	0x3f800000	1.0
150	0x3f800000	1.0
151	0x3f800000	1.0
152	0x3f800000	1.0
153	0x3f800000	1.0
154	0x3f800000	1.0
155	0x3f800000	1.0
156	0x3f800000	1.0
157	0x3f800000	1.0
158	0x3f800000	1.0
159	0x3f800000	1.0
160	0x3f800000	1.0
161	0x3f800000	1.0
162	0x3f800000	1.0
163	0x3f800000	1.0
164	0x3f800000	1.0
165	0x3f800000	1.0
166	0x3f800000	1.0
167	0x3f800000	1.0
168	0x3f800000	1.0
169	0x3f800000	1.0
170	0x3f800000	1.0
171	0x3f800000	1.0
172	0x3f800000	1.0
173	0x3f800000	1.0
174	0x3f800000	1.0
175	0x3f800000	1.0
176	0x3f800000	1.0
177	0x3f800000	1.0
178	0x3f800000	1.0
179	0x3f800000	1.0
180	0x3f800000	1.0
181	0x3f800000	1.0
182	0x3f800000	1.0
183	0x3f800000	1.0
184	0x3f800000	1.0
185	0x3f800000	1.0
186	0x3f800000	1.0
187	0x3f800000	1.0
188	0x3f800000	1.0
189	0x3f800000	1.0
190	0x3f800000	1.0
191	0x3f800000	1.0
192	0x3f800000	1.0
193	0x3f800000	1.0
194	0x3f800000	1.0
195	0x3f800000	1.0
196	0x3f800000	1.0
197	0x3f800000	1.0
198	0x3f800000	1.0
199	0x3f800000	1.0
200	0x3f800000	1.0
201	0x3f800000	1.0
202	0x3f800000	1.0
203	0x3f800000	1.0
204	0x3f800000	1.0
205	0x3f800000	1.0
206	0x3f800000	1.0
207	0x3f800000	1.0
208	0x3f800000	1.0
209	0x3f800000	1.0
210	0x3f800000	1.0
211	0x3f800000	1.0
212	0x3f800000	1.0
213	0x3f800000	1.0
214	0x3f800000	1.0
215	0x3f800000	1.0
216	0x3f800000	1.0
217	0x3f800000	1.0
218	0x3f800000	1.0
219	0x3f800000	1.0
220	0x3f800000	1.0
221	0x3f800000	1.0
222	0x3f800000	1.0
223	0x3f800000	1.0
224	0x3f800000	1.0
225	0x3f800000	1.0
226	0x3f800000	1.0
227	0x3f800000	1.0
228	0x3f800000	1.0
229	0x3f800000	1.0
230	0x3f800000	1.0
231	0x3f800000	1.0
232	0x3f800000	1.0
233	0x3f800000	1.0
234	0x3f800000	1.0
235	0x3f800000	1.0
236	0x3f800000	1.0
237	0x3f800000	1.0
238	0x3f800000	1.0
239	0x3f800000	1.0
240	0x3f800000	1.0
241	0x3f800000	1.0
242	0x3f800000	1.0
243	0x3f800000	1.0
244	0x3f800000	1.0
245	0x3f800000	1.0
246	0x3f800000	1.0
247	0x3f800000	1.0
248	0x3f800000	1.0
249	0x3f800000	1.0
250	0x3f800000	1.0
251	0x3f800000	1.0
252	0x3f800000	1.0
253	0x3f800000	1.0
254	0x3f800000	1.0
255	0x3f800000	1.0

fc2.weight f4 [256, 256]
0	0xbc909d06	-0.017653
1	0x3dacc1e2	0.08435418
2	0x3ccc2171	0.02491829
3	0x3b4b6774	0.0031037005
4	0xbd882c9c	-0.066491336
5	0xbd224b25	-0.039622445
6	0xbddea63f	-0.10871553
7	0x3d55c54b	0.052190106
8	0x3d6568ef	0.056008276
9	0xbd10d1ee	-0.035356455
10	0x3cdd24c7	0.026995076
11	0x3d3a02dd	0.045412887
12	0xbb7ae21d	-0.0038281747
13	0xbd1e2617	-0.038610544
14	0xbda620f5	-0.08111755
15	0xbdef1c01	-0.11675263
16	0x3cd1402a	0.025543291
17	0xbdda9de4	-0.106746465
18	0xbd157135	-0.036484916
19	0xbde462b0	-0.11151636
20	0x3d9e3c51	0.07726348
21	0xbd16b951	-0.036797825
22	0xbcba39d8	-0.02273266
23	0x3d664abc	0.056223616
24	0x3be0c1b3	0.0068590282
25	0xbb9135f6	-0.0044314815
26	0xbe2109a0	-0.15726328
27	0xbd84fb52	-0.06493248
28	0x3d2e5b88	0.04256776
29	0x3ca03f2c	0.019561373
30	0x3dcd8d59	0.100367256
31	0x3d0a401b	0.033752542
32	0xbe04e3d3	-0.12977533
33	0xbdad536d	-0.08463178
34	0xbda2bfda	-0.07946749
35	0xbdbfb12e	-0.09359966
36	0x3c66b3c5	0.014080946
37	0x3e1ce9aa	0.15323511
38	0x3e07d745	0.13265713
39	0xbd80ef16	-0.06295602
40	0xbcc33ffd	-0.023834223
41	0x3d8046ab	0.06263479
42	0x3dc59223	0.09647014
43	0xbda767b7	-0.08174079
44	0xbb4f4aa0	-0.0031630173
45	0xbd353dcd	-0.04424839
46	0xbe01c87e	-0.12674138
47	0xbe0a9b04	-0.13535696
48	0xbc27a9fb	-0.010233398
49	0xbc3ee3f2	-0.011651026
50	0xbd56b2e0	-0.052416682
51	0xbdba71dd	-0.09103749
52	0xbc779c5b	-0.015112962
53	0x3dcb3034	0.099213034
54	0x3d9a0be4	0.07521799
55	0xbdbc19b3	-0.09184589
56	0xbbfadbb5	-0.0076555857
57	0x3d2558b3	0.040367793
58	0xbe840e84	-0.25792325
59	0x3ba0ec5c	0.0049109887
60	0x3d910f36	0.070829794
61	0x3c849340	0.016183496
62	0xbe8201a2	-0.2539187
63	0xbd9eec85	-0.07759956
64	0x3db449d9	0.08803148
65	0xbd21f126	-0.039536618
66	0xbce3bca0	-0.027799904
67	0x3c8d9be4	0.017286249
68	0xbda4aeef	-0.080411784
69	0xbd7441eb	-0.059633177
70	0x3b9638fe	0.0045844307
71	0x3a63502d	0.000867131
72	0xbd658788	-0.056037456
73	0xbce2aa39	-0.02766906
74	0x3c813af1	0.015775176
75	0xbda5f0b0	-0.08102548
76	0xbd8e2425	-0.06940488
77	0x3c81f2ce	0.015862849
78	0xbda7fccb	-0.08202513
79	0x3cef2068	0.029190257
80	0xbd224985	-0.039620895
81	0x3ca1944a	0.01972403
82	0xbd473d76	-0.048642598
83	0xbdc65095	-0.096833386
84	0xbe269f8c	-0.162718
85	0x3dae85df	0.08521628
86	0x3d0bf94a	0.034173287
87	0xbd7eb807	-0.06218722
88	0x3dbe4aee	0.092916355
89	0x3ce38c8e	0.027776983
90	0xbde35420	-0.1110003
91	0xbb237aba	-0.0024944977
92	0xbdeb2bab	-0.114829384
93	0xbdad5a84	-0.0846453
94	0xbd96fddc	-0.073726386
95	0x3d50def1	0.050993863
96	0xbda9bf8f	-0.0828849
97	0xbd55674a	-0.052100457
98	0x3cbf5bd3	0.023359215
99	0x39b9dd04	0.0003545062
100	0xbdb2549a	-0.08707543
101	0xbcc9c88e	-0.024631765
102	0xbd06e988	-0.032937557
103	0x3d0215f5	0.03175922
104	0xbe6c1afc	-0.23057169
105	0x3cd9f292	0.026604924
106	0x3ce0d92a	0.027447302
107	0xbe07b6a9	-0.13253273
108	0x3c92f1f3	0.017937636
109	0xbe6bb9db	-0.23020117
110	0xbd2bb2cc	-0.04191856
111	0xba9d1e44	-0.0011987169
112	0xbd9df4dd	-0.077127196
113	0x3d9ea710	0.077467084
114	0x3dcf3fe6	0.101196095
115	0x3da1d106	0.07901196
116	0x3db2d974	0.08732882
117	0x3db3381f	0.087509386
118	0xbdc4f924	-0.09617832
119	0xbd1b655d	-0.037938464
120	0xbd991f8d	-0.07476721
121	0xbd2c6602	-0.04208947
122	0xbcecdf29	-0.028915005
123	0xbe15bafc	-0.1462211
124	0x3d100057	0.035156574
125	0x3d6f8d3e	0.05848431
126	0x3d9dcd54	0.07705179
127	0x3df9c178	0.12195104
128	0x3d76e3d1	0.060275856
129	0x3d06817c	0.03283833
130	0xbd776d75	-0.06040712
131	0xbcf8a4d9	-0.030352043
132	0x3cf318b9	0.029674875
133	0xbaf3269a	-0.0018550933
134	0x3be8bfc2	0.0071029374
135	0x3d90bc7c	0.070672005
136	0xbd436c29	-0.04771057
137	0xbd9a59cf	-0.07536661
138	0xbe39c44e	-0.1814129
139	0xbddde192	-0.1083404
140	0xbd71e223	-0.05905355
141	0x3d318e40	0.04334855
142	0xbb4af01f	-0.0030965877
143	0x3d10e7cf	0.03537732
144	0xbdc1de35	-0.09466211
145	0x3da3e811	0.080032475
146	0x3b0b9f4d	0.0021304667
147	0xbd933717	-0.07188242
148	0xbe0015e3	-0.12508349
149	0xbd55601b	-0.052093606
150	0xbdd7e6a9	-0.10542042
151	0xbe108293	-0.1411231
152	0x3cc9a4b0	0.024614662
153	0xbddf1fa5	-0.108947076
154	0xbce571d1	-0.028008373
155	0xbd053244	-0.03251864
156	0xbda84198	-0.08215636
157	0xbb5670c5	-0.0032721024
158	0xbd6ad9bc	-0.057336554
159	0xbd8a42e7	-0.06751042
160	0xbcc82148	-0.024429932
161	0xbd6d3616	-0.05791291
162	0xbda61fae	-0.08111511
163	0xbd0946e7	-0.033514883
164	0xbd3f4d09	-0.046704326
165	0xbdcd6d3f	-0.10030603
166	0x3da673a5	0.08127526
167	0xbc230b1f	-0.009951382
168	0xbdcd6df7	-0.1003074
169	0x3e1dd6d2	0.15413979
170	0xbd519754	-0.05116971
171	0x3c17f852	0.009275513
172	0xbd0f7a3b	-0.035028677
173	0xbccaa36c	-0.024736129
174	0xbdf49d02	-0.11944009
175	0xbc9ba1e0	-0.018998086
176	0x3bd103c1	0.0063786213
177	0x3d98d53b	0.074625455
178	0xbde0e0b6	-0.1098036
179	0xbd33a8eb	-0.043862265
180	0x3dd2d7e1	0.10295082
181	0x3e1fd5c2	0.15608886
182	0xbd333830	-0.043754756
183	0xbd20b5b5	-0.03923579
184	0xbe688c95	-0.22709878
185	0x3d3ea375	0.046542604
186	0xbd3af2ff	-0.045641895
187	0x3c121ede	0.008918492
188	0x3dbc26ee	0.09187113
189	0xbd9bbc02	-0.07604219
190	0x3d4eafe8	0.050460726
191	0x3c99e4e0	0.018785894
192	0x3d3830db	0.044968467
193	0x3d7108c3	0.058846246
194	0x3e07c035	0.13256915
195	0xbc03beff	-0.0080411425
196	0xbd8be878	-0.06831449
197	0xbdf909cc	-0.12160072
198	0x3c6f34de	0.014600007
199	0xbd202d26	-0.039105557
200	0xbcf03c3f	-0.029325603
201	0xbcc6169f	-0.024180708
202	0xbdb7242a	-0.089424446
203	0xbd948d37	-0.07253497
204	0x3d5640c6	0.052307867
205	0x3e13995d	0.14413972
206	0x3d2ae85b	0.041725498
207	0x3d93406b	0.07190021
208	0x3ce8e0b8	0.028427467
209	0xbcb19d03	-0.021681314
210	0xbd69bf2c	-0.05706708
211	0xbd453b93	-0.048152518
212	0xbd228eb5	-0.039686877
213	0xbd847ae3	-0.06468751
214	0x3c252db2	0.010081695
215	0xbdf57721	-0.11985613
216	0xbdb3010d	-0.08740435
217	0xbd2879a9	-0.04113165
218	0xbcc0032d	-0.023439014
219	0xbde38b7a	-0.111105874
220	0xbdc81555	-0.09769694
221	0xbe04acf3	-0.129566
222	0x3cecf47c	0.028925173
223	0xbd78ec82	-0.060772426
224	0x3dbc511a	0.091951564
225	0xbc23f732	-0.010007666
226	0xbd2020d0	-0.039093792
227	0x3db59f0e	0.08868228
228	0x3d4f2e14	0.050581053
229	0xbdfe5ca5	-0.12420014
230	0x3ca52825	0.020160744
231	0x3c2fe7b7	0.0107363975
232	0x3ded4872	0.115860835
233	0x3e004c51	0.12529112
234	0xbb1082d0	-0.0022050627
235	0xbbf94c41	-0.007607967
236	0xbdf0ae22	-0.11751963
237	0xbddbb712	-0.10728277
238	0x3d6447f9	0.0557327
239	0xbdc1b4cd	-0.09458313
240	0xbd4bff35	-0.04980393
241	0x3bc3878a	0.0059670852
242	0xbda1c20b	-0.07898339
243	0x3cf9d5ca	0.03049745
244	0x3c9ba8f3	0.01900146
245	0xbce26c4b	-0.027639529
246	0xbaddaad1	-0.0016911869
247	0xbde5e9b1	-0.11226214
248	0xbdd26294	-0.102727085
249	0xbd5f64cf	-0.054539498
250	0x3c942bd8	0.018087313
251	0x3d829f8b	0.06378087
252	0x3cf10f16	0.029426139
253	0x3d10180b	0.03517918
254	0xbbbebf7f	-0.005821168
255	0xbda7b3a1	-0.08188558

fc2.bias f4 [256]
0	0xbdc0e190	-0.09418023
1	0xbdc36939	-0.09541554
2	0xbce2b81d	-0.027675683
3	0xbd46d4e5	-0.048542876
4	0x3d4c4897	0.049873915
5	0xbcf66da3	-0.030081576
6	0x3d3b6894	0.04575403
7	0x3cc90b3d	0.024541492
8	0x3cf67128	0.030083254
9	0xbc5ac981	-0.013353706
10	0xbd4d568c	-0.050131366
11	0x3dc2992f	0.09501874
12	0xbcbf08ee	-0.023319688
13	0xb99e73a4	-0.00030222267
14	0xbd0fdb5a	-0.0351213
15	0xbd85b89c	-0.06529352
16	0x3d608af4	0.054820016
17	0x3d5f68cd	0.054543305
18	0x3dbcba2d	0.09215198
19	0x3cc724f2	0.02430961
20	0xbd7ba5ae	-0.0614373
21	0xbda7aa4e	-0.0818678
22	0x3dfc128e	0.123082265
23	0x3ca95492	0.02067021
24	0x3db3f2f2	0.087865725
25	0x3d28a399	0.041171644
26	0xbd9c6743	-0.07636883
27	0xbd95fa95	-0.07323185
28	0xbd02fa2f	-0.031976875
29	0xbc977bd2	-0.01849166
30	0x3e0501a6	0.1298891
31	0xbe10f751	-0.14156844
32	0xbc0c5ca7	-0.008567012
33	0x3dc399bb	0.09550806
34	0xbd4a4e61	-0.049391154
35	0x3c1d8847	0.009615011
36	0x39aeea85	0.00033362597
37	0x3c62986d	0.013830286
38	0xbc23cf0c	-0.009998094
39	0xbd9495f6	-0.07255165
40	0x3ca80e2c	0.02051457
41	0x3cc0b173	0.023522114
42	0x3d82caa2	0.063863054
43	0x3d490779	0.049079392
44	0x3da14f6c	0.07876477
45	0xbdb35096	-0.08755605
46	0xbd0f7e02	-0.03503228
47	0x3d6b3be2	0.057430156
48	0xbbe28166	-0.006912398
49	0x3d0f451a	0.03497801
50	0x3cb18b62	0.021672908
51	0x3bf477ec	0.007460585
52	0xbd2c6a19	-0.04209337
53	0x3d59cb76	0.05317255
54	0xbe1e54bb	-0.1546201
55	0xbd29535c	-0.041339263
56	0xbdb8369b	-0.0899479
57	0xbcd02793	-0.025409495
58	0xbe1dbb75	-0.1540354
59	0x3cbf7cb6	0.023374896
60	0x3da56635	0.08076135
61	0xbd968e67	-0.0735138
62	0x3ccb368b	0.024806282
63	0x3d1a8911	0.037728373
64	0xbbd7a4f7	-0.0065809446
65	0xbd12f641	-0.035879377
66	0xbd4e69bc	-0.050393805
67	0x3d5550c9	0.052078996
68	0x3d04f3fa	0.032459237
69	0x3d60390b	0.0547419
70	0xbdb264f2	-0.0871066
71	0x3c64226f	0.013924225
72	0x3d2c0dad	0.04200523
73	0xbd89b355	-0.06723658
74	0x3cc79be8	0.024366334
75	0x3da6bd1d	0.08141539
76	0x3c0901c0	0.008362234
77	0xbe01a4eb	-0.12660567
78	0xbc358663	-0.011079404
79	0x3dbaf846	0.09129386
80	0xbe0005f3	-0.1250227
81	0x3d06474f	0.03278285
82	0x3d58071a	0.052741148
83	0x3c29f6a9	0.01037375
84	0x3c7598ca	0.014990041
85	0xbcf88401	-0.030336382
86	0x3d88db9c	0.06682512
87	0x3d3c61d8	0.04599175
88	0x3d4e029b	0.050295454
89	0xbcfd26ad	-0.030902231
90	0xbd74758e	-0.05968242
91	0x3d25631f	0.040377732
92	0x3d724974	0.05915208
93	0x3d5e76e6	0.05431261
94	0xbdf2f27b	-0.11862656
95	0xbd81f4cb	-0.06345519
96	0xbd80863f	-0.062756054
97	0x3d7eebf2	0.062236734
98	0x3c72ad02	0.014811756
99	0x3c092600	0.008370876
100	0xbbf29071	-0.0074024727
101	0xbdba5430	-0.09098089
102	0x3d12f072	0.035873838
103	0xbdab0ea6	-0.08352403
104	0x3d1bcda4	0.03803791
105	0xbd3a4553	-0.04547627
106	0x3e144520	0.14479494
107	0xbd8b6822	-0.06806971
108	0xbdba6cfc	-0.09102818
109	0x3dc22576	0.09479801
110	0xbdb198f8	-0.086717546
111	0x3d07d7b3	0.03316469
112	0xbd5efb04	-0.054438606
113	0xbb60b8dc	-0.0034289872
114	0xbd577565	-0.05260219
115	0xbc9b2147	-0.018936766
116	0x3cf642cc	0.030061148
117	0xbceac9b0	-0.028660625
118	0x3d95fa49	0.07323129
119	0x3d8e54f3	0.069497965
120	0x3df5b9d7	0.11998337
121	0xbd0d0127	-0.034424927
122	0x3d0ad249	0.03389195
123	0xbddd8071	-0.10815514
124	0x3e0193a7	0.12653981
125	0xbd8c1196	-0.06839292
126	0xbc4a3410	-0.012341514
127	0xbd8b2340	-0.06793833
128	0x3ce525b3	0.027972078
129	0xbd4d938b	-0.050189536
130	0xbdb6be42	-0.089230075
131	0xbd14fadc	-0.03637205
132	0x3d7946bb	0.06085847
133	0xbd05056f	-0.032475885
134	0xbd9122ee	-0.070867404
135	0xbd1588eb	-0.03650753
136	0xbd12e8d5	-0.035866577
137	0x3d804ef9	0.06265063
138	0x3dab94d3	0.08377995
139	0xbcf35723	-0.029704636
140	0xbd394f3a	-0.045241572
141	0xbd6ae771	-0.057349626
142	0xbd73b51c	-0.05949889
143	0xbdcfe4e6	-0.10151081
144	0x3d200576	0.039067708
145	0x3dc0d669	0.094158955
146	0x3db02253	0.08600297
147	0xbc081887	-0.008306629
148	0x3da562ac	0.08075461
149	0x3dfe0300	0.12402916
150	0x3c66d76d	0.014089447
151	0xbb796866	-0.003805661
152	0xbd9945f2	-0.07484044
153	0x3d02e88d	0.03196006
154	0x3d586ec1	0.05284
155	0xbd3f2264	-0.046663657
156	0x3c914c45	0.017736563
157	0xbd862ab2	-0.06551112
158	0x3c1eba47	0.009687967
159	0xbd7fa56e	-0.062413625
160	0xbd71e27d	-0.059053887
161	0xbd8c16b9	-0.068402715
162	0xbd3f4ec0	-0.04670596
163	0xbcc70162	-0.024292652
164	0x3dab0ec8	0.08352429
165	0x3d3cb4a2	0.046070702
166	0xbcc4aa37	-0.024006946
167	0xbdb52b27	-0.08846121
168	0xbd46292e	-0.048379116
169	0x3cd9ce7c	0.026587717
170	0x3c16ec1e	0.009211568
171	0x3d94ed55	0.0727183
172	0x3df4d92c	0.11955485
173	0x3d926a6a	0.07149203
174	0x3c426d3c	0.011866864
175	0x3cc82244	0.024430402
176	0xbd641f5b	-0.055693965
177	0x3ce98380	0.028505087
178	0xbcc23123	-0.02370507
179	0x3c468f48	0.012119122
180	0x3cb622ef	0.022233455
181	0xbca6f852	-0.02038208
182	0x3dc15045	0.09439138
183	0xbd0e07c5	-0.03467538
184	0xbcc8a067	-0.024490548
185	0xbd44fa95	-0.048090536
186	0x3c340db7	0.010989598
187	0xbd908af6	-0.07057755
188	0xbdd9c18c	-0.10632619
189	0x3e0634af	0.13106035
190	0x3d46ac99	0.048504446
191	0x3dd429eb	0.10359558
192	0x3ddce31b	0.107855044
193	0x3c4cb7b1	0.012494967
194	0xbd005f59	-0.03134093
195	0xbd2d1445	-0.04225566
196	0xbda5f51b	-0.08103391
197	0x3d8e92ae	0.06961571
198	0x3cc6f98e	0.024288919
199	0x3c5bc82d	0.013414425
200	0x3d739cca	0.059475698
201	0xbd91932a	-0.071081474
202	0xbc538946	-0.0129111465
203	0x3c689d90	0.014197722
204	0xbbc9ec2d	-0.0061621876
205	0xbda4df46	-0.080503985
206	0x3d4d8984	0.050179973
207	0xbdafab68	-0.08577615
208	0x3d1b991a	0.037987806
209	0x3d4b573c	0.04964374
210	0x3dc46eb3	0.09591427
211	0xbbf08787	-0.007340375
212	0x3d7adb8e	0.06124454
213	0x3d055d4c	0.032559678
214	0x3cb2af23	0.021812027
215	0x3dba26e1	0.09089447
216	0x3dd073fd	0.10178373
217	0x3db34b2d	0.08754573
218	0x3dcd8e8c	0.10036954
219	0xbd6a398d	-0.05718379
220	0x3d8cd36e	0.068762645
221	0xbd2ac7ec	-0.041694567
222	0x3d4614ff	0.048359867
223	0x3c1d6c2c	0.00960831
224	0xbd248c47	-0.04017284
225	0x3d996a64	0.074909955
226	0xbdf871e3	-0.12131097
227	0xbcb22b5d	-0.021749193
228	0xbc36ffb5	-0.011169364
229	0xbd6183eb	-0.055057447
230	0x3c9377c5	0.018001447
231	0x3c81812d	0.015808666
232	0x3c7125ca	0.014718482
233	0x3bc5faee	0.006041876
234	0xbcf336a9	-0.02968915
235	0x3de15f4a	0.11004503
236	0xbdd70ba7	-0.105002694
237	0xbd2adbae	-0.04171341
238	0x3d6c0267	0.05761948
239	0xbda01eca	-0.078183725
240	0xbce74bdd	-0.028234417
241	0xbd9a45d7	-0.07532852
242	0xbda1d372	-0.07901658
243	0xbb9ffa49	-0.0048821312
244	0xbd66f978	-0.056390256
245	0x3d0bd8e9	0.03414241
246	0xbccf788b	-0.025326034
247	0xbdd1e60f	-0.10248958
248	0xbd8ffacf	-0.0703026
249	0xbd45c11c	-0.048279867
250	0xbcbd6ba4	-0.023122616
251	0x3d8b87bb	0.06812998
252	0xbc1e6a5c	-0.009668913
253	0x3d20536d	0.03914206
254	0x3ac76fd1	0.0015215819
255	0xbd375b06	-0.04476454
