models/Prob_Noise_DeepNet_BufferPlus_Learn_FreqMin_BatchNorm_03/agent_1_critic.pth (torch_old, 97375 bytes, 9 tensors)

fcs1.weight f4 [128, 52]
00000000: 6b20 ef3d b415 37be e91b d53b 5c1b 0a3d
00000010: dcf1 e1bf 3ad2 0e3f 4b65 d73b 89ba 9a3b
00000020: 957c 213e 21ad 13be 1fb9 143d 4013 0b3d
00000030: 5f01 f9bf 9f1e f6bd 7adf ffbc b48c 013a
00000040: eb2b 9d3e 1707 aabe 816f 873c b0dc 853d
00000050: 1029 05c0 0c8d 06bf 751a ecbc 93c8 e9bc
00000060: afae 4abe dbf7 003e 3647 413c da0b 2dbb
00000070: c03f dd3f 0ccb 163f 6ca4 d43b de76 eabb
00000080: fcf8 98bd eadc ab3d 6d06 953d bedb 873d
00000090: 273a 0440 4359 2abe d019 99bd 79d7 003c
000000a0: 48d1 ec3b 2f5e d23e 4daf 353d afb0 e1bc
000000b0: 83ff 0340 e8bc 09bf d87b 72bd 5dae d93c
000000c0: c07b f5bd d45d d9be 3f64 7d3e 2036 9dbc
000000d0: 6a62 0b3f 9433 10be aad2 02be 84c5 ce3e
000000e0: fa9f 2b3d 347f 52bf ae45 eabc 6a15 a23e
000000f0: 5f9d ce3e c9e2 07be 6783 a9bd cfc0 e43d
00000100: 580f 473e 2287 6ebf 00cf 06be a856 543d
00000110: fd33 193f 625c 3abe f9f4 1f3d a642 f53e
00000120: 9106 0d3e c53e 1bbf db00 2c3c 5ee7 ea3e
00000130: 4de5 ab3f 43c9 0c3f 0080 50bd b09d 0d3f
00000140: b30d a7bc 828d 2abf f616 36bd cb2d 123f
00000150: e860 a03f 7bc6 653f 5427 8cbe a4d1 943e
00000160: 34d7 12be ce5f 84bf fa74 46be f95a aa3e
00000170: 17b8 c53f 0643 e13e a0d6 983d b60b 41bf
00000180: ae24 75bd 2928 2bbf 46b3 84bd 5e34 4dbf
00000190: 6708 a23f 5db9 81bd a5a3 333f d255 293f
000001a0: 1005 7a3e b98f e23f 917e dabc bc25 29bd
000001b0: e17e e6be b540 6e3f 0e92 f5bc b1c8 81bd
000001c0: 4006 983e 8c29 e93f 6f16 793b b904 153e
000001d0: c597 713e 9f6d 32be f1ac 16bd a1ed 003e
000001e0: 6a39 003e ec88 0740 1109 df3c c954 673f
000001f0: 95a7 0b3f 075e cdbf d8d2 9fbd a1be 613f
00000200: a097 9d3e bdad 833f 978c d4bc 21b3 33be
00000210: dd96 f13e 2e42 823f c8e5 8e3d 7e54 fcbc
00000220: 45c3 193e 9d7c 9d3f 3302 fb3b f538 e53c
00000230: ff7c 0fbe 328a 76be c1eb 193d b8cc 00bc
00000240: 5c6c 48bc 2001 c33f 66d6 183b e5d9 e53e
00000250: a977 31bf 6379 d0bf 63ad 65bc 5d0b cf3e
00000260: 5272 17bf 0ba2 bebd bb5d 11c0 7f4e 8abf
00000270: 9c1f b63e fe51 4a3f 9505 55bd 7725 033e
00000280: 3b26 ccbe a1f3 f0be ac65 6d3d ccb9 a0b8
00000290: 1853 2a3f 76e1 3d3f 41d5 263d cdc3 db3d
000002a0: 8021 40bf faa2 a8be 6b6c 24bd d1a9 d83d
000002b0: 8eca 803f bce6 1d3f 748e 103d 6d67 0c3f
000002c0: 4178 a7bf de51 6ebf 75b1 80bd 79bf 113f
000002d0: 20cc 08bf 1773 8a3f dbfa b2bc e870 2cbd
000002e0: 096f ca3e 7d70 21bf 0497 313c 18d2 aebd
000002f0: 3ee2 173e 186c 853f d669 e03b 6e3e 883e
00000300: d0e7 483f 74f4 d3be b6ce 9bbd 0259 9f3e
00000310: 917e ff3e 15a3 673f 2f72 46bd 13ef 013f
00000320: 6956 a53f 9173 7dbf 3ea2 873c f9b4 093f
00000330: 7c4a 123f 3383 1d3e 8302 f5bf fed3 523f
00000340: 84af f43e 676c 8c3f 2895 fbbd 1b0e d33b
00000350: b130 b03d 338c 21bf b3c9 eebb efe4 373d
00000360: 9269 db3e b8e7 6c3f 5ab2 32bd 55bf 193c
00000370: 2420 a13d 0712 4dbf aa3d b7bd 785c 1abd
00000380: a884 1d3f e7b3 703f 9a24 dcbd a3d9 21be
00000390: 62f4 8d3c 1017 81bf f882 90bc a937 56be
000003a0: 228b 713f 1d6c eb3d d0d1 f1bd e4b5 873e
000003b0: c57c e8bd 4605 28bf 5279 6bbe ac8b 0d3e
000003c0: 1c01 6c3f 2638 103f df9a e43d d39a dc3e
000003d0: 9873 0dbe 1f6d 4abf 7225 8d3d e1ab db3e
000003e0: 4ca0 533f 1c8a 163f 4ffb 41bd 1969 c9bd
000003f0: a22a ca3d 6a7a 87bf 0549 34bc ca67 78be
0.11676105 -0.17879373 0.0065035713 0.0337175 -1.7651935 0.5578953 0.0065733544 0.0047219438
0.1577018 -0.14421512 0.036309358 0.033953905 -1.9453543 -0.12017559 -0.031234492 0.0004941926
0.3069757 -0.33208534 0.016532661 0.065362334 -2.0806313 -0.5255897 -0.02882121 -0.028538024
-0.19793199 0.1259455 0.011796763 -0.002640477 1.728508 0.58903575 0.006489327 -0.0071552834
-0.07469365 0.083917454 0.07276616 0.06633709 2.0660493 -0.16635613 -0.074756265 0.007863873
0.0072270967 0.4108748 0.044356633 -0.02755007 2.0624702 -0.53803873 -0.059200138 0.0265724
-0.11986494 -0.42454398 0.24745272 -0.019190848 0.5444704 -0.14082175 -0.12775674 0.40385067
0.041900612 -0.82225347 -0.028597679 0.31656963 0.4035444 -0.13270105 -0.08277016 0.11169588
0.19439447 -0.93174946 -0.13164902 0.051840454 0.5984495 -0.18199304 0.039051984 0.4790241
0.13772036 -0.60642654 0.010498251 0.45879644 1.3429352 0.549946 -0.05090332 0.5531874
-0.020392274 -0.66622174 -0.04445549 0.57101125 1.2529573 0.8975598 -0.27373755 0.29066193
-0.14339906 -1.0341737 -0.1938056 0.33272532 1.5446805 0.43996447 0.074628115 -0.75408494
-0.059849434 -0.66858155 -0.06479506 -0.8015803 1.2658814 -0.06334183 0.70171577 0.66146576
0.24415994 1.7700111 -0.02667168 -0.041295752 -0.45018676 0.93067485 -0.02997687 -0.06337107
0.29692268 1.8215804 0.0038007756 0.14552583 0.23593052 -0.1742463 -0.036786024 0.12590648
0.12521902 2.117732 0.027226003 0.90363747 0.54552585 -1.604432 -0.07803887 0.881815
0.30779743 1.0287396 -0.025945945 -0.17548801 0.47185412 1.0176446 0.06977421 -0.030802008
0.15015896 1.2303654 0.0076601743 0.02798126 -0.14012526 -0.24076155 0.037578348 -0.007861309
-0.012232866 1.5234718 0.002332115 0.44892803 -0.6932321 -1.6287044 -0.014018389 0.40438357
-0.59158814 -0.09308251 -2.2713459 -1.0805205 0.3557099 0.7903136 -0.052007277 0.1280726
-0.39872918 -0.47060874 0.05795829 -7.664002e-05 0.6653304 0.7417215 0.04073072 0.107307054
-0.75051117 -0.3293684 -0.040142458 0.10579265 1.0061815 0.616802 0.035292104 0.54845315
-1.3083574 -0.9309367 -0.06283847 0.5693279 -0.5343647 1.0816373 -0.021848133 -0.042099863
0.39537838 -0.6306227 0.010839228 -0.08536166 0.14832398 1.0423613 0.006848554 0.2661013
0.7847872 -0.4139744 -0.07607786 0.31122595 0.4990125 0.9048322 -0.048448738 0.50755423
1.2916995 -0.99004465 0.016556855 0.5379177 0.57144904 0.1538208 -1.9141392 0.82354724
0.47790158 1.0970582 -0.12284309 0.0064408905 0.08603037 -0.6310455 -0.007287228 0.044896062
0.4285398 0.92541075 -0.04362712 0.009383996 0.078674585 -0.8010563 -0.08947308 -0.03768584
0.6153054 0.9402451 -0.10749169 -0.15805678 0.017328445 -1.0085163 -0.017640576 -0.2091967
0.94352925 0.1149523 -0.11807597 0.2650596 -0.11351923 -0.65633047 -0.22995499 0.13822812
0.9218919 0.56335676 0.11162352 0.43086872 -0.13813627 -0.79072756 0.06891908 0.4290457
0.8266647 0.5880449 -0.047358807 -0.09834499 0.09871413 -1.0584233 -0.011003737 -0.24258342

fcs1.bias f4 [128]
00000000: d558 48be b356 0abf a43a 3c3f 100e 95bf
00000010: f284 ecbe 2038 26be f10e 10bf 9cd8 46bf
00000020: 7692 4abf f425 77bf 11b0 5ebf eea1 72bf
00000030: 7b3f 93be e811 34bf 678b 93be 03aa 0bbf
00000040: 895b b5bf 3e8d 1cbf 4df5 29c0 2c20 89bf
00000050: 7a06 0ebf 0108 7dbf 4cad 43bf dbb1 11bf
00000060: e97a 8abf 13cd 8d3e dca4 80bf f957 8abe
00000070: 138e b8be 8215 14bf c0be 34bf 6d25 96bf
00000080: 2e55 f4be cc20 02bf 2e70 15bf 60e4 ebbe
00000090: d355 fbbe dce0 8fbe ffa7 4abf d67b f4bf
000000a0: ebf7 403e 73ab 27bf a59f 44be 7016 1cbf
000000b0: bbee b5be a3ae 78bf 8b3e 03bf 4fae 30bf
000000c0: 97dd 61bf 9a35 60bf 73d1 88bf 8c00 72bf
000000d0: 6f77 3cbf 6773 2fbf 27f8 92bf 513e 61bf
000000e0: 328d b1be 9b9e 85bf 34de 54bf 3a6d 06bf
000000f0: 2151 42bf 8f5c 15bf 45ff 09bf fa33 2fbe
00000100: a97e 3cbf 79a3 45bf f735 d43f 7645 71be
00000110: d755 9abe 1ba1 45bf 8f6e cfbe 57e4 e9be
00000120: d5ef 71bf 3570 d23e 1a2e 4fbf 14df 15c0
00000130: 336f e5be 1f22 0bbf 3c40 69bf afe6 a5bd
00000140: 1ed9 e9be 02e1 0ebf 88d4 57bf c128 2a3f
00000150: dd8b b2be 5f16 e3be 7666 b8be 4f8c 26bf
00000160: 31ed ddbe bc4e f3be c7bc 44bf 6d4e afbe
00000170: 31b3 65bf 15cf 9cbe 3e43 e8be bf6c 22bd
00000180: df78 e3be 6419 09bf 3325 78bf f996 e2bd
00000190: 9bc3 923d 972e 59bf 7fa8 d3be c931 5abf
000001a0: 0a3f 85bf 1825 d7be b7fb 90be 0e77 45be
000001b0: db35 9dbe 76c5 85bf 7b26 d1be 71d5 e3bf
000001c0: 0a1b e9be 9591 02bf 2f15 4e3f 609c a7be
000001d0: 7bd9 f9be 9e83 44bf 71ac 68bf 49d4 f3be
000001e0: 7992 00bf 2a44 ecbe a4f0 90bf 5e8a 29bf
000001f0: 5358 f3be 6c20 243f 43f4 b0be a30c 58bf
-0.19565137 -0.5403854 0.7352698 -1.1644917 -0.4619518 -0.16232347 -0.562728 -0.7767427
-0.7912973 -0.96542287 -0.86987406 -0.94778335 -0.2875937 -0.7033982 -0.28817293 -0.5455629
-1.4168559 -0.6115302 -2.655597 -1.0712943 -0.5547863 -0.9884034 -0.76436305 -0.5691201
-1.0818759 0.27695522 -1.0050311 -0.27020243 -0.36045894 -0.5784532 -0.7060356 -1.1730171
-0.47721237 -0.50831294 -0.583743 -0.46072674 -0.49088916 -0.28101242 -0.7916259 -1.9100292
0.18844573 -0.65495986 -0.19201525 -0.60971737 -0.355337 -0.97141474 -0.5126731 -0.69015974
-0.88228744 -0.8758179 -1.0688919 -0.94532084 -0.7361974 -0.68535465 -1.148198 -0.8798571
-0.34678036 -1.0439028 -0.83151555 -0.52510417 -0.7590504 -0.5834436 -0.53905135 -0.17109671
-0.7363077 -0.77202564 1.6578969 -0.23561653 -0.30143616 -0.7719895 -0.40514037 -0.45682022
-0.9450658 0.41101232 -0.8092972 -2.3417406 -0.448114 -0.5434894 -0.9111364 -0.0810064
-0.4567346 -0.55812085 -0.8430867 0.66468436 -0.34872332 -0.44353005 -0.36015671 -0.65057844
-0.43345025 -0.47521007 -0.7685055 -0.34239522 -0.8972655 -0.3062674 -0.45363802 -0.03965449
-0.44428155 -0.5355437 -0.9693176 -0.11063952 0.07166215 -0.84836715 -0.4133949 -0.85232216
-1.0409863 -0.42020488 -0.28317043 -0.19283697 -0.3070515 -1.0450885 -0.4084967 -1.7799512
-0.45528442 -0.5100339 0.80501074 -0.32736492 -0.48798737 -0.7676333 -0.90888125 -0.47622898
-0.502235 -0.46145755 -1.1323438 -0.66226757 -0.47528324 0.6411197 -0.34561357 -0.8439428

fc2.weight f4 [128, 128]
00000000: 24e2 84be 78c0 da3c 1891 04be cee2 94bd
00000010: 9904 afbd 55f7 c53d 6bf4 9c3d 7bba f63d
00000020: 5a60 9fbc 6dcb a13d d28b c6ba 5275 bfbd
00000030: 543b 61bd d55e bfbd 69a5 213d e18a 6abe
00000040: 7aad 52bc 61bc bdbd a342 d8bd a7eb 203d
00000050: 1af3 82be 24b9 f9bd 0ffb 04be 0060 213c
00000060: bade f2bc 427b d2bd cac8 c73b b628 743d
00000070: 3ece dcbd df3f 803d cf06 67bd ad71 71be
00000080: 4afd 0abe bcb3 07be 1ae7 19be d7ca 37bd
00000090: 2442 79bd 29fb fbbd dc43 983d f619 39bd
000000a0: 37cf a1bb 70ed c1bd 274a 23be 7129 4f3d
000000b0: 2ae0 0a3b 65e4 3bbc 9168 93bd 7041 22be
000000c0: cb9a 44bd 69ea 7ebd c72b 51bd c631 01be
000000d0: 6ded f0bd a1eb 913d 0a7a 9fbc b3f3 a8bd
000000e0: 4fa6 56bc f773 a7bd 36b5 b7bd d491 abbc
000000f0: dde4 0abe 11d8 26bd 3448 633b d26c 27bd
00000100: bf71 08bd c5e1 46bd f875 1cbe a5b1 5bbc
00000110: 0b1d 4bbd a51e ebbc 2ece 0dbd bb22 dbbc
00000120: 246f e9bd 7760 91bd 76a7 4d3d c0fa 46be
00000130: ba07 3abd 2de2 2bbe a2e8 8dbb 99e5 bebd
00000140: b833 37be b340 6dbd d193 23bd 72ed febd
00000150: 8513 1cbe 90d7 f2bc 7c63 44bc 3595 febd
00000160: 933f 08bd 01f8 dbbd 781e 26be d572 95bd
00000170: 2152 81bc 17fb 38bc f161 7fbd 3988 f9bd
00000180: f0ac 11bd 38dc d5bb fe55 e2bd 443d 1a3d
00000190: 1797 90bd 08d7 9cbd be92 cabd 13bb 02be
000001a0: 2b99 303d c76d 3ebd 0aa6 82bd a4f8 adbd
000001b0: 7bb9 39bd 9f5b 0c3d 7ae1 073c e0a1 e33c
000001c0: 789d c5bd ac2b 13be da4e d63c c23d ddbd
000001d0: b991 5abc 23e8 4dbd 3faa afbc 7622 c03b
000001e0: 3e89 87bd 4905 cb37 f43c eabd b283 4d3d
000001f0: f647 13be 1056 cabc 400c b03c f87a 8a3d
00000200: 330f ab3d 90a6 7ebd 068a f8bd e009 10be
00000210: a489 98bd e0fc b0bd 9ae0 22be d7fc d3bd
00000220: 815a 05bd e651 08bb ab25 91bc 4ccd adbd
00000230: a2ba 28bd d9a9 e33c 6995 25be 6322 6dbd
00000240: 3f50 8cbc 2012 91bc 927f d4bd 6d45 4ebe
00000250: 4f4a 22be 7f52 19bd cea7 01be bce7 0abd
00000260: e01c b4ba 454b 293d 8478 9ebd 5fb9 debc
00000270: e8af 1bbe 049f 973d fe11 c03d 7463 a5bd
00000280: a57c 5bbd 2b83 e8bd 0541 cebd 4e68 08be
00000290: 3f40 113c 6a9d dcbd 3f81 afbc e881 48bd
000002a0: 0944 52be ee76 76bd 3527 2dbe 2fd3 aebd
000002b0: a6dc c6bc 7755 11be 1d0c debd 6afa a53d
000002c0: 6fb2 f2bc 84e7 3fbe 8e1a c13b 72c8 b33c
000002d0: 500e 2c3b bef9 dcbd 669d 18bc 5d35 3fbe
000002e0: 4d46 7a3d 0a8a e4bb b04c 57be 3204 00bd
000002f0: 4f62 fbbd 6b24 713c 85d8 ef3c 14ab 093d
00000300: d81d febd 4d15 ddbd b1f5 6ebe 9527 ab3d
00000310: dbbf b5bd 6c01 c03c 120f 54be 9ad5 c8bd
00000320: 3166 07bd 57e5 bcbc cd7c 51bd f50e 5fbe
00000330: e4f4 3abd fc32 5ebe bd67 04be 2027 20bd
00000340: d01c 19be 9572 433c 2ceb 19bd dbc5 7fbd
00000350: 12a5 2fbd 6569 a6bd 2f62 b0bd 6325 9fbd
00000360: 41ef 31bd 9252 24be ca65 16be 31e0 733c
00000370: fc53 6fbd e1a7 b2bb 38f1 1ebd 9b71 68be
00000380: 75cf 8c3d db6a c0bc 0e60 cabd afd1 003c
00000390: 7488 e7bb 4b44 b6bd 2b83 7b3d 1865 d3bd
000003a0: bbf1 64be 0032 02bd 2b7e 9abd 95e5 6c3a
000003b0: e21c 17be da6c ddbb 37c2 943d 282f aebe
000003c0: 9352 02bd af76 86bd 672f 24bd 2dec 25bd
000003d0: 45d7 b7bd 5ec9 3dbe 5c87 a13d 4f02 75bd
000003e0: cf36 bebd 526c 60bd d719 a5bd c70d f13c
000003f0: 80db df3c 5177 8e3d e904 46be eba7 083c
-0.25953782 0.026703104 -0.12945974 -0.07269822 -0.08545799 0.096663155 0.076638065 0.12047287
-0.019455124 0.079001285 -0.0015147871 -0.09348549 -0.05498822 -0.0934426 0.039464388 -0.2290454
-0.012858743 -0.09264446 -0.10559585 0.039287236 -0.25576097 -0.12193516 -0.12986396 0.009849548
-0.02964722 -0.10277416 0.006096934 0.059609137 -0.10781525 0.062621824 -0.056402978 -0.2357852
-0.13573185 -0.13252157 -0.15029564 -0.044871178 -0.060854092 -0.123037644 0.07434818 -0.045190774
-0.004938032 -0.09469116 -0.15946256 0.05057663 0.002119074 -0.011468028 -0.07197679 -0.15845275
-0.047999185 -0.06223527 -0.05106714 -0.12616643 -0.117640354 0.07125021 -0.019467372 -0.08249607
-0.0131011745 -0.081764154 -0.0897011 -0.02094356 -0.13563867 -0.0407334 0.0034680488 -0.040875264
-0.0333116 -0.048555154 -0.15279377 -0.013409053 -0.049588244 -0.028701136 -0.034620456 -0.02674996
-0.113981515 -0.07098477 0.05020853 -0.19431591 -0.045417525 -0.16785498 -0.0043307105 -0.09321136
-0.17890823 -0.05792303 -0.03993589 -0.12447633 -0.15241821 -0.029643804 -0.01198661 -0.12430803
-0.033263754 -0.10740662 -0.1622256 -0.07297293 -0.015786232 -0.011290333 -0.062349264 -0.121841855
-0.035565317 -0.0065264963 -0.11051558 0.037656084 -0.07060068 -0.076582015 -0.0989127 -0.12766676
0.043114822 -0.04649141 -0.06379326 -0.0849469 -0.045342904 0.034267064 0.008293504 0.027787149
-0.096491754 -0.14372128 0.026160646 -0.10802795 -0.013340407 -0.05027021 -0.021443484 0.005863483
-0.06617974 2.4201947e-05 -0.11437407 0.050174423 -0.1438292 -0.02469924 0.021490216 0.06761736
0.083525084 -0.062170565 -0.12135701 -0.14066267 -0.07448128 -0.08641982 -0.15905991 -0.1035096
-0.032557014 -0.0020800768 -0.017718157 -0.08486423 -0.041193612 0.02779095 -0.16170277 -0.05789412
-0.017128108 -0.017708838 -0.103758946 -0.20143671 -0.15848659 -0.03743219 -0.12661669 -0.033912405
-0.0013741516 0.04133155 -0.0773783 -0.027188001 -0.15203822 0.07403377 0.09378432 -0.0807561
-0.053585667 -0.11353143 -0.10070995 -0.13321039 0.008865415 -0.10772212 -0.021423934 -0.048952013
-0.20533766 -0.060172014 -0.16909488 -0.08536374 -0.024275135 -0.14192759 -0.10842154 0.08104403
-0.0296261 -0.1874066 0.005893058 0.021946166 0.0026253648 -0.10789822 -0.00931487 -0.186727
0.0611022 -0.0069744634 -0.21025348 -0.031254 -0.1227461 0.014718155 0.02927805 0.03361042
-0.12408036 -0.107950784 -0.23335911 0.08357159 -0.08874484 0.023438178 -0.20708874 -0.09806366
-0.03305644 -0.023058577 -0.05114441 -0.2178305 -0.045643702 -0.21699136 -0.12930198 -0.039099813
-0.14952397 0.011929174 -0.037577793 -0.06244455 -0.042882033 -0.08125571 -0.08612477 -0.07770803
-0.04344106 -0.16047123 -0.14687267 0.014884994 -0.058429703 -0.0054521416 -0.038804263 -0.22699587
0.06875507 -0.023488453 -0.09881602 0.007862492 -0.007065827 -0.088997446 0.06140439 -0.103220165
-0.22357838 -0.031785965 -0.07543596 0.0009036896 -0.14757112 -0.006757361 0.07263606 -0.34020352
-0.03181703 -0.06565606 -0.04008427 -0.040508438 -0.08976606 -0.18533847 0.07887146 -0.059816655
-0.09287798 -0.054790802 -0.08061569 0.029425515 0.027326345 0.069563515 -0.1933781 0.008340816

fc2.bias f4 [128]
00000000: 2ed9 8ebe 8338 a7bd 28bb 4cbe 5d9e 71be
00000010: 278b 07be 5c77 82be cb41 83be 2d3e 57be
00000020: 773c 98bd 3a19 86be 7bab 2abe cff1 5dbe
00000030: 0e67 03be b037 82be 4b23 85be b26a 50be
00000040: 2575 49be ff6a b73d d13b 77be 9e03 aabe
00000050: 8f9c bcbd 8a73 9bbe a29d 51be fa05 8fbe
00000060: 45b5 40be 599a 45be 2b13 38be f147 fdbd
00000070: 5488 26be 52b0 20be 9b01 b8be 00ce 64be
00000080: 55a3 51be 9f6b dcbd 2147 4dbe 4123 39be
00000090: 49be b7bd a117 7bbe e0ed 53be d5a7 87be
000000a0: 130e 2bbe f6c7 d0bd bd01 7bbe d467 6bbe
000000b0: 4d09 0fbe 12f5 a5be 010d 2fbe 6163 62be
000000c0: 60ba 3dbe 601b 23be 1cf7 4abe 12b8 32be
000000d0: 5c17 72be 91c7 26be 5b4f 0abe 8c54 32be
000000e0: 8d44 77be 289f a3be 3687 6ebe 0ee1 7fbe
000000f0: 86c1 35be a036 2abe 8530 38be a51a 7dbd
00000100: 80e9 b5be 6ef1 0fbe 0153 86be da36 48be
00000110: 115d 4fbe 5351 2dbe 4078 51be 9b65 96be
00000120: 9498 33be ae59 17be d899 10be 6b8d 3bbe
00000130: 36c2 13be f77b 3dbe 26f8 43be a6ee 2ebe
00000140: c46d 9fbe 3b5c 07bf 12e8 14be 26e9 3abe
00000150: 3741 56be f34f f0bd 31ac 15be b6d6 13be
00000160: 04c3 45be 4dfd 9ebe 7bce 8ebe 50c6 74be
00000170: 34c3 44be 3d35 8ebe 397e 25be 5ea9 9abe
00000180: 52cf 18be 2df3 8dbd 0096 69be b863 7ebe
00000190: d575 32be 71a2 6ebe ac95 6bbe e582 89be
000001a0: fc04 5abe 6b60 4dbe 7d51 90be beb0 3ebe
000001b0: f4b5 30be ff48 10be 524a 6bbd 9dbc e5bd
000001c0: bef1 b23f 3c62 c4bd 19da b0bd 23d2 9ebe
000001d0: f168 dcbd 7011 2fbe 0137 acbd d576 6ebe
000001e0: d98b 0a40 9b0f 49be c2ff 0ebd 84f8 4abe
000001f0: 309c 3abe 63c0 85bd 4c6a 0ebe d896 4ebe
-0.2790007 -0.08165076 -0.1999327 -0.23595567 -0.13236676 -0.2548169 -0.25636134 -0.21019812
-0.07433408 -0.2619112 -0.16666977 -0.21674274 -0.12832281 -0.2543311 -0.2600349 -0.20353201
-0.19673593 0.08955955 -0.24143912 -0.33205885 -0.09209549 -0.30361587 -0.20470288 -0.27934247
-0.18819149 -0.1929716 -0.17976062 -0.12367237 -0.16262943 -0.15692261 -0.35938725 -0.22344208
-0.20472462 -0.107627146 -0.20046665 -0.18079855 -0.08971841 -0.24520732 -0.20696211 -0.26495233
-0.16704588 -0.101943895 -0.24512382 -0.22988826 -0.13968392 -0.32413536 -0.17094804 -0.22108223
-0.18528128 -0.15928411 -0.19820827 -0.1745303 -0.23641723 -0.16287066 -0.13506834 -0.17415065
-0.24147244 -0.31957364 -0.23293766 -0.24988195 -0.17749605 -0.166224 -0.17987259 -0.06179299
-0.3552971 -0.14056942 -0.26235202 -0.19552174 -0.20250346 -0.16925554 -0.20456028 -0.29374394
-0.17538673 -0.14780304 -0.14121187 -0.18315665 -0.14429554 -0.1850432 -0.1913763 -0.17083225
-0.31138432 -0.5287511 -0.14541653 -0.18253002 -0.20923315 -0.11733999 -0.14616467 -0.14437374
-0.19312674 -0.31052628 -0.27891907 -0.23903775 -0.19215089 -0.27774993 -0.16161431 -0.30207342
-0.14922836 -0.06931148 -0.22811127 -0.24842727 -0.17427762 -0.23304154 -0.23006314 -0.26857677
-0.21290964 -0.20056312 -0.2818717 -0.1862211 -0.1725691 -0.14090346 -0.057443924 -0.11217616
1.3980024 -0.09589049 -0.08635349 -0.31019697 -0.107622035 -0.17096496 -0.08408929 -0.23287518
2.1647856 -0.1963486 -0.03491188 -0.19821364 -0.18223643 -0.065308355 -0.13907737 -0.2017473

fc3.weight f4 [1, 128]
00000000: ac73 163c 9e30 85bc 58a8 ed3b e0fa 2dbc
00000010: fe3d f0bb 2043 31bc 76dd 9f3b 2f83 50bb
00000020: 94f8 eabb b95e 31bc 0c4e 9aba 53f0 653b
00000030: ef71 a7bc 951e 743c c596 47bc 2767 623b
00000040: a83f bdbc 3042 223d aefd 8bbc 34c8 fa3a
00000050: 6522 813c 8d95 b2bc 3ec0 c7bb d847 d5bc
00000060: cca0 a73c f344 8abc 4524 b3bc 581e bbbc
00000070: 4621 0abb a238 383d 674b ee3b 3720 a1bc
00000080: e465 133c 11c3 833c 3db6 d03b 0113 9fba
00000090: 907b 7e3b 3e04 4f3c fbba eb3c 1829 ff3c
000000a0: 273b 57bc b593 c83c 6551 ddbb 8d87 4f3c
000000b0: dd87 0ebc 2766 533c b0e4 eabc 6ade e83c
000000c0: 1e0b 03bc f547 163d 18a8 bfbc 6bfc 17bc
000000d0: 38e3 97bc ea72 54ba bff1 9f3c 5dca cebc
000000e0: f729 e33c de43 253d 85aa f9bb 3197 4c3c
000000f0: 0b42 deb9 55b5 b43c a282 6f3c 163a 90bb
00000100: c1fe c93c fc78 79bc f596 8a3c 3fc6 ec3b
00000110: e132 543c 714d 6e3c 590b 403a 9391 773b
00000120: fc82 df3c 8acd 373c ceb8 b83c 280d f5bc
00000130: 9a49 e33c 7fd8 9d3c 70bb cb3c b2d9 8fbb
00000140: 0929 b5bc 9cb1 ecbb 0f46 a0bc 2f88 9e3b
00000150: 5507 ca3c f36c 0f3c c9a6 c93c e1b9 1cbb
00000160: 90e3 833c 3c68 3cbc d47c 2abc 9f22 843c
00000170: 650e d93c 8d4a 5cbc 67ac d73c f762 283c
00000180: 1e95 773c 0322 f83c bdb7 cabc bd04 1bbc
00000190: 110b 463c 9ee4 d3bc 8d94 f6bc 0456 c93c
000001a0: 6a29 d4bc 0c62 e93c d105 f1bc 259a a3bc
000001b0: d61c 50bc 1004 303b a99a 7f3c 635f ebbc
000001c0: 5754 913c bfaf 3a3b 4b84 f8bc 81f7 dd3c
000001d0: 0455 e9bc 1d35 3e3b a8f8 e2bc 2a27 37bc
000001e0: f473 1d3c 710e b73c 1f5e 923c c172 c93c
000001f0: 3494 4a3c 75b5 e33b 4bc8 693c 6f72 e23b
0.009182852 -0.016258534 0.007252734 -0.010618895 -0.007331609 -0.0108192265 0.004878695 -0.0031816473
-0.007170746 -0.010825806 -0.0011772527 0.0035085871 -0.02044007 0.014899869 -0.012181942 0.0034546347
-0.023101643 0.039613903 -0.017088737 0.0019133152 0.01576347 -0.021799827 -0.006095915 -0.026035234
0.020462416 -0.01687858 -0.02186788 -0.022841617 -0.0021076961 0.044975884 0.0072721723 -0.019668682
0.008996461 0.016084226 0.0063693807 -0.0012136401 0.0038830973 0.012635289 0.028775683 0.031147525
-0.013136662 0.024484495 -0.0067540877 0.012666595 -0.0086993845 0.012902773 -0.0286735 0.028426368
-0.007998256 0.036689717 -0.023395583 -0.00927649 -0.018540964 -0.0008104282 0.019524453 -0.025242979
0.027729971 0.040347926 -0.0076192045 0.012487219 -0.00042392345 0.022059122 0.014618548 -0.0044014556
0.024657609 -0.015226599 0.016917685 0.007225781 0.012951584 0.014544831 0.00073259097 0.0037775978
0.027284138 0.011218438 0.02254906 -0.0299135 0.027745057 0.019268272 0.02486965 -0.004389965
-0.022114294 -0.007223321 -0.019564657 0.0048380117 0.0246617 0.008754003 0.024615662 -0.0023914503
0.016099721 -0.011499461 -0.010405738 0.01612979 0.026496122 -0.013445509 0.026327325 0.010277501
0.015111236 0.030289656 -0.024745816 -0.009461579 0.012087599 -0.02586585 -0.030100131 0.024577148
-0.025898654 0.028489135 -0.029421719 -0.019970963 -0.0127021875 0.002685789 0.015600839 -0.028732007
0.017740412 0.00284861 -0.03033652 0.027095558 -0.028482921 0.0029023357 -0.02770646 -0.011178771
0.009610165 0.022345753 0.017867146 0.024590852 0.012364436 0.0069491216 0.014268945 0.006910614

b1.weight f4 [128]
00000000: 4487 9c3e e70b 3c3f 70e5 753e 62b6 343f
00000010: a8e2 703e 00f1 203d 9457 9c3e 8030 ea3e
00000020: 4467 de3e f139 0c3f e6eb 9b3e 0148 2e3f
00000030: 9655 5b3f 341e 0f3e a67e 7f3f 5b77 623f
00000040: 5aca dc3e 7688 483f 4c15 6d3e bab2 523f
00000050: ff6b 303f bed5 673f 2452 783e d011 d03e
00000060: 24ec 963e 015e 7f3f ac9d 7c3e c677 3f3f
00000070: 00df 633d 3023 793f b791 6b3f 98f4 103e
00000080: a872 b23e d0d6 353f 00ae f03d be2d 093f
00000090: 4678 093f 30cc 6f3e 9352 133f 01e0 363f
000000a0: 1d80 7e3f 2d10 1a3f ac92 a13e 1884 073e
000000b0: 70ec 623d 5cbf 7f3e 5912 3b3f 9187 663f
000000c0: 49f4 623f da98 3b3f ca70 ff3e 8080 923e
000000d0: 5c6b 6c3f 789a e73d c0b4 3a3d 7c27 8b3e
000000e0: 3412 3b3f 27a6 283f d6b6 823e eb49 193f
000000f0: 24f2 b53e 98c1 9f3e d02c 463e 6cae 703f
00000100: d619 973e eab9 393f 70f0 4d3f d716 313f
00000110: f4c0 f03e 5061 6c3e b8f6 503e 3675 613f
00000120: 4b18 523f 8a16 d93e 5071 d93e 840d 4e3f
00000130: 91f6 0c3f ce93 513f d592 4e3f 2c35 5f3e
00000140: 4075 0d3e e840 5a3f 0a02 d83e 6cb2 2c3e
00000150: e2e4 973e 9e22 d53e ec81 6a3f 1a63 fb3e
00000160: 48cd 6c3f 1431 953e b8ac 853e c616 813e
00000170: c12a 193f adb8 733f 80a9 073c 24d1 143f
00000180: a0cf 2e3f 025d c93e 90c7 f93d 70ca 0b3d
00000190: 64ca 9a3e 7107 3f3f 0ea0 f63e 421c 813e
000001a0: a144 633f 618c 4d3f 2f5a 6a3f 3ad4 713f
000001b0: 5f4c 4d3f 377a 6b3f c07c 843c 32e8 573f
000001c0: ae57 303f e83f 043f 1e93 633f b219 803e
000001d0: ccad 123f fc0b 903e ef17 593f 0c80 063e
000001e0: ae56 b33e e00d 263d 7a97 f83e d799 113f
000001f0: a078 6a3f 81fd 263f 8046 4a3c e2d3 fc3e
0.3057195 0.7345566 0.24013305 0.70590794 0.23523962 0.039292336 0.30535567 0.45740128
0.4343816 0.5477591 0.30453414 0.6807862 0.8567747 0.13976365 0.99802625 0.8846337
0.43123132 0.7833322 0.23152655 0.82303965 0.6891479 0.9056052 0.24250084 0.4063859
0.29477036 0.99752814 0.24669522 0.74792135 0.05563259 0.97319317 0.9201922 0.14155805
0.348531 0.710309 0.11751938 0.5358542 0.5369915 0.23417735 0.57547873 0.7143555
0.99414235 0.6018093 0.31557214 0.13233984 0.055401266 0.24975342 0.7307487 0.9005061
0.88654 0.7328011 0.4989074 0.28613663 0.9235132 0.113087595 0.045582533 0.27178562
0.7307465 0.6587853 0.25530118 0.59878415 0.355363 0.31202388 0.19353032 0.94016147
0.295119 0.7254931 0.80445004 0.69175476 0.47022212 0.23083997 0.20406616 0.88069475
0.8206832 0.42400008 0.42469263 0.80489373 0.5506373 0.8186616 0.806928 0.21797627
0.13814259 0.8525529 0.42189056 0.16864938 0.2966681 0.41627973 0.91604495 0.49099046
0.92500734 0.29139006 0.26108336 0.25212687 0.5983086 0.9520367 0.008280158 0.58131623
0.6828556 0.39328772 0.12196267 0.034128606 0.30232537 0.7462073 0.48168987 0.25216872
0.88776594 0.80292326 0.9154386 0.9446446 0.8019466 0.9198336 0.016172767 0.84338677
0.6888379 0.51660013 0.8889636 0.25019604 0.57296443 0.28134143 0.84802145 0.13134784
0.3502707 0.040540576 0.48553067 0.56875366 0.9159031 0.65230566 0.01234591 0.49380404

b1.bias f4 [128]
00000000: 0000 0000 0000 0000 0000 0000 0000 0000
00000010: 0000 0000 0000 0000 0000 0000 0000 0000
00000020: 0000 0000 0000 0000 0000 0000 0000 0000
00000030: 0000 0000 0000 0000 0000 0000 0000 0000
00000040: 0000 0000 0000 0000 0000 0000 0000 0000
00000050: 0000 0000 0000 0000 0000 0000 0000 0000
00000060: 0000 0000 0000 0000 0000 0000 0000 0000
00000070: 0000 0000 0000 0000 0000 0000 0000 0000
00000080: 0000 0000 0000 0000 0000 0000 0000 0000
00000090: 0000 0000 0000 0000 0000 0000 0000 0000
000000a0: 0000 0000 0000 0000 0000 0000 0000 0000
000000b0: 0000 0000 0000 0000 0000 0000 0000 0000
000000c0: 0000 0000 0000 0000 0000 0000 0000 0000
000000d0: 0000 0000 0000 0000 0000 0000 0000 0000
000000e0: 0000 0000 0000 0000 0000 0000 0000 0000
000000f0: 0000 0000 0000 0000 0000 0000 0000 0000
00000100: 0000 0000 0000 0000 0000 0000 0000 0000
00000110: 0000 0000 0000 0000 0000 0000 0000 0000
00000120: 0000 0000 0000 0000 0000 0000 0000 0000
00000130: 0000 0000 0000 0000 0000 0000 0000 0000
00000140: 0000 0000 0000 0000 0000 0000 0000 0000
00000150: 0000 0000 0000 0000 0000 0000 0000 0000
00000160: 0000 0000 0000 0000 0000 0000 0000 0000
00000170: 0000 0000 0000 0000 0000 0000 0000 0000
00000180: 0000 0000 0000 0000 0000 0000 0000 0000
00000190: 0000 0000 0000 0000 0000 0000 0000 0000
000001a0: 0000 0000 0000 0000 0000 0000 0000 0000
000001b0: 0000 0000 0000 0000 0000 0000 0000 0000
000001c0: 0000 0000 0000 0000 0000 0000 0000 0000
000001d0: 0000 0000 0000 0000 0000 0000 0000 0000
000001e0: 0000 0000 0000 0000 0000 0000 0000 0000
000001f0: 0000 0000 0000 0000 0000 0000 0000 0000
0.0 0.0 0.0 0.0 0.0 0.0 0.0 0.0
0.0 0.0 0.0 0.0 0.0 0.0 0.0 0.0
0.0 0.0 0.0 0.0 0.0 0.0 0.0 0.0
0.0 0.0 0.0 0.0 0.0 0.0 0.0 0.0
0.0 0.0 0.0 0.0 0.0 0.0 0.0 0.0
0.0 0.0 0.0 0.0 0.0 0.0 0.0 0.0
0.0 0.0 0.0 0.0 0.0 0.0 0.0 0.0
0.0 0.0 0.0 0.0 0.0 0.0 0.0 0.0
0.0 0.0 0.0 0.0 0.0 0.0 0.0 0.0
0.0 0.0 0.0 0.0 0.0 0.0 0.0 0.0
0.0 0.0 0.0 0.0 0.0 0.0 0.0 0.0
0.0 0.0 0.0 0.0 0.0 0.0 0.0 0.0
0.0 0.0 0.0 0.0 0.0 0.0 0.0 0.0
0.0 0.0 0.0 0.0 0.0 0.0 0.0 0.0
0.0 0.0 0.0 0.0 0.0 0.0 0.0 0.0
0.0 0.0 0.0 0.0 0.0 0.0 0.0 0.0

b1.running_mean f4 [128]
00000000: 0000 0000 0000 0000 0000 0000 0000 0000
00000010: 0000 0000 0000 0000 0000 0000 0000 0000
00000020: 0000 0000 0000 0000 0000 0000 0000 0000
00000030: 0000 0000 0000 0000 0000 0000 0000 0000
00000040: 0000 0000 0000 0000 0000 0000 0000 0000
00000050: 0000 0000 0000 0000 0000 0000 0000 0000
00000060: 0000 0000 0000 0000 0000 0000 0000 0000
00000070: 0000 0000 0000 0000 0000 0000 0000 0000
00000080: 0000 0000 0000 0000 0000 0000 0000 0000
00000090: 0000 0000 0000 0000 0000 0000 0000 0000
000000a0: 0000 0000 0000 0000 0000 0000 0000 0000
000000b0: 0000 0000 0000 0000 0000 0000 0000 0000
000000c0: 0000 0000 0000 0000 0000 0000 0000 0000
000000d0: 0000 0000 0000 0000 0000 0000 0000 0000
000000e0: 0000 0000 0000 0000 0000 0000 0000 0000
000000f0: 0000 0000 0000 0000 0000 0000 0000 0000
00000100: 0000 0000 0000 0000 0000 0000 0000 0000
00000110: 0000 0000 0000 0000 0000 0000 0000 0000
00000120: 0000 0000 0000 0000 0000 0000 0000 0000
00000130: 0000 0000 0000 0000 0000 0000 0000 0000
00000140: 0000 0000 0000 0000 0000 0000 0000 0000
00000150: 0000 0000 0000 0000 0000 0000 0000 0000
00000160: 0000 0000 0000 0000 0000 0000 0000 0000
00000170: 0000 0000 0000 0000 0000 0000 0000 0000
00000180: 0000 0000 0000 0000 0000 0000 0000 0000
00000190: 0000 0000 0000 0000 0000 0000 0000 0000
000001a0: 0000 0000 0000 0000 0000 0000 0000 0000
000001b0: 0000 0000 0000 0000 0000 0000 0000 0000
000001c0: 0000 0000 0000 0000 0000 0000 0000 0000
000001d0: 0000 0000 0000 0000 0000 0000 0000 0000
000001e0: 0000 0000 0000 0000 0000 0000 0000 0000
000001f0: 0000 0000 0000 0000 0000 0000 0000 0000
0.0 0.0 0.0 0.0 0.0 0.0 0.0 0.0
0.0 0.0 0.0 0.0 0.0 0.0 0.0 0.0
0.0 0.0 0.0 0.0 0.0 0.0 0.0 0.0
0.0 0.0 0.0 0.0 0.0 0.0 0.0 0.0
0.0 0.0 0.0 0.0 0.0 0.0 0.0 0.0
0.0 0.0 0.0 0.0 0.0 0.0 0.0 0.0
0.0 0.0 0.0 0.0 0.0 0.0 0.0 0.0
0.0 0.0 0.0 0.0 0.0 0.0 0.0 0.0
0.0 0.0 0.0 0.0 0.0 0.0 0.0 0.0
0.0 0.0 0.0 0.0 0.0 0.0 0.0 0.0
0.0 0.0 0.0 0.0 0.0 0.0 0.0 0.0
0.0 0.0 0.0 0.0 0.0 0.0 0.0 0.0
0.0 0.0 0.0 0.0 0.0 0.0 0.0 0.0
0.0 0.0 0.0 0.0 0.0 0.0 0.0 0.0
0.0 0.0 0.0 0.0 0.0 0.0 0.0 0.0
0.0 0.0 0.0 0.0 0.0 0.0 0.0 0.0

b1.running_var f4 [128]
00000000: 0000 803f 0000 803f 0000 803f 0000 803f
00000010: 0000 803f 0000 803f 0000 803f 0000 803f
00000020: 0000 803f 0000 803f 0000 803f 0000 803f
00000030: 0000 803f 0000 803f 0000 803f 0000 803f
00000040: 0000 803f 0000 803f 0000 803f 0000 803f
00000050: 0000 803f 0000 803f 0000 803f 0000 803f
00000060: 0000 803f 0000 803f 0000 803f 0000 803f
00000070: 0000 803f 0000 803f 0000 803f 0000 803f
00000080: 0000 803f 0000 803f 0000 803f 0000 803f
00000090: 0000 803f 0000 803f 0000 803f 0000 803f
000000a0: 0000 803f 0000 803f 0000 803f 0000 803f
000000b0: 0000 803f 0000 803f 0000 803f 0000 803f
000000c0: 0000 803f 0000 803f 0000 803f 0000 803f
000000d0: 0000 803f 0000 803f 0000 803f 0000 803f
000000e0: 0000 803f 0000 803f 0000 803f 0000 803f
000000f0: 0000 803f 0000 803f 0000 803f 0000 803f
00000100: 0000 803f 0000 803f 0000 803f 0000 803f
00000110: 0000 803f 0000 803f 0000 803f 0000 803f
00000120: 0000 803f 0000 803f 0000 803f 0000 803f
00000130: 0000 803f 0000 803f 0000 803f 0000 803f
00000140: 0000 803f 0000 803f 0000 803f 0000 803f
00000150: 0000 803f 0000 803f 0000 803f 0000 803f
00000160: 0000 803f 0000 803f 0000 803f 0000 803f
00000170: 0000 803f 0000 803f 0000 803f 0000 803f
00000180: 0000 803f 0000 803f 0000 803f 0000 803f
00000190: 0000 803f 0000 803f 0000 803f 0000 803f
000001a0: 0000 803f 0000 803f 0000 803f 0000 803f
000001b0: 0000 803f 0000 803f 0000 803f 0000 803f
000001c0: 0000 803f 0000 803f 0000 803f 0000 803f
000001d0: 0000 803f 0000 803f 0000 803f 0000 803f
000001e0: 0000 803f 0000 803f 0000 803f 0000 803f
000001f0: 0000 803f 0000 803f 0000 803f 0000 803f
1.0 1.0 1.0 1.0 1.0 1.0 1.0 1.0
1.0 1.0 1.0 1.0 1.0 1.0 1.0 1.0
1.0 1.0 1.0 1.0 1.0 1.0 1.0 1.0
1.0 1.0 1.0 1.0 1.0 1.0 1.0 1.0
1.0 1.0 1.0 1.0 1.0 1.0 1.0 1.0
1.0 1.0 1.0 1.0 1.0 1.0 1.0 1.0
1.0 1.0 1.0 1.0 1.0 1.0 1.0 1.0
1.0 1.0 1.0 1.0 1.0 1.0 1.0 1.0
1.0 1.0 1.0 1.0 1.0 1.0 1.0 1.0
1.0 1.0 1.0 1.0 1.0 1.0 1.0 1.0
1.0 1.0 1.0 1.0 1.0 1.0 1.0 1.0
1.0 1.0 1.0 1.0 1.0 1.0 1.0 1.0
1.0 1.0 1.0 1.0 1.0 1.0 1.0 1.0
1.0 1.0 1.0 1.0 1.0 1.0 1.0 1.0
1.0 1.0 1.0 1.0 1.0 1.0 1.0 1.0
1.0 1.0 1.0 1.0 1.0 1.0 1.0 1.0
