models/Prob_Noise_DeepNet_BufferPlus_Learn_FreqMin_BatchNorm_03/agent_0_critic.pth (torch_old, 97375 bytes, 9 tensors)

fcs1.weight f4 [128, 52]
0	0x3e89cdee	0.26914924
1	0x3f9047b6	1.1271884
2	0xbc422ee9	-0.011852005
3	0xbd9dac3a	-0.07698865
4	0x3da1023f	0.078617565
5	0xbf6bedbd	-0.92159635
6	0xbd8b9f57	-0.06817501
7	0xbc1efd93	-0.0097040115
8	0x3ecc74fe	0.39933008
9	0x3f8cf751	1.1012975
10	0xbe03a289	-0.12854971
11	0xbe8fc9c6	-0.28083628
12	0x3eaadd43	0.33371934
13	0xbf8b1feb	-1.0869116
14	0xbc2d7810	-0.010587707
15	0xbed9d13e	-0.42542452
16	0x3f87468a	1.0568402
17	0x3f9a4825	1.2053267
18	0x3c5c72ed	0.013455135
19	0x3f094ca9	0.536326
20	0x3ec83a0b	0.39106783
21	0xbf4769a9	-0.778956
22	0xbb8567a9	-0.004071195
23	0x3ecedd0d	0.40403023
24	0x3e381b15	0.17979081
25	0xbfa22cd3	-1.2669929
26	0xbe27337d	-0.16328235
27	0xbd33710f	-0.043808993
28	0xbd58a200	-0.05288887
29	0xbf6dde75	-0.9291757
30	0xbe442539	-0.19154824
31	0xbd83c228	-0.06433517
32	0x3ea8df4c	0.32982862
33	0xbf4ed79c	-0.80797744
34	0xbda090c4	-0.07840112
35	0x3c70f6c6	0.014707273
36	0xbe5608ba	-0.20901766
37	0xbf9828a7	-1.1887406
38	0xbe09e279	-0.13465299
39	0x3e037bb5	0.12840159
40	0x3f01c830	0.50696087
41	0xbf3b6419	-0.7319961
42	0xbd9e78ac	-0.0773786
43	0x3e876e9d	0.2645158
44	0xbea65b71	-0.3249164
45	0xbf31dfff	-0.69482416
46	0xbddcbb90	-0.10777962
47	0x3e7b80fb	0.24560921
48	0x3def14d9	0.11673898
49	0xbf580ce5	-0.84394675
50	0x3f037237	0.51346153
51	0x3f455b62	0.77092564
52	0xbd134192	-0.035951205
53	0x3f513847	0.817265
54	0x3d20492d	0.039132286
55	0xbe01cb76	-0.1267527
56	0xbd8ce4e9	-0.06879599
57	0x3f0cfacc	0.55070186
58	0xbc944da8	-0.018103436
59	0xbcf89760	-0.030345619
60	0x3ce013c0	0.027353168
61	0x3f213976	0.62978303
62	0x3ce9b054	0.028526463
63	0xbd3598d5	-0.044335205
64	0xbe3efd82	-0.18651393
65	0xbf835a1f	-1.0261878
66	0xbb9d858e	-0.0048071807
67	0xbd6dbe36	-0.058042727
68	0xbe470dee	-0.19438908
69	0x3edbcc99	0.42929533
70	0xbcd317bf	-0.025768159
71	0xbc4184da	-0.011811459
72	0xbc8bcb66	-0.017064761
73	0xc03de7a3	-2.967263
74	0x3c9f4b5b	0.019445112
75	0x3d90c6d8	0.070691764
76	0xbeb9b705	-0.36272445
77	0x3febcc35	1.8421694
78	0x3ce1e67c	0.027575724
79	0x3dc9a334	0.09845582
80	0x3cd26f35	0.025687793
81	0x3f2cc652	0.6749011
82	0xbd485d52	-0.048917122
83	0x3d621e15	0.05520447
84	0xbe20d03a	-0.15704432
85	0x401471ce	2.319446
86	0xbd318abe	-0.043345205
87	0x3e799213	0.24372129
88	0x3e247ffc	0.16064447
89	0xbf846907	-1.0344552
90	0xbcab4235	-0.020905593
91	0x3e4101bf	0.18848322
92	0xbd4d5cae	-0.050137214
93	0x401cbd37	2.4490488
94	0xbdb00d53	-0.085962914
95	0x3e51f944	0.20505244
96	0x3db67040	0.08908129
97	0xc03b55e5	-2.9271176
98	0xbd877005	-0.06613163
99	0x3e7c4964	0.24637371
100	0xbe114faf	-0.14190553
101	0xbe361e15	-0.17784913
102	0xbf775227	-0.9660973
103	0x3e8e48a8	0.27789807
104	0x3f013602	0.50473034
105	0xbdaaee7d	-0.08346269
106	0xbd72703b	-0.059189063
107	0x3db980f9	0.09057803
108	0xbe2529ad	-0.1612918
109	0xbe1cc8fc	-0.15311044
110	0x3c455e86	0.012046462
111	0xbd1c56c7	-0.038168695
112	0x3f168bac	0.5880687
113	0x3e821d71	0.25413087
114	0x3b6b7981	0.0035930576
115	0x3cf848f6	0.030308228
116	0xbd58aa8e	-0.05289703
117	0xbe67b8d2	-0.22629097
118	0xbda702fe	-0.081548676
119	0xbc9f6f47	-0.01946224
120	0x3ee03ac5	0.43794838
121	0x3e62891e	0.22122619
122	0x3d92031d	0.071295
123	0x3e750f93	0.23931722
124	0x3bf09c21	0.0073428308
125	0x3db03eee	0.08605753
126	0xbc0ea2f1	-0.00870584
127	0x3e616c62	0.22014001
128	0x3f2ab97c	0.66689277
129	0xbe03194a	-0.12802616
130	0xbda4aa23	-0.080402635
131	0x3d8bcf17	0.06826609
132	0x3debd3f7	0.115150385
133	0xbe7b8d91	-0.24565722
134	0xbd1c1332	-0.038104244
135	0xbd38a0a7	-0.045075085
136	0x3f4859ba	0.7826191
137	0x3d3a8146	0.04553344
138	0xbdaede9e	-0.085385546
139	0xbe8db0a8	-0.2767384
140	0x3e0e1b7f	0.13877676
141	0xbe107b0d	-0.1410944
142	0xbcf7cc6e	-0.030248847
143	0xbe458ac0	-0.1929121
144	0x3f3f10bb	0.74634904
145	0xbdb13f37	-0.086546354
146	0xbd95e9bf	-0.07319974
147	0xbe317860	-0.17331076
148	0xbdab5767	-0.0836628
149	0x3dbc20aa	0.09185918
150	0xbd6ff5c0	-0.058583975
151	0xbce99cd3	-0.028517162
152	0xbe9436c7	-0.28948042
153	0x3f1619a2	0.5863286
154	0x3dfb8c10	0.12282574
155	0xbdc66770	-0.09687698
156	0x3f99b8dd	1.2009541
157	0xbcf0d9fe	-0.029400822
158	0x3d03e37b	0.032199364
159	0x3e3c5b79	0.18394269
160	0xbcd7f37e	-0.026361223
161	0xbf326c2c	-0.6969631
162	0xbd5ac694	-0.053412035
163	0x3e1ec1f7	0.15503679
164	0x3f5f380e	0.8719491
165	0x3de87ec6	0.11352305
166	0xbce6b250	-0.028161198
167	0x3e8a98fd	0.27069846
168	0x3e7c319b	0.24628298
169	0xbe83a70a	-0.25713378
170	0xbd264500	-0.040593147
171	0x3e6aa9c4	0.22916323
172	0x3f16e46a	0.5894228
173	0xbb7ad497	-0.0038273686
174	0xbd4606f9	-0.048346493
175	0x3df4a8aa	0.119462326
176	0x3ea35696	0.31901997
177	0x3e66fd3f	0.22557543
178	0xbdbf30aa	-0.09335454
179	0x3dfcb7e1	0.123397596
180	0x3f07deb8	0.53074217
181	0x3f7baaa7	0.9830727
182	0xbe3b69e3	-0.18302111
183	0xbd74cfea	-0.059768595
184	0x3d941287	0.07230096
185	0xbf0e2daa	-0.5553843
186	0xbe0744db	-0.1320986
187	0xbd075169	-0.033036623
188	0x3f3c4245	0.7353862
189	0x3f91576e	1.1354806
190	0x3e0dd584	0.13850981
191	0xbd4beeea	-0.049788393
192	0xbe02b771	-0.1276529
193	0xbe7a47de	-0.24441478
194	0x3d6b4e1d	0.05744754
195	0xbc3c2dd1	-0.011485533
196	0x3f5cd7c8	0.86266756
197	0x3f67319d	0.9031008
198	0xbd2cb1bc	-0.04216169
199	0xbf01c1a5	-0.50686103
200	0xbe5d1e6a	-0.21593633
201	0x3eb1a299	0.34694365
202	0xbdf1a3f0	-0.11798847
203	0xbeb8daa5	-0.36104313
204	0xbf13844f	-0.5762376
205	0x3f0a36a4	0.53989625
206	0x3f6654ed	0.89973336
207	0x3e406347	0.18787871
208	0xbe61efa9	-0.2206408
209	0x3f893199	1.0718261
210	0xbcbdbfd9	-0.02316277
211	0x3dfab5a9	0.1224168
212	0xbea68016	-0.32519597
213	0xbe84c55f	-0.25931832
214	0x3be7abca	0.0070700394
215	0x3c279e89	0.010230669
216	0xbebcd7f7	-0.36883518
217	0x3f4acabd	0.79215604
218	0x3b872602	0.004124404
219	0xbd77f082	-0.0605321
220	0x3f2edd93	0.68306845
221	0xbf241fb7	-0.64110893
222	0xbbf048b0	-0.007332884
223	0x3d2f0758	0.042731613
224	0xbe9de0ad	-0.30835477
225	0x3f87e7e3	1.0617641
226	0x3b58a9c1	0.0033060166
227	0xbdec8538	-0.11548847
228	0x3fa79ffb	1.3095697
229	0xbfa51d97	-1.2899655
230	0xbd432b2c	-0.047648594
231	0xbd4e32f6	-0.05034157
232	0xbe2cb5ea	-0.1686627
233	0x3e54d171	0.2078302
234	0xbd94a4a8	-0.07257968
235	0x3dd8700c	0.10568246
236	0x3e888068	0.26660466
237	0xbe9b6710	-0.30352068
238	0x3dac336a	0.08408244
239	0x3e09b10c	0.13446444
240	0x3e06dbd3	0.13169794
241	0x3eaa5756	0.33269757
242	0xbc3b525a	-0.011433208
243	0x3d8b00a8	0.067872345
244	0xbf218b61	-0.631033
245	0xbf2d3f61	-0.67674834
246	0xbd3fd226	-0.046831273
247	0x3e175b30	0.14780879
248	0x3edb877d	0.42876807
249	0x3ef9f03d	0.488161
250	0xbd3836db	-0.04497419
251	0x3caf4095	0.0213931
252	0xbfa81c6b	-1.3133672
253	0xbfb1ca37	-1.3889836
254	0x3cd40c88	0.025884882
255	0x3c845289	0.016152637

fcs1.bias f4 [128]
0	0xbfe1d95d	-1.7644459
1	0x3f82f241	1.023018
2	0xbeded6cc	-0.43523252
3	0xbf3aa3cf	-0.729062
4	0xbfa87732	-1.3161376
5	0xbf4d26b5	-0.8013719
6	0xbc8e1b4b	-0.017346999
7	0xbfdcdc5f	-1.7254752
8	0xbf3c6b27	-0.73601
9	0x3e33e552	0.17567948
10	0xbf4d7248	-0.80252504
11	0xbf45a51f	-0.7720508
12	0xbf859e74	-1.0438981
13	0xbfa6eb8a	-1.3040631
14	0xbe9d046a	-0.3066743
15	0xbf07aef7	-0.5300135
16	0xbf97d1fa	-1.1860955
17	0xbfa7f764	-1.3122373
18	0xbff3f3e6	-1.9058807
19	0xbf6d5cbf	-0.92719644
20	0xbc6843fc	-0.014176365
21	0xbe8184ee	-0.2529673
22	0xbeb5845e	-0.3545255
23	0xbf95025f	-1.1641349
24	0xbfab9006	-1.3403327
25	0xbe5f0bdf	-0.21781872
26	0xbee6b3ff	-0.450592
27	0xbec2800d	-0.3798832
28	0x3e5eddd4	0.21764308
29	0xbe61f4a6	-0.22065982
30	0xbf201f4b	-0.6254775
31	0xbf8bf043	-1.0932697
32	0xbfafd2b5	-1.3736178
33	0xbf9dd824	-1.2331586
34	0xbe6ce16c	-0.23132867
35	0xbfb56c0f	-1.4173602
36	0xbee14d6d	-0.44004384
37	0xbf7d374e	-0.98912513
38	0xbffc9d9f	-1.9735602
39	0xbf1418f6	-0.5785059
40	0xbe9837a2	-0.29729944
41	0xbf4520a6	-0.7700294
42	0xc006e5f0	-2.1077843
43	0xbec8dc20	-0.39230442
44	0xc00ea4a6	-2.2287993
45	0xbfcf77dd	-1.6208454
46	0xbf634ca2	-0.8878881
47	0xbfc83b18	-1.5643034
48	0x3f54e0d4	0.8315556
49	0x4005b535	2.089185
50	0xbfaa00e6	-1.3281524
51	0x3f6339a9	0.8875986
52	0x3f45a820	0.77209663
53	0xc04261ce	-3.0372195
54	0x3f4e05b7	0.8047747
55	0xbe3fc88e	-0.1872885
56	0xbf37d8d5	-0.71815234
57	0xbf1b90e3	-0.60767955
58	0xbf32d277	-0.69852394
59	0xbf3bd782	-0.73375714
60	0xc0067dec	-2.1014357
61	0xbf94e5e7	-1.1632661
62	0xbfab15fa	-1.3366082
63	0xbf193737	-0.59849876
64	0xbfa174a7	-1.2613724
65	0x3d113bd4	0.035457447
66	0xbfd09d61	-1.6298028
67	0x3fbdfa0d	1.4841934
68	0xbf64d6ae	-0.89390075
69	0xbf3ca44b	-0.7368819
70	0xbf06dec1	-0.52683645
71	0x3f6e419f	0.9306888
72	0xbf277de7	-0.65426487
73	0xbf296668	-0.66171885
74	0x4004432c	2.0665998
75	0xbfa30d21	-1.2738382
76	0xbf3290f0	-0.6975241
77	0xbf85e985	-1.046189
78	0xbff5d109	-1.9204417
79	0xbf188e0a	-0.59591734
80	0xbfa84c19	-1.3148223
81	0xbdf908bc	-0.12159869
82	0xbf90f186	-1.1323707
83	0xbf8c140f	-1.0943621
84	0xbfbbd70d	-1.4675003
85	0x3eed7165	0.46375576
86	0x3fc6b071	1.5522596
87	0xbf704bde	-0.93865764
88	0xbf59def1	-0.85105807
89	0xbf851b1e	-1.03989
90	0x3f1903d3	0.5977146
91	0x3f57b6bc	0.84263206
92	0x3e362633	0.1778801
93	0x3e1503e8	0.14552271
94	0xbfc35f35	-1.526343
95	0xbf227097	-0.6345305
96	0xbe41b9f9	-0.18918599
97	0xbf8f5892	-1.1198905
98	0xc00dcd03	-2.215638
99	0xbf48e5b4	-0.784755
100	0xbf9f4303	-1.2442325
101	0xbee13b24	-0.43990433
102	0xbf211e84	-0.6293719
103	0x3db5ff34	0.08886567
104	0xbf8d6188	-1.1045389
105	0xbf832d5d	-1.0248219
106	0xbe88c122	-0.2670985
107	0xbf62a0a1	-0.8852635
108	0xbfb68c29	-1.4261523
109	0xbe5fc429	-0.21852173
110	0xbf31377d	-0.69225293
111	0xbf708fb8	-0.939693
112	0xbf55fbd5	-0.8358739
113	0xbebae616	-0.36503667
114	0xbf5cbd64	-0.8622649
115	0x3e4d5d32	0.20055082
116	0xbf2953a0	-0.66143227
117	0xbe5c1881	-0.21493722
118	0xbe86e654	-0.263476
119	0x3ddd70f6	0.10812561
120	0xbeddacd4	-0.4329592
121	0xbf460e98	-0.7736602
122	0xbf1c628b	-0.61087865
123	0xbee79d5f	-0.45237252
124	0xbfc400e4	-1.5312772
125	0x3d9567f9	0.07295222
126	0xbf22ece3	-0.6364271
127	0xbfac1102	-1.344269

fc2.weight f4 [128, 128]
0	0xbcf0a9c6	-0.02937783
1	0xbd5b31a0	-0.053514123
2	0xbbc7bb16	-0.0060953004
3	0xbcb2d7c7	-0.021831406
4	0x3c26d644	0.010182921
5	0x3bf4ecaf	0.007474504
6	0x3d75ed2a	0.06004063
7	0xbd64568a	-0.055746593
8	0xbbd0fb6c	-0.006377628
9	0xbdc7d7b1	-0.09757937
10	0xbd331ebe	-0.04373049
11	0xbc205b7b	-0.009787436
12	0xbd9204a3	-0.07129791
13	0xbd172b77	-0.036906686
14	0xbc674588	-0.014115699
15	0xbd9d8a57	-0.07692402
16	0xbdbae250	-0.09125197
17	0xbcab0cca	-0.020880122
18	0xbc15e8ff	-0.009149789
19	0xbda2bbcf	-0.07945978
20	0xbc05a769	-0.0081575895
21	0xbda2f650	-0.07957137
22	0xbcca11d4	-0.024666704
23	0xbe07ff24	-0.13280922
24	0xbc6680b0	-0.014068767
25	0xbbb8e69d	-0.0056427256
26	0xbacdc804	-0.0015699868
27	0xbdbdaaae	-0.0926107
28	0xbd946ce5	-0.072473325
29	0x3d606ed0	0.05479318
30	0x3c109f9a	0.0088271145
31	0xbd814130	-0.06311262
32	0xbde22873	-0.11042871
33	0x3d4fd5f1	0.05074114
34	0xbd672fdd	-0.05644213
35	0xbd03705b	-0.032089572
36	0x3d518a29	0.05115715
37	0xbd69cfa4	-0.057082787
38	0xbc4f5970	-0.012655601
39	0xbda3cfa2	-0.07998587
40	0x3c095352	0.0083816815
41	0xbe00a7ec	-0.12564057
42	0xbdcfe141	-0.10150386
43	0xbd97b2e2	-0.07407166
44	0xbdc276d5	-0.09495322
45	0xbe0a559c	-0.1350922
46	0xbceddc8d	-0.02903583
47	0xbb100b0f	-0.0021979248
48	0xbd43d8eb	-0.04781429
49	0xbdcf9774	-0.10136309
50	0xbc151ec6	-0.009101575
51	0x3ca5a8fc	0.02022218
52	0xbd1fb8d5	-0.03899463
53	0x3d9ce1bc	0.07660243
54	0x3c91706f	0.017753808
55	0x3cd89fea	0.02644344
56	0xbc0bd682	-0.008535029
57	0xbd931e37	-0.071834974
58	0xbdbbc26e	-0.09167944
59	0xbdab73d3	-0.08371701
60	0xbc0c37f3	-0.008558261
61	0xbd3c771c	-0.04601203
62	0xbbab528d	-0.0052283467
63	0xbcdcc015	-0.02694706
64	0xbe2d6c65	-0.1693588
65	0xbe2c95b2	-0.16853979
66	0xbdd43b90	-0.10362923
67	0x3ccdf4fa	0.025141228
68	0xbda829fb	-0.08211132
69	0xbb721d15	-0.0036943604
70	0xbd5e509c	-0.054276094
71	0xbd744020	-0.059631467
72	0xbd190c96	-0.03736552
73	0x3c75e093	0.015007156
74	0xbbfabd48	-0.0076519586
75	0x3cb40d77	0.021979077
76	0xbdc1c806	-0.094619796
77	0x3b4e6f51	0.0031499455
78	0xbdee39c4	-0.11632112
79	0x3bd892e7	0.006609309
80	0xbd914652	-0.07093491
81	0xbdf4344f	-0.119240396
82	0x3d60628a	0.054781474
83	0x3d88c6dc	0.066785544
84	0x3d0503ea	0.032474436
85	0xbdfd60f7	-0.1237201
86	0xbdeddded	-0.116145946
87	0xbbf17d0d	-0.0073696435
88	0xbceb36da	-0.028712679
89	0xbbfcbbc0	-0.007712811
90	0xbdc13f3b	-0.094358884
91	0x3d24d37a	0.040240742
92	0x3d016855	0.03159364
93	0xbd831383	-0.06400206
94	0x3d484d27	0.048901703
95	0xbc246d62	-0.0100358445
96	0xbd3bb5a9	-0.04582754
97	0x3c2ca553	0.010537463
98	0x3c30ec68	0.010798551
99	0xbd2260ad	-0.03964298
100	0xbc118b26	-0.008883273
101	0xbc18101f	-0.009281187
102	0xbd12f431	-0.03587741
103	0xbe13e401	-0.14442445
104	0xbc7eb205	-0.015545373
105	0xbd386804	-0.045021072
106	0xbc80fe8d	-0.01574638
107	0xbdbb5a85	-0.091481246
108	0x3c184e9a	0.009296084
109	0xbde42078	-0.111390054
110	0xbdc7aa02	-0.09749223
111	0xbd3a10e5	-0.045426268
112	0xbc7bf2ff	-0.015377759
113	0x3d2fee2c	0.042951748
114	0xbd120fa4	-0.035659447
115	0xbddadd39	-0.10686726
116	0xbcc8380e	-0.024440791
117	0x3b8b19fc	0.004245041
118	0xbd312866	-0.043251418
119	0x3d38daa9	0.045130406
120	0xbd657df5	-0.056028325
121	0xbda6a422	-0.081367746
122	0x3c022316	0.007942935
123	0xbdbfcc13	-0.09365096
124	0xbbf9adad	-0.0076195807
125	0xbda0ced5	-0.0785195
126	0x3ce68ef4	0.028144337
127	0xbcb65878	-0.022258982
128	0xbd0e3948	-0.034722596
129	0x3d00a6a9	0.03140894
130	0xbc80b0dd	-0.015709335
131	0xbde32ad1	-0.11092151
132	0x3cb2ad12	0.021811042
133	0x3a36fab4	0.00069801067
134	0xbdf3a74c	-0.11897144
135	0xbdfe70f3	-0.12423887
136	0x3c950dff	0.01819515
137	0xbcc04844	-0.023471959
138	0xbd369279	-0.04457328
139	0xbd8ebe29	-0.06969864
140	0x3cc69bfe	0.024244305
141	0xbdee83b4	-0.11646214
142	0xbdc6edf7	-0.09713357
143	0xbd6cfe1e	-0.057859533
144	0xbdc7e040	-0.09759569
145	0xbd1b53ad	-0.037921596
146	0xbdd7850f	-0.10523426
147	0xbdad811b	-0.084718905
148	0x3d2b8fae	0.04188507
149	0x3cbdab65	0.023153016
150	0x3b660deb	0.003510351
151	0x3c6f7597	0.014615438
152	0xbe13ffd0	-0.14453053
153	0x3d9113d2	0.070838585
154	0x3cd58791	0.02606562
155	0xb9d30ee6	-0.00040256156
156	0xbca5f4b5	-0.020258287
157	0x3acdf4a6	0.001571317
158	0xbdb8750e	-0.090067014
159	0xbd86858c	-0.06568441
160	0x3d1e08ae	0.038582496
161	0x3c573669	0.013135531
162	0x3ae07382	0.0017124268
163	0x3cbfef40	0.023429513
164	0xbd736931	-0.05942649
165	0xbcdd972f	-0.027049629
166	0xbda46bda	-0.080283836
167	0x3d6ab64e	0.057302766
168	0xbd9429a9	-0.072345085
169	0xbd237bfd	-0.039913166
170	0x3d147e2a	0.036253132
171	0xbd620333	-0.055178832
172	0xbc83722c	-0.016045652
173	0xbd262708	-0.040564567
174	0xbd1ef04f	-0.038803395
175	0xbcfea602	-0.031085018
176	0x3c63c29d	0.01390138
177	0xbe10c83a	-0.1413888
178	0xba44baeb	-0.00075046596
179	0xbb45fcfb	-0.0030210603
180	0x3d10a293	0.035311293
181	0xbd995573	-0.07487001
182	0x3a9ef95a	0.0012128756
183	0xbd01bce8	-0.031674296
184	0xbc8bbc4a	-0.017057557
185	0x3baac056	0.0052109165
186	0xbdd9b723	-0.10630634
187	0xbdb56dfa	-0.08858867
188	0x3c9065b4	0.01762662
189	0xbddbfe7c	-0.107418984
190	0xbd9444a2	-0.07239653
191	0xbd2b8157	-0.041871395
192	0xbddcaa7c	-0.10774705
193	0xbc65da8e	-0.014029158
194	0xbcb210cc	-0.021736525
195	0xbd22292d	-0.03959005
196	0xbc41a349	-0.011818715
197	0xbdb749bb	-0.0894961
198	0xbe085f39	-0.13317575
199	0xbda0d595	-0.078532375
200	0xbda66a93	-0.08125796
201	0x3c7fb751	0.015607671
202	0xbddbeaf1	-0.10738171
203	0xbd7ec239	-0.062196944
204	0xbde68cb6	-0.11257307
205	0xbd9d9d84	-0.07696059
206	0xbcc86ce4	-0.024465986
207	0xbcc52443	-0.024065142
208	0xbd90636a	-0.07050212
209	0xbd33589d	-0.04378568
210	0xbd7d0875	-0.061775643
211	0x3c39f7b4	0.011350561
212	0xbd5d3999	-0.054010008
213	0xbdea2dad	-0.11434493
214	0xbe020c0c	-0.12699908
215	0x3d09577f	0.03353071
216	0xbc7e5ac1	-0.015524567
217	0x3cb8f303	0.022576815
218	0xbcfe42e8	-0.031037763
219	0x3bd98a31	0.006638788
220	0xbca9e393	-0.020738399
221	0xbe204df8	-0.15654743
222	0xbc95fa92	-0.018307958
223	0xbd903061	-0.070404775
224	0x3dcdcad3	0.10048451
225	0xbdcd9b40	-0.10039377
226	0xbe135e0b	-0.14391343
227	0x3ca67aa1	0.020322146
228	0x3d76528d	0.06013732
229	0xbdd53021	-0.104095705
230	0xbe054777	-0.13015543
231	0xbe0903ba	-0.13380328
232	0x3b094544	0.0020945827
233	0xbddb2b1e	-0.10701583
234	0xbc2e725c	-0.010647383
235	0xbd906a53	-0.0705153
236	0xbbb64ee4	-0.0055636037
237	0xbd978f48	-0.074003756
238	0xbddb94ad	-0.10721717
239	0xbd2c93d7	-0.04213318
240	0xbe0e6edc	-0.13909477
241	0xbdfd76a1	-0.12376142
242	0x3c505600	0.0127158165
243	0xbcf07049	-0.029350417
244	0x3a7b5d9d	0.00095888396
245	0xbd363b2d	-0.04449003
246	0x3cd147d6	0.02554695
247	0xbd930e46	-0.07180457
248	0xbdee9af8	-0.11650652
249	0xbd8e0c90	-0.0693599
250	0xbdc2b7a8	-0.09507686
251	0xbd81bfa7	-0.06335383
252	0xbd014a46	-0.031564973
253	0xbaa795d7	-0.0012785745
254	0xbcb0457f	-0.021517513
255	0xbd97f51f	-0.074198

fc2.bias f4 [128]
0	0xbe23d8ca	-0.16000667
1	0xbe14b40a	-0.14521804
2	0xbe3a181b	-0.18173258
3	0xbdb60558	-0.08887738
4	0xbd7f886d	-0.062385965
5	0xbd1b8362	-0.037967093
6	0xbd7e1bc2	-0.06203819
7	0xbd39e1d4	-0.045381382
8	0xbdfefd0f	-0.12450611
9	0xbe31c7c3	-0.1736136
10	0xbe408094	-0.18799049
11	0xbdea2417	-0.11432665
12	0xbd6ae4ce	-0.05734711
13	0xbe7ee13d	-0.24890609
14	0xbda98af3	-0.082784556
15	0xbe707686	-0.23482713
16	0xbd8bb3a7	-0.06821375
17	0xbe01781c	-0.12643474
18	0xbe486aa6	-0.19571933
19	0xbd4d1510	-0.050068915
20	0xbe4813ef	-0.19538854
21	0xbb8407c7	-0.0040292474
22	0xbdef625e	-0.11688684
23	0xbcdba232	-0.02681074
24	0xbe41cba2	-0.18925336
25	0xbe045ea5	-0.12926729
26	0xbe635b39	-0.22202767
27	0xbe2dc895	-0.16971047
28	0xbe5f6144	-0.21814448
29	0x40058f91	2.0868876
30	0xbd52eb2f	-0.05149382
31	0xbd9c8151	-0.07641853
32	0xbd261701	-0.040549282
33	0xbe398aad	-0.18119307
34	0xbe3c4967	-0.18387376
35	0xbe01d93b	-0.12680523
36	0xbe16d6c8	-0.1473037
37	0x3c416f7d	0.011806366
38	0xbe61cab9	-0.22049989
39	0xbe2d6457	-0.16932808
40	0xbe2e155c	-0.17000335
41	0xbe20ea82	-0.15714458
42	0xbd78707c	-0.06065415
43	0xbe5f1cfc	-0.217884
44	0xbdef409b	-0.116822444
45	0xbde9a563	-0.11408498
46	0xbd28d9d2	-0.041223355
47	0xbe198e42	-0.14995673
48	0xbdd88f17	-0.10574167
49	0xbe22336c	-0.15839928
50	0xbd7e2692	-0.062048502
51	0xbe0b0579	-0.13576306
52	0xbd5eb372	-0.05437035
53	0xbd88e89a	-0.0668499
54	0xbd85a0e4	-0.06524828
55	0xbdf3e36b	-0.11908611
56	0xbe05e9d7	-0.13077484
57	0xbc27b740	-0.010236561
58	0xbe0f475d	-0.13992067
59	0xbe168017	-0.146973
60	0xbe0c01a2	-0.13672498
61	0xbddf9cb0	-0.10918558
62	0xbdc760f2	-0.09735288
63	0xbda769ca	-0.081744745
64	0xbda9aec6	-0.082852885
65	0xbd3f5af4	-0.0467176
66	0xbe0593c9	-0.13044657
67	0xbbc0d627	-0.005884904
68	0xbd1ef986	-0.038812183
69	0xbd79d4bd	-0.0609939
70	0xbe4083dd	-0.18800302
71	0xbe1c61ef	-0.15271734
72	0xbe3117b7	-0.17294203
73	0xbe138201	-0.14405061
74	0xbdc05b5b	-0.09392425
75	0xbd646eb4	-0.055769637
76	0xbd81a372	-0.06330003
77	0xbe49e4d2	-0.19716194
78	0xbe1128ab	-0.1417567
79	0xbdfb6305	-0.12274746
80	0xbddc9e7d	-0.10772417
81	0xbda6d354	-0.081457764
82	0xbd140963	-0.036141764
83	0xbda760a4	-0.081727296
84	0xbd8f1863	-0.06987073
85	0xbd9d33ee	-0.076759204
86	0xbdb5a270	-0.08868873
87	0xbd9b886e	-0.07594381
88	0xbda403e5	-0.08008555
89	0xbe405eea	-0.18786207
90	0xbd9d3baf	-0.07677399
91	0xbdd464b7	-0.10370772
92	0xbe2211d8	-0.1582712
93	0xbde233c3	-0.11045029
94	0xbe10b35b	-0.14130919
95	0xbdf63dbd	-0.120234944
96	0xbe0862eb	-0.13318984
97	0xbe3992fe	-0.1812248
98	0xbe274b8e	-0.16337416
99	0xbe1e3573	-0.15450077
100	0xbe0e68b4	-0.13907129
101	0xbdd90ff3	-0.10598745
102	0xbd8c5157	-0.06851452
103	0xbd9292c8	-0.071569026
104	0xbd878094	-0.06616321
105	0xbe0a00ab	-0.13476817
106	0xbd86b8a8	-0.06578189
107	0xbdcfacbd	-0.10140369
108	0xbe26e1cd	-0.16297074
109	0xbe5aa65c	-0.21352524
110	0xbe250f56	-0.16119131
111	0xbf02e006	-0.5112308
112	0xbe2d80a9	-0.16943611
113	0xbe1f9f2a	-0.1558806
114	0xbdaec9e0	-0.08534598
115	0xbdb51600	-0.08842087
116	0xbd2fa7cf	-0.042884644
117	0x3f870a8f	1.0550097
118	0xbd5dd8f7	-0.054161992
119	0xbe18c5aa	-0.14919153
120	0x3d9f7c44	0.07787374
121	0xbe1c6030	-0.15271068
122	0xbd9ac750	-0.07557547
123	0xbe2192ba	-0.15778628
124	0xbcd79eb2	-0.026320789
125	0xbe27b8b9	-0.1637906
126	0xbdc04aa0	-0.093892336
127	0xbe34b8fb	-0.1764869

fc3.weight f4 [1, 128]
0	0xbb3fcb87	-0.00292656
1	0x3cc4a4d2	0.024004374
2	0xbbdf190d	-0.006808406
3	0xbc819192	-0.015816484
4	0x3a91693a	0.0011093982
5	0xbc936300	-0.017991543
6	0xbc871a3d	-0.016492004
7	0x3caf9f11	0.021438153
8	0x3ccb79ae	0.024838295
9	0xbbd1e168	-0.0064050443
10	0x3cd8d6a3	0.026469534
11	0x3cf0402a	0.02932747
12	0xbbe718a4	-0.007052498
13	0xbbbf308c	-0.0058346447
14	0xbb92f2f6	-0.0044845296
15	0x3c458ae9	0.012057045
16	0x3c706007	0.014671332
17	0xbc8c022c	-0.01709088
18	0x3ce7c8bf	0.028293965
19	0xbc38f8fc	-0.011289831
20	0x3c6a27a3	0.014291677
21	0xbca0190d	-0.019543195
22	0x3bddfd7a	0.0067746015
23	0x3bdf8a91	0.0068219383
24	0xbc5716e9	-0.013128021
25	0xb9c49c91	-0.00037500684
26	0xb9d82a90	-0.00041230442
27	0x3c342431	0.010994957
28	0xbc3525a4	-0.0110563375
29	0xbc5afd92	-0.01336612
30	0xbc06de33	-0.008231687
31	0x3c24e861	0.010065169
32	0x3ccaf2a1	0.024773898
33	0x3c90a3d0	0.017656237
34	0x3c620a91	0.013796465
35	0xbcb2f5fd	-0.021845812
36	0x3c874b0e	0.016515281
37	0x3c937343	0.017999297
38	0x3cd7e42f	0.026353924
39	0xbc8d3f5e	-0.01724213
40	0x3ba536d7	0.005041938
41	0x3b5946a6	0.0033153682
42	0x3c632623	0.013864073
43	0x3bfd7d43	0.0077358796
44	0xbc8fe963	-0.017567342
45	0x3cbb9528	0.022898272
46	0xbc615fea	-0.013755778
47	0x3ca9565b	0.02067106
48	0x3cfce599	0.0308712
49	0x3c2098b9	0.009802037
50	0xbca48751	-0.020084055
51	0x3ccf0e12	0.025275264
52	0xbc7d2cc8	-0.015452571
53	0x3c987bb8	0.018613681
54	0x3c9dd4cf	0.019266514
55	0xbc467e2e	-0.0121150445
56	0x3bb82b02	0.0056203613
57	0xbc895c7f	-0.016767738
58	0xbbce05c4	-0.0062873084
59	0x3c5e0945	0.013552015
60	0x3cbe87d7	0.023258133
61	0x3c9a8604	0.018862732
62	0x3b43724c	0.0029822765
63	0x3d519349	0.051165853
64	0x3c5c725c	0.013455
65	0x3c2fa163	0.01071963
66	0xbbb93f98	-0.005653333
67	0x3bdeec3a	0.0068030627
68	0xbc3310e5	-0.010929321
69	0xbc55f6b2	-0.013059305
70	0xbb0c105b	-0.0021372053
71	0xbc4a0fa5	-0.0123328315
72	0x3c12343f	0.008923589
73	0x3ca983e8	0.02069278
74	0x3cb25307	0.021768106
75	0x3cb08657	0.021548433
76	0xbcfec629	-0.03110035
77	0x3b38dfa9	0.0028209484
78	0x3c19dc04	0.009390835
79	0x3ca52ae2	0.02016205
80	0x3c8fdd83	0.01756168
81	0xba250796	-0.0006295381
82	0xbcd2610f	-0.025681047
83	0xbb47b5e3	-0.0030473403
84	0x3c6afd77	0.014342657
85	0x3c2df81a	0.010618234
86	0xbc889d95	-0.016676703
87	0x3bdc709a	0.0067272903
88	0x3c52e93a	0.012872988
89	0x3b56594f	0.003270704
90	0xbb51b9f5	-0.0032001708
91	0x3ce0164d	0.027354384
92	0x3cc7875a	0.024356533
93	0x3be52777	0.00699323
94	0xbd42f050	-0.04759246
95	0x3cf9addd	0.030478412
96	0x3bcf44c6	0.006325337
97	0xbc29325a	-0.010326946
98	0x3c8750ea	0.016518075
99	0xbcc6dc1b	-0.024274876
100	0x3cdb143b	0.026743045
101	0xbcdbbc37	-0.026823146
102	0x3cf8d9c8	0.030377284
103	0xbbb1db22	-0.005427734
104	0xbca29a5a	-0.019848991
105	0xbc411d7f	-0.011786818
106	0xbc9aeed9	-0.01891272
107	0x3c84bc61	0.016203107
108	0x3cdfcbd9	0.027318882
109	0x3b9cd987	0.0047866735
110	0x3c3c60d0	0.011497691
111	0xbc74a5bf	-0.014932095
112	0x3bf1fe1c	0.0073850285
113	0x3b211710	0.0024580397
114	0xbb9c84a4	-0.004776554
115	0x3b28f67c	0.0025781682
116	0x3a2e606b	0.00066519406
117	0x3c31789e	0.01083198
118	0xbcbfcab1	-0.02341208
119	0xbcce4cc3	-0.025183087
120	0xbc586cf2	-0.013209568
121	0x3c1f786e	0.0097333025
122	0xb7d59f90	-2.546588e-05
123	0xbc606411	-0.013695733
124	0xb9ae8577	-0.00033287305
125	0x3b9f5045	0.004861864
126	0x3c4b0c7f	0.012393116
127	0x3c585086	0.013202792

b1.weight f4 [128]
0	0x3da1dee8	0.07903844
1	0x3ec49680	0.38396072
2	0x3f27e64f	0.655858
3	0x3d79b030	0.06095904
4	0x3f62dae5	0.88615257
5	0x3f5f0007	0.87109417
6	0x3e234238	0.15943229
7	0x3f0c478a	0.5479666
8	0x3de45248	0.111485064
9	0x3c537000	0.012905121
10	0x3f1b459d	0.60653096
11	0x3d8bb6b8	0.0682196
12	0x3e34adb4	0.17644387
13	0x3f44d791	0.7689143
14	0x3f63520c	0.8879707
15	0x3f5c4471	0.86041933
16	0x3f5f47b5	0.8721879
17	0x3f65d1a6	0.89773023
18	0x3f222aa2	0.633463
19	0x3f26088b	0.64856786
20	0x3f1e2c21	0.61786085
21	0x3f7fa81f	0.9986591
22	0x3f2ee618	0.68319845
23	0x3f76c3ba	0.96392405
24	0x3c76a800	0.015054703
25	0x3f0c329e	0.54764736
26	0x3ec74d00	0.38925934
27	0x3f1abe35	0.6044648
28	0x3f39011b	0.7226731
29	0x3f2ab93e	0.6668891
30	0x3f6fb533	0.93635863
31	0x3f5d67d3	0.8648655
32	0x3f2ab9c5	0.6668971
33	0x3f18a644	0.596287
34	0x3f56cb7e	0.83904254
35	0x3befc980	0.007317722
36	0x3dcf3c48	0.101189196
37	0x3f4dc2cd	0.8037537
38	0x3cc84560	0.024447143
39	0x3e0a8658	0.1352781
40	0x3d0de910	0.034646094
41	0x3ed1faee	0.41011757
42	0x3d2ec2c0	0.042666197
43	0x3f32b03f	0.6980018
44	0x3f2f2e0c	0.68429637
45	0x3f7d1f26	0.98875654
46	0x3f456b9a	0.7711731
47	0x3c11e800	0.008905411
48	0x3f4e3d73	0.80562514
49	0x3d8783a0	0.06616902
50	0x3e7ba45c	0.24574417
51	0x3f3d5087	0.73951
52	0x3e5a8ddc	0.21343178
53	0x3f1f3bba	0.6220051
54	0x3e5f8940	0.218297
55	0x3f4dc4f7	0.8037867
56	0x3e62c418	0.22145116
57	0x3f5a0311	0.8516093
58	0x3f5461b0	0.8296156
59	0x3f0273c7	0.5095791
60	0x3f2ae500	0.66755676
61	0x3f0a2377	0.53960365
62	0x3f419d1a	0.7563034
63	0x3dfe0558	0.12403363
64	0x3f6ca1b4	0.9243424
65	0x3d98b090	0.074555516
66	0x3f734547	0.95027584
67	0x3f330cc5	0.6994136
68	0x3e736104	0.23767477
69	0x3f17b315	0.5925763
70	0x3cab1aa0	0.02088672
71	0x3c002c80	0.00782311
72	0x3ee88122	0.4541102
73	0x3e542c24	0.20719963
74	0x3f092703	0.5357515
75	0x3eb01da0	0.34397602
76	0x3f7622d4	0.96146894
77	0x3dfce5e0	0.12348533
78	0x3f23aa08	0.6393132
79	0x3f1db988	0.61611223
80	0x3e263110	0.16229653
81	0x3e693a5c	0.22776169
82	0x3f242823	0.64123744
83	0x3e7c0500	0.24611282
84	0x3e2732ec	0.16328019
85	0x3f173d8e	0.590783
86	0x3f451a92	0.7699367
87	0x3e85d940	0.2614231
88	0x3f272169	0.65285355
89	0x3ca342c0	0.01992929
90	0x3f4b1ca0	0.79340553
91	0x3f4307f4	0.7618401
92	0x3ebf76b2	0.37395245
93	0x3dc58708	0.09644896
94	0x3f34229b	0.70365304
95	0x3f119fdd	0.56884557
96	0x3f55e5a4	0.8355353
97	0x3e3c38cc	0.18381041
98	0x3e878eec	0.26476228
99	0x3f692100	0.9106598
100	0x3e5f39c4	0.2179938
101	0x3e6400b4	0.22265893
102	0x3f6d06f2	0.9258872
103	0x3eb44af6	0.3521344
104	0x3eb5299a	0.35383302
105	0x3f37b954	0.71767163
106	0x3f31f298	0.69510794
107	0x3f7502a7	0.9570717
108	0x3df3fa20	0.11912942
109	0x3e97dbc6	0.2965986
110	0x3f654536	0.8955873
111	0x3f5c857d	0.86141187
112	0x3f260bbf	0.64861673
113	0x3f101c8f	0.56293577
114	0x3f6953a7	0.9114327
115	0x3d61bde0	0.05511272
116	0x3f4b7546	0.7947582
117	0x3c939920	0.018017352
118	0x3f570a75	0.8400033
119	0x3d016f90	0.031600535
120	0x3e980ef8	0.2969892
121	0x3e857f20	0.2607355
122	0x3ecd7fea	0.40136653
123	0x3f6d26bc	0.9263723
124	0x3f0efce1	0.5585461
125	0x3dfd23c8	0.1236034
126	0x3f13c4c3	0.5772211
127	0x3cd95440	0.026529431

b1.bias f4 [128]
0	0x00000000	0.0
1	0x00000000	0.0
2	0x00000000	0.0
3	0x00000000	0.0
4	0x00000000	0.0
5	0x00000000	0.0
6	0x00000000	0.0
7	0x00000000	0.0
8	0x00000000	0.0
9	0x00000000	0.0
10	0x00000000	0.0
11	0x00000000	0.0
12	0x00000000	0.0
13	0x00000000	0.0
14	0x00000000	0.0
15	0x00000000	0.0
16	0x00000000	0.0
17	0x00000000	0.0
18	0x00000000	0.0
19	0x00000000	0.0
20	0x00000000	0.0
21	0x00000000	0.0
22	0x00000000	0.0
23	0x00000000	0.0
24	0x00000000	0.0
25	0x00000000	0.0
26	0x00000000	0.0
27	0x00000000	0.0
28	0x00000000	0.0
29	0x00000000	0.0
30	0x00000000	0.0
31	0x00000000	0.0
32	0x00000000	0.0
33	0x00000000	0.0
34	0x00000000	0.0
35	0x00000000	0.0
36	0x00000000	0.0
37	0x00000000	0.0
38	0x00000000	0.0
39	0x00000000	0.0
40	0x00000000	0.0
41	0x00000000	0.0
42	0x00000000	0.0
43	0x00000000	0.0
44	0x00000000	0.0
45	0x00000000	0.0
46	0x00000000	0.0
47	0x00000000	0.0
48	0x00000000	0.0
49	0x00000000	0.0
50	0x00000000	0.0
51	0x00000000	0.0
52	0x00000000	0.0
53	0x00000000	0.0
54	0x00000000	0.0
55	0x00000000	0.0
56	0x00000000	0.0
57	0x00000000	0.0
58	0x00000000	0.0
59	0x00000000	0.0
60	0x00000000	0.0
61	0x00000000	0.0
62	0x00000000	0.0
63	0x00000000	0.0
64	0x00000000	0.0
65	0x00000000	0.0
66	0x00000000	0.0
67	0x00000000	0.0
68	0x00000000	0.0
69	0x00000000	0.0
70	0x00000000	0.0
71	0x00000000	0.0
72	0x00000000	0.0
73	0x00000000	0.0
74	0x00000000	0.0
75	0x00000000	0.0
76	0x00000000	0.0
77	0x00000000	0.0
78	0x00000000	0.0
79	0x00000000	0.0
80	0x00000000	0.0
81	0x00000000	0.0
82	0x00000000	0.0
83	0x00000000	0.0
84	0x00000000	0.0
85	0x00000000	0.0
86	0x00000000	0.0
87	0x00000000	0.0
88	0x00000000	0.0
89	0x00000000	0.0
90	0x00000000	0.0
91	0x00000000	0.0
92	0x00000000	0.0
93	0x00000000	0.0
94	0x00000000	0.0
95	0x00000000	0.0
96	0x00000000	0.0
97	0x00000000	0.0
98	0x00000000	0.0
99	0x00000000	0.0
100	0x00000000	0.0
101	0x00000000	0.0
102	0x00000000	0.0
103	0x00000000	0.0
104	0x00000000	0.0
105	0x00000000	0.0
106	0x00000000	0.0
107	0x00000000	0.0
108	0x00000000	0.0
109	0x00000000	0.0
110	0x00000000	0.0
111	0x00000000	0.0
112	0x00000000	0.0
113	0x00000000	0.0
114	0x00000000	0.0
115	0x00000000	0.0
116	0x00000000	0.0
117	0x00000000	0.0
118	0x00000000	0.0
119	0x00000000	0.0
120	0x00000000	0.0
121	0x00000000	0.0
122	0x00000000	0.0
123	0x00000000	0.0
124	0x00000000	0.0
125	0x00000000	0.0
126	0x00000000	0.0
127	0x00000000	0.0

b1.running_mean f4 [128]
0	0x00000000	0.0
1	0x00000000	0.0
2	0x00000000	0.0
3	0x00000000	0.0
4	0x00000000	0.0
5	0x00000000	0.0
6	0x00000000	0.0
7	0x00000000	0.0
8	0x00000000	0.0
9	0x00000000	0.0
10	0x00000000	0.0
11	0x00000000	0.0
12	0x00000000	0.0
13	0x00000000	0.0
14	0x00000000	0.0
15	0x00000000	0.0
16	0x00000000	0.0
17	0x00000000	0.0
18	0x00000000	0.0
19	0x00000000	0.0
20	0x00000000	0.0
21	0x00000000	0.0
22	0x00000000	0.0
23	0x00000000	0.0
24	0x00000000	0.0
25	0x00000000	0.0
26	0x00000000	0.0
27	0x00000000	0.0
28	0x00000000	0.0
29	0x00000000	0.0
30	0x00000000	0.0
31	0x00000000	0.0
32	0x00000000	0.0
33	0x00000000	0.0
34	0x00000000	0.0
35	0x00000000	0.0
36	0x00000000	0.0
37	0x00000000	0.0
38	0x00000000	0.0
39	0x00000000	0.0
40	0x00000000	0.0
41	0x00000000	0.0
42	0x00000000	0.0
43	0x00000000	0.0
44	0x00000000	0.0
45	0x00000000	0.0
46	0x00000000	0.0
47	0x00000000	0.0
48	0x00000000	0.0
49	0x00000000	0.0
50	0x00000000	0.0
51	0x00000000	0.0
52	0x00000000	0.0
53	0x00000000	0.0
54	0x00000000	0.0
55	0x00000000	0.0
56	0x00000000	0.0
57	0x00000000	0.0
58	0x00000000	0.0
59	0x00000000	0.0
60	0x00000000	0.0
61	0x00000000	0.0
62	0x00000000	0.0
63	0x00000000	0.0
64	0x00000000	0.0
65	0x00000000	0.0
66	0x00000000	0.0
67	0x00000000	0.0
68	0x00000000	0.0
69	0x00000000	0.0
70	0x00000000	0.0
71	0x00000000	0.0
72	0x00000000	0.0
73	0x00000000	0.0
74	0x00000000	0.0
75	0x00000000	0.0
76	0x00000000	0.0
77	0x00000000	0.0
78	0x00000000	0.0
79	0x00000000	0.0
80	0x00000000	0.0
81	0x00000000	0.0
82	0x00000000	0.0
83	0x00000000	0.0
84	0x00000000	0.0
85	0x00000000	0.0
86	0x00000000	0.0
87	0x00000000	0.0
88	0x00000000	0.0
89	0x00000000	0.0
90	0x00000000	0.0
91	0x00000000	0.0
92	0x00000000	0.0
93	0x00000000	0.0
94	0x00000000	0.0
95	0x00000000	0.0
96	0x00000000	0.0
97	0x00000000	0.0
98	0x00000000	0.0
99	0x00000000	0.0
100	0x00000000	0.0
101	0x00000000	0.0
102	0x00000000	0.0
103	0x00000000	0.0
104	0x00000000	0.0
105	0x00000000	0.0
106	0x00000000	0.0
107	0x00000000	0.0
108	0x00000000	0.0
109	0x00000000	0.0
110	0x00000000	0.0
111	0x00000000	0.0
112	0x00000000	0.0
113	0x00000000	0.0
114	0x00000000	0.0
115	0x00000000	0.0
116	0x00000000	0.0
117	0x00000000	0.0
118	0x00000000	0.0
119	0x00000000	0.0
120	0x00000000	0.0
121	0x00000000	0.0
122	0x00000000	0.0
123	0x00000000	0.0
124	0x00000000	0.0
125	0x00000000	0.0
126	0x00000000	0.0
127	0x00000000	0.0

b1.running_var f4 [128]
0	0x3f800000	1.0
1	0x3f800000	1.0
2	0x3f800000	1.0
3	0x3f800000	1.0
4	0x3f800000	1.0
5	0x3f800000	1.0
6	0x3f800000	1.0
7	0x3f800000	1.0
8	0x3f800000	1.0
9	0x3f800000	1.0
10	0x3f800000	1.0
11	0x3f800000	1.0
12	0x3f800000	1.0
13	0x3f800000	1.0
14	0x3f800000	1.0
15	0x3f800000	1.0
16	0x3f800000	1.0
17	0x3f800000	1.0
18	0x3f800000	1.0
19	0x3f800000	1.0
20	0x3f800000	1.0
21	0x3f800000	1.0
22	0x3f800000	1.0
23	0x3f800000	1.0
24	0x3f800000	1.0
25	0x3f800000	1.0
26	0x3f800000	1.0
27	0x3f800000	1.0
28	0x3f800000	1.0
29	0x3f800000	1.0
30	0x3f800000	1.0
31	0x3f800000	1.0
32	0x3f800000	1.0
33	0x3f800000	1.0
34	0x3f800000	1.0
35	0x3f800000	1.0
36	0x3f800000	1.0
37	0x3f800000	1.0
38	0x3f800000	1.0
39	0x3f800000	1.0
40	0x3f800000	1.0
41	0x3f800000	1.0
42	0x3f800000	1.0
43	0x3f800000	1.0
44	0x3f800000	1.0
45	0x3f800000	1.0
46	0x3f800000	1.0
47	0x3f800000	1.0
48	0x3f800000	1.0
49	0x3f800000	1.0
50	0x3f800000	1.0
51	0x3f800000	1.0
52	0x3f800000	1.0
53	0x3f800000	1.0
54	0x3f800000	1.0
55	0x3f800000	1.0
56	0x3f800000	1.0
57	0x3f800000	1.0
58	0x3f800000	1.0
59	0x3f800000	1.0
60	0x3f800000	1.0
61	0x3f800000	1.0
62	0x3f800000	1.0
63	0x3f800000	1.0
64	0x3f800000	1.0
65	0x3f800000	1.0
66	0x3f800000	1.0
67	0x3f800000	1.0
68	0x3f800000	1.0
69	0x3f800000	1.0
70	0x3f800000	1.0
71	0x3f800000	1.0
72	0x3f800000	1.0
73	0x3f800000	1.0
74	0x3f800000	1.0
75	0x3f800000	1.0
76	0x3f800000	1.0
77	0x3f800000	1.0
78	0x3f800000	1.0
79	0x3f800000	1.0
80	0x3f800000	1.0
81	0x3f800000	1.0
82	0x3f800000	1.0
83	0x3f800000	1.0
84	0x3f800000	1.0
85	0x3f800000	1.0
86	0x3f800000	1.0
87	0x3f800000	1.0
88	0x3f800000	1.0
89	0x3f800000	1.0
90	0x3f800000	1.0
91	0x3f800000	1.0
92	0x3f800000	1.0
93	0x3f800000	1.0
94	0x3f800000	1.0
95	0x3f800000	1.0
96	0x3f800000	1.0
97	0x3f800000	1.0
98	0x3f800000	1.0
99	0x3f800000	1.0
100	0x3f800000	1.0
101	0x3f800000	1.0
102	0x3f800000	1.0
103	0x3f800000	1.0
104	0x3f800000	1.0
105	0x3f800000	1.0
106	0x3f800000	1.0
107	0x3f800000	1.0
108	0x3f800000	1.0
109	0x3f800000	1.0
110	0x3f800000	1.0
111	0x3f800000	1.0
112	0x3f800000	1.0
113	0x3f800000	1.0
114	0x3f800000	1.0
115	0x3f800000	1.0
116	0x3f800000	1.0
117	0x3f800000	1.0
118	0x3f800000	1.0
119	0x3f800000	1.0
120	0x3f800000	1.0
121	0x3f800000	1.0
122	0x3f800000	1.0
123	0x3f800000	1.0
124	0x3f800000	1.0
125	0x3f800000	1.0
126	0x3f800000	1.0
127	0x3f800000	1.0
