models/Prob_Noise_DeepNet_BufferPlus_Learn_FreqMin_BatchNorm_03/agent_0_actor.pth (torch_old, 302229 bytes, 18 tensors)

bn0.weight f4 [24]
0	0x3f1d5ca8	0.6146951
1	0x3ec3141e	0.38101286
2	0x3f2319ed	0.63711435
3	0x3ef2ec90	0.47446108
4	0x3f36ae16	0.71359384
5	0x3f1e792b	0.6190364
6	0x3ee293a4	0.44253266
7	0x3dc42258	0.09576863
8	0x3f1d3968	0.6141572
9	0x3d6ad070	0.057327688
10	0x3f10d2a2	0.565714
11	0x3f0881b1	0.53322893
12	0x3ec7b4be	0.39005083
13	0x3f68aa4b	0.90884846
14	0x3f088ad5	0.5333684
15	0x3f35142f	0.7073392
16	0x3f362b3f	0.7115974
17	0x3e51f47c	0.2050342
18	0x3e9d95b4	0.30778277
19	0x3f7b1994	0.98085904
20	0x3c281f00	0.010261297
21	0x3eee9ce8	0.46604085
22	0x3eebb64a	0.46037513
23	0x3f5acaa7	0.8546547

bn0.bias f4 [24]
0	0x00000000	0.0
1	0x00000000	0.0
2	0x00000000	0.0
3	0x00000000	0.0
4	0x00000000	0.0
5	0x00000000	0.0
6	0x00000000	0.0
7	0x00000000	0.0
8	0x00000000	0.0
9	0x00000000	0.0
10	0x00000000	0.0
11	0x00000000	0.0
12	0x00000000	0.0
13	0x00000000	0.0
14	0x00000000	0.0
15	0x00000000	0.0
16	0x00000000	0.0
17	0x00000000	0.0
18	0x00000000	0.0
19	0x00000000	0.0
20	0x00000000	0.0
21	0x00000000	0.0
22	0x00000000	0.0
23	0x00000000	0.0

bn0.running_mean f4 [24]
0	0x00000000	0.0
1	0x00000000	0.0
2	0x00000000	0.0
3	0x00000000	0.0
4	0x00000000	0.0
5	0x00000000	0.0
6	0x00000000	0.0
7	0x00000000	0.0
8	0x00000000	0.0
9	0x00000000	0.0
10	0x00000000	0.0
11	0x00000000	0.0
12	0x00000000	0.0
13	0x00000000	0.0
14	0x00000000	0.0
15	0x00000000	0.0
16	0x00000000	0.0
17	0x00000000	0.0
18	0x00000000	0.0
19	0x00000000	0.0
20	0x00000000	0.0
21	0x00000000	0.0
22	0x00000000	0.0
23	0x00000000	0.0

bn0.running_var f4 [24]
0	0x3f800000	1.0
1	0x3f800000	1.0
2	0x3f800000	1.0
3	0x3f800000	1.0
4	0x3f800000	1.0
5	0x3f800000	1.0
6	0x3f800000	1.0
7	0x3f800000	1.0
8	0x3f800000	1.0
9	0x3f800000	1.0
10	0x3f800000	1.0
11	0x3f800000	1.0
12	0x3f800000	1.0
13	0x3f800000	1.0
14	0x3f800000	1.0
15	0x3f800000	1.0
16	0x3f800000	1.0
17	0x3f800000	1.0
18	0x3f800000	1.0
19	0x3f800000	1.0
20	0x3f800000	1.0
21	0x3f800000	1.0
22	0x3f800000	1.0
23	0x3f800000	1.0

fc1.weight f4 [256, 24]
0	0x3d64d0c5	0.05586316
1	0xbd558d41	-0.052136663
2	0x3cc17535	0.023615459
3	0xbdf135e4	-0.11777857
4	0x3c03c569	0.008042672
5	0xbd2c49fd	-0.04206275
6	0xbd02be8c	-0.03192
7	0xbda44230	-0.08020437
8	0x3dcd189e	0.10014461
9	0xbdb06502	-0.08613016
10	0xbbbab302	-0.005697609
11	0x3c5767bb	0.01314729
12	0x3b97022b	0.0046084127
13	0x3dbffc28	0.09374267
14	0xbc556903	-0.013025525
15	0xbc117daf	-0.008880063
16	0x3ccb38b1	0.024807306
17	0xbdcb7794	-0.09934917
18	0xbc85b5bd	-0.016322011
19	0x3cc69f01	0.02424574
20	0xbea829c8	-0.32844377
21	0x3ebf7b49	0.37398747
22	0x3b83d5e1	0.004023299
23	0x3c158ae2	0.0091273505
24	0x3c795da9	0.015220084
25	0xbc018a2e	-0.00790648
26	0x3c2d0972	0.010561334
27	0xbd11ef8e	-0.035628848
28	0x3db6e288	0.08929926
29	0xbd9f501c	-0.077789515
30	0xbcb8942a	-0.022531588
31	0xbd7b758c	-0.0613914
32	0x3deb8ccc	0.11501464
33	0x3d8bf797	0.068343334
34	0xbcd1c8e6	-0.025608491
35	0xbd77acdf	-0.060467597
36	0x3e5626c8	0.20913231
37	0xbd65fed9	-0.056151245
38	0x3c0eda80	0.008719087
39	0x3c9cdd4e	0.019148495
40	0x3c868455	0.016420523
41	0xbdb1027d	-0.08643053
42	0x3c1ae5ab	0.009454171
43	0xbe0624b2	-0.13099936
44	0x3e09377b	0.1340007
45	0xbdee8f00	-0.11648369
46	0x3d1c33ac	0.038135216
47	0xbdaeb5f9	-0.08530802
48	0x3ddc4110	0.10754597
49	0x3dca646e	0.09882437
50	0x3c3e9b65	0.011633729
51	0xbd686aa7	-0.056742337
52	0x3e2b60d1	0.16736151
53	0xbb9f7270	-0.004865937
54	0xbd899bf6	-0.067192
55	0x3cbf6fab	0.023368677
56	0x3d3257f9	0.04354093
57	0x3e5af375	0.21381934
58	0xbcce0415	-0.02514843
59	0x3d8e7808	0.06956488
60	0x3e8b0638	0.27153182
61	0xbe2bcc82	-0.16777232
62	0xbce8eefb	-0.028434267
63	0x3d503b4e	0.050837807
64	0x3de65236	0.11246149
65	0x3e69f0f3	0.22845821
66	0xbc0c0ec2	-0.00854844
67	0xbd2bdace	-0.041956715
68	0x3eb4bd12	0.353005
69	0xbe920ef9	-0.28527048
70	0xbda06018	-0.078308284
71	0xbe24e662	-0.16103509
72	0x3cce9e3d	0.025221938
73	0x3dcc3031	0.09970129
74	0xbd33483d	-0.043770064
75	0xbdfa53f9	-0.12223048
76	0x3d0bc729	0.03412548
77	0xbdd32f4d	-0.10311756
78	0xbd28c811	-0.041206423
79	0xbd486603	-0.04892541
80	0xbcaf4717	-0.021396203
81	0x3c9e7fa2	0.01934797
82	0x3c110246	0.00885064
83	0xbdc81fd7	-0.09771698
84	0x3b8565b5	0.0040709623
85	0x3d12261d	0.03568088
86	0xbd02ad22	-0.031903394
87	0xbdc756ab	-0.097333275
88	0x3d656683	0.056005966
89	0xbda17ccb	-0.078851305
90	0xbc8f4293	-0.0174878
91	0xbda04e62	-0.0782745
92	0x3dbbeded	0.0917624
93	0x3d70ae1c	0.058759794
94	0xbb20bee6	-0.0024527847
95	0xbd82d717	-0.063886814
96	0x3ca2c24d	0.01986804
97	0xbe8deb0f	-0.27718398
98	0x3c7740b4	0.01509111
99	0xbd8d8d20	-0.06911683
100	0x3e25b08d	0.1618063
101	0xbe4a56b5	-0.19759639
102	0x3cb14c05	0.021642694
103	0xbc234058	-0.009964071
104	0x3d2f2df3	0.04276843
105	0xbe58e145	-0.21179684
106	0x3d1400f6	0.03613373
107	0x3d715389	0.058917556
108	0x3dec6d45	0.11544279
109	0xbe0b64df	-0.13612698
110	0xbca6389d	-0.020290667
111	0x3debd447	0.11515098
112	0xba985a5d	-0.001162361
113	0xbe4b51bf	-0.19855402
114	0x3d95c490	0.07312882
115	0x3e1a71e5	0.1508251
116	0xbd1f9d05	-0.038968105
117	0xbe18543c	-0.14875883
118	0xbcf95b49	-0.030439036
119	0x3e30e177	0.17273508
120	0x3d9e4323	0.07727649
121	0xbe84401d	-0.25830165
122	0xbd05adf1	-0.032636587
123	0x3d36bebb	0.04461549
124	0xbc9b4ea7	-0.018958403
125	0x3d6955b9	0.056966517
126	0x3ce82514	0.028337993
127	0x3b7d8db2	0.0038689193
128	0x3d6d9b84	0.05800964
129	0xbe26a4a4	-0.16273743
130	0x3b15c0c2	0.0022850488
131	0x3e012536	0.12611851
132	0xbdfea2c0	-0.12433386
133	0x3e465ccc	0.19371337
134	0xbca132d7	-0.019677563
135	0x3de58b6d	0.11208234
136	0x3dc39bb0	0.095511794
137	0xbe1737b6	-0.14767346
138	0x3aaea54d	0.001332441
139	0x3c9367a4	0.017993756
140	0xbe24f5b8	-0.1610936
141	0x3ec79e3b	0.38987908
142	0xbc3fb6df	-0.011701315
143	0xbceea436	-0.029131036
144	0x3dcd8788	0.10035616
145	0x3e702fc0	0.23455715
146	0x3cdedf4d	0.027206087
147	0x3dcb53fb	0.099281274
148	0x3cb060c6	0.02153052
149	0xbd6974a7	-0.056996014
150	0xbd006fe4	-0.031356707
151	0x3c70837a	0.014679784
152	0x3ce42eeb	0.027854403
153	0x3e57aeda	0.21062794
154	0x3d649acd	0.055811692
155	0x3d1220dc	0.03567587
156	0x3cf56b09	0.029958265
157	0xbe12ccd8	-0.14335954
158	0x3d22dd8f	0.039762076
159	0x3c4693af	0.012120171
160	0x3db799c2	0.08964874
161	0x3e7d15ae	0.24715301
162	0x3b96b605	0.004599335
163	0xbd431c27	-0.04763427
164	0x3dbffcba	0.09374376
165	0xbe84cce1	-0.2593756
166	0xbd44304c	-0.047897622
167	0xbda7d4a3	-0.08194854
168	0x3e807fd6	0.2509753
169	0x3ede5e92	0.43431526
170	0x3d1d3461	0.03838003
171	0x3e258b25	0.1616636
172	0x3c757674	0.014981855
173	0x3e0042f4	0.1252554
174	0xbcea00f0	-0.0285649
175	0x3dd38ccb	0.103295885
176	0x3e8d7961	0.27631667
177	0x3ef3b690	0.47600222
178	0x3bca6c80	0.006177485
179	0xbdc1b39d	-0.09458087
180	0xbc03970f	-0.008031621
181	0xbcda3aee	-0.026639428
182	0xbd523b69	-0.05132619
183	0xbd20ad36	-0.039227687
184	0x3e365aa8	0.1780802
185	0x3ebc2ad1	0.36751416
186	0x3cc36a6b	0.023854455
187	0xbdf7a2e0	-0.12091613
188	0xbd8f4fd7	-0.0699765
189	0xbe3d36fa	-0.18478003
190	0xbba46ca0	-0.005017832
191	0xbdd44bb2	-0.10366
192	0x3aa58aa2	0.0012629817
193	0x3dd9b510	0.10630238
194	0xbcf54415	-0.02993969
195	0x3c960fb8	0.018318042
196	0x3e53ded2	0.20690468
197	0xbd8b522c	-0.068027824
198	0x3bf86544	0.007580431
199	0x3d5ad596	0.053426348
200	0xbb85dee5	-0.004085409
201	0x3dda07a9	0.10645992
202	0xbc14eadf	-0.009089201
203	0x3d2e5bda	0.042568065
204	0x3d676392	0.056491442
205	0x3df52888	0.11970621
206	0xbc90de1e	-0.017684039
207	0xbd2fd5be	-0.04292845
208	0xbb14c07b	-0.0022697735
209	0x3e569148	0.20953858
210	0x3b924c72	0.0044646794
211	0xbce445bc	-0.027865283
212	0xbe4a4ed9	-0.1975664
213	0x3e998b12	0.29988915
214	0xbd1378f0	-0.036004007
215	0x3d664b8c	0.05622439
216	0x3bf99d2f	0.0076176147
217	0xbd3f6f57	-0.04673704
218	0xbd235cfd	-0.039883602
219	0x3d89fb3b	0.067373715
220	0x3de1ee6a	0.11031802
221	0xbeb1a0af	-0.34692904
222	0x3cccded8	0.025008604
223	0x3d5f0dc8	0.054456502
224	0xbc58c442	-0.013230385
225	0xbe568448	-0.20948899
226	0x3c519af6	0.012793293
227	0xbdd1d3d6	-0.102454826
228	0x3d7f8f1a	0.06239233
229	0xbe8b7d0b	-0.27243838
230	0xbd0f625b	-0.03500591
231	0xbca04178	-0.019562468
232	0x3ad9b119	0.0016608565
233	0xbe541191	-0.20709826
234	0x3bd1b6a2	0.0063999454
235	0x3d0d778c	0.034537837
236	0xbd171bc9	-0.036891732
237	0xbea4806e	-0.32129234
238	0x3c82b5af	0.015955774
239	0x3a7430f7	0.00093151577
240	0x3d9fcd58	0.07802838
241	0xbe3a4451	-0.18190123
242	0x3c12f756	0.008970102
243	0xbcda7678	-0.026667818
244	0xbd3ec0ec	-0.046570703
245	0x3e51b435	0.204789
246	0x3b71fb5a	0.00369235
247	0x3d55441f	0.05206692
248	0x3d86503f	0.065582745
249	0xbe063574	-0.13106328
250	0x3d593970	0.053033292
251	0xbd2c5040	-0.04206872
252	0x3ba1b16d	0.004934481
253	0x3e02c4c6	0.12770376
254	0xbcb95f1d	-0.022628361
255	0xbd596178	-0.05307147

fc1.bias f4 [256]
0	0x3da2ccc0	0.07949209
1	0xbce8f6e5	-0.028438041
2	0x3df286e4	0.118421346
3	0x3de95a6e	0.11394201
4	0xbe6ebb93	-0.23313741
5	0x3ccb9615	0.024851838
6	0xbe1a441f	-0.15065049
7	0xbdf127bd	-0.117751576
8	0xbe12e262	-0.1434417
9	0x3e66bd77	0.22533213
10	0x3dec433a	0.1153626
11	0xbe0f0781	-0.13967706
12	0xbd5fdf4d	-0.054656316
13	0x3e60bc70	0.21946883
14	0x3e2ede1c	0.17076916
15	0xbd35f93e	-0.04442715
16	0x3eae465f	0.34038064
17	0x3dd07fbc	0.101806134
18	0xbbbaadb8	-0.0056969784
19	0x3d8fda24	0.07024029
20	0xbcf649bd	-0.030064458
21	0xbe447fb8	-0.19189346
22	0xbd4ca5b6	-0.04996272
23	0x3d839fe1	0.06426979
24	0xbce0ceb0	-0.027442306
25	0x3e15c773	0.14626865
26	0x3d8f12d4	0.06986013
27	0x3e1ae38c	0.15125865
28	0xbd94791d	-0.07249663
29	0x3db7612f	0.08954083
30	0x3e874caf	0.26425692
31	0x3e3d9022	0.18512014
32	0xbd0e578a	-0.034751453
33	0xbebf7fc0	-0.37402153
34	0x3d2b9b76	0.041896306
35	0x3e3da400	0.18519592
36	0xbe0a34f1	-0.13496758
37	0x3d40d158	0.047074646
38	0xbe2e0398	-0.16993558
39	0xbe189551	-0.1490071
40	0x3d79f126	0.061020993
41	0xbdf76cc4	-0.12081292
42	0xbe43fbe1	-0.19139053
43	0xbc3f50ed	-0.011677009
44	0xbde48b01	-0.111593254
45	0xbdefa7c2	-0.11701919
46	0xbca696e5	-0.020335624
47	0xbdf58194	-0.11987606
48	0xbe21a62f	-0.1578605
49	0xbe004dc1	-0.12529661
50	0xbe1bca1d	-0.15213819
51	0x3d0a6229	0.03378502
52	0x3cdb56d6	0.026774805
53	0x3ca416f6	0.02003048
54	0xbe4a9d2c	-0.19786519
55	0xbd167d65	-0.03674068
56	0xbdd19327	-0.10233145
57	0x3d68504e	0.05671721
58	0xbd1f77d5	-0.03893264
59	0x3db3e378	0.087836206
60	0x3cfde34c	0.030992173
61	0x3ca34852	0.019931946
62	0xbe58978a	-0.21151558
63	0x3e9871ca	0.29774314
64	0xbd0aee91	-0.03391892
65	0xbd7e7808	-0.06212619
66	0x3e518b42	0.20463279
67	0x3e2935a4	0.16524369
68	0xbdc0dca1	-0.094170816
69	0x3e0cb068	0.13739169
70	0x3e17b1c4	0.14813906
71	0x3d06c1f9	0.03289983
72	0xbe77cecb	-0.24199979
73	0xbe165156	-0.14679465
74	0x3bfa899e	0.0076458
75	0xbc862e0b	-0.016379377
76	0x3d79fbe3	0.061031234
77	0x3e48835a	0.19581357
78	0xbde7cd21	-0.11318422
79	0x3b98d992	0.0046646083
80	0xbd6edd67	-0.058316614
81	0x3d237fdd	0.03991686
82	0x3d86f4b8	0.06589645
83	0x3e607e07	0.21923076
84	0x3bc1dff3	0.0059165894
85	0xbe1d05b3	-0.15334205
86	0xbdabb93d	-0.08384941
87	0xbd8efc89	-0.06981761
88	0xbbbe8164	-0.0058137644
89	0xbe1b5349	-0.1516849
90	0xbe23602c	-0.15954655
91	0x3e28996a	0.16464773
92	0x3ca063b1	0.019578787
93	0x3de5b148	0.11215454
94	0xbe417c15	-0.1889499
95	0x3d2b3978	0.041802853
96	0xbe081442	-0.13288978
97	0x3b07370e	0.002063218
98	0xbdb13c8f	-0.08654129
99	0x3d5b375d	0.053519595
100	0xbd875e13	-0.0660974
101	0x3da2060c	0.079113096
102	0x3e0a5328	0.13508284
103	0x3e1700a8	0.14746344
104	0x3d9eaeba	0.0774817
105	0xbb7b65b0	-0.003836017
106	0x3e7a64df	0.24452542
107	0xbd8548f8	-0.06508058
108	0xbcebb840	-0.02877438
109	0xbb628763	-0.003456556
110	0x3e264b10	0.16239572
111	0x3e09d3ff	0.13459776
112	0xbe0ed356	-0.13947806
113	0xbddcbc87	-0.10778146
114	0x3e237c5e	0.15965411
115	0x3e26c504	0.16286093
116	0xbe3b18b1	-0.18271138
117	0x3d19658d	0.037450362
118	0xbdedf61d	-0.11619208
119	0x3e2ef676	0.17086205
120	0xbcef9d2f	-0.029249756
121	0xbe75a3fb	-0.23988335
122	0xbd13117d	-0.03590535
123	0xbdc2a2ae	-0.09503685
124	0xbcbc3990	-0.022976667
125	0xbe0dad97	-0.1383575
126	0x3dd88868	0.105728924
127	0xbe497a47	-0.19675551
128	0x3e54ee45	0.20794018
129	0xbe031d6f	-0.12804197
130	0x3e71ada2	0.23601392
131	0xbd9935af	-0.074809425
132	0x3d6282da	0.05530057
133	0xbdd0e1e6	-0.10199337
134	0xbe18cbc2	-0.14921477
135	0x3e6655f8	0.22493732
136	0x3da50aef	0.08058726
137	0x3d0ca3eb	0.03433601
138	0xbdc55d1e	-0.09636901
139	0x3d390a8e	0.04517608
140	0xbe6e1c85	-0.23253067
141	0xbe3c1cdd	-0.18370385
142	0x3e072153	0.13196306
143	0x3b9c7fb6	0.0047759665
144	0xbd6888a1	-0.056770924
145	0xbe7e4ba3	-0.2483354
146	0xbd557a24	-0.052118436
147	0x3d947f4b	0.07250842
148	0xbb35f920	-0.0027766898
149	0xbe1e3e9f	-0.15453576
150	0x3e554b38	0.20829475
151	0x3e281878	0.16415584
152	0x3c459733	0.0120599745
153	0xbe12c766	-0.14333877
154	0xbe07a8ae	-0.1324794
155	0x3cf01e0a	0.029311199
156	0x3e07c196	0.13257441
157	0x3e4373d5	0.19087155
158	0x3e12b5bd	0.1432714
159	0xbd9bcfdd	-0.07608006
160	0x3dc2ea93	0.09517398
161	0x3e50be64	0.20385128
162	0x3e1a4c73	0.15068226
163	0xbd6f9ad8	-0.05849728
164	0xbd0c729e	-0.034288995
165	0x3e1bf13b	0.15228741
166	0x3e1db151	0.15399672
167	0xbd3dd065	-0.04634132
168	0xbd9111ac	-0.07083449
169	0xbd51f254	-0.051256493
170	0x3dd0d68a	0.1019717
171	0xbe41349a	-0.18867722
172	0xbe3931e5	-0.1808544
173	0xbca3890b	-0.019962808
174	0xbe913a14	-0.28364623
175	0xbe80b607	-0.25138876
176	0x3e03d0c2	0.12872604
177	0xbe12e28c	-0.14344233
178	0x3db35d31	0.08758009
179	0xbd2c6ba6	-0.04209485
180	0xbe5d1d74	-0.21593267
181	0xbd84aa59	-0.06477804
182	0x3d0be163	0.034150492
183	0xbcec3587	-0.028834118
184	0x3d41b64f	0.047293004
185	0x3e0903c6	0.13380346
186	0xbdfe37d1	-0.1241299
187	0x3d151be7	0.036403563
188	0xbc2cfb83	-0.010558012
189	0xbd0d5ba1	-0.034511212
190	0xbd102a9a	-0.035196878
191	0x3dc2fb45	0.09520582
192	0xbd47d924	-0.048791066
193	0xbd32fe22	-0.04369939
194	0x3d99346b	0.07480701
195	0x3d6acbdf	0.057323333
196	0x3e2a2d38	0.16618812
197	0x3e31b77e	0.17355153
198	0xbcd08509	-0.025454061
199	0xbdd4af5a	-0.10385008
200	0xbe3a3ad0	-0.18186498
201	0x3d3d8608	0.0462704
202	0xbd8cc46b	-0.06873401
203	0xbcf8ae33	-0.030356502
204	0xbdf81fd5	-0.121154465
205	0x3e975b42	0.29561812
206	0xbd779f05	-0.060454387
207	0x3e5e2b25	0.21696146
208	0x3be16bfa	0.006879327
209	0x3e4acdf2	0.19805124
210	0xbcc066c5	-0.023486504
211	0xbcbca940	-0.023029923
212	0xbda0e628	-0.07856399
213	0xbecfe18b	-0.40601763
214	0x3d41ea98	0.047342867
215	0x3e3f1600	0.18660736
216	0x3c884a5a	0.016637016
217	0xbdd30b10	-0.103048444
218	0xbd87c6bc	-0.066297024
219	0xbc3232d3	-0.010876375
220	0xbe8f7f0a	-0.2802661
221	0x3e4bdca4	0.19908386
222	0x3e000ff7	0.1250609
223	0x3defaa33	0.11702385
224	0x3dabec37	0.08394664
225	0xbca8518b	-0.020546695
226	0x3e06a8f9	0.13150395
227	0x3d33ed7d	0.04392766
228	0x3e6edaf3	0.2332571
229	0x3c28ac81	0.010295034
230	0x3d62c8c1	0.055367235
231	0xbdd92688	-0.106030524
232	0x3cf0abd4	0.029378809
233	0xbe29fde6	-0.16600761
234	0x3df8f164	0.121554166
235	0x3d903e1f	0.07043099
236	0x3e1fd212	0.15607479
237	0x3a3ec84d	0.0007277772
238	0x3cc0dfc4	0.0235442
239	0x3e155a1f	0.1458516
240	0x3e150d38	0.14555824
241	0xbd1c4bad	-0.038158108
242	0xbdd027e0	-0.101638556
243	0x3e0a6b0c	0.13517398
244	0x3e80b95c	0.25141418
245	0x3d869ef1	0.065732844
246	0x3cd0b52b	0.025477013
247	0xbdca8361	-0.0988834
248	0x3da284c9	0.07935483
249	0xbe382925	-0.17984445
250	0x3cd5a333	0.026078796
251	0xbd3ddf9d	-0.046355832
252	0xbded2176	-0.11578648
253	0x3dae3bd6	0.085075065
254	0xbe2cd9bc	-0.16879934
255	0xbe183445	-0.14863689

bn1.weight f4 [256]
0	0x3dfe2cd8	0.12410897
1	0x3d5f0390	0.054446757
2	0x3c91a960	0.01778096
3	0x3ea28ad4	0.31746542
4	0x3ea87ed4	0.32909262
5	0x3f4d4344	0.80180764
6	0x3e947dde	0.2900228
7	0x3e894f98	0.26818538
8	0x3ea17dfe	0.31541437
9	0x3f5b68dc	0.8570688
10	0x3e06b2f0	0.13154197
11	0x3f21f1c0	0.63259506
12	0x3e92ecd8	0.28696322
13	0x3e36a0a4	0.17834717
14	0x3e8eed32	0.2791534
15	0x3f68e354	0.90971875
16	0x3ee90420	0.4551096
17	0x3f3a34de	0.7273692
18	0x3f6c07e7	0.9219956
19	0x3ee91e4e	0.45530933
20	0x3f1dc06f	0.61621755
21	0x3f48046e	0.7813176
22	0x3f5f703d	0.8728064
23	0x3e9cf286	0.3065378
24	0x3f3ba6f5	0.7330163
25	0x3f176b1c	0.5914781
26	0x3f60db60	0.8783474
27	0x3f6b3027	0.9187035
28	0x3f0b1bad	0.54339105
29	0x3e0ab698	0.13546216
30	0x3efbe390	0.49197054
31	0x3f07e760	0.53087425
32	0x3e8fd690	0.28093386
33	0x3ef94a34	0.48689425
34	0x3f57ee51	0.84348017
35	0x3f50685d	0.81409246
36	0x3ea91360	0.33022594
37	0x3d969748	0.07353073
38	0x3f2c26c5	0.6724666
39	0x3d0861c0	0.033296347
40	0x3eb80c96	0.35947102
41	0x3ed04076	0.4067418
42	0x3e95a030	0.29223776
43	0x3eded004	0.43518078
44	0x3f16c2dc	0.5889108
45	0x3f69b612	0.9129344
46	0x3f259b5f	0.646902
47	0x3f252fd4	0.64526105
48	0x3e37b80c	0.17941302
49	0x3e7d72f0	0.24750876
50	0x3e79c15c	0.24390167
51	0x3e2f5e7c	0.17125887
52	0x3f10ff24	0.56639314
53	0x3ed50a98	0.41609645
54	0x3f254e2e	0.6457242
55	0x3da70588	0.08155352
56	0x3c5751c0	0.013142049
57	0x3ed85fa8	0.4226048
58	0x3ec58458	0.38577533
59	0x3e497130	0.19672084
60	0x3f3bb0dd	0.73316747
61	0x3f48291b	0.7818772
62	0x3e1f27d8	0.15542543
63	0x3ee45f12	0.44603783
64	0x3f1b523e	0.60672367
65	0x3f1d4ed7	0.61448425
66	0x3e4fc9b0	0.20291781
67	0x3f3824ae	0.7193097
68	0x3f493f15	0.7861188
69	0x3f2500c5	0.644543
70	0x3f03e64b	0.51523274
71	0x3e942156	0.28931683
72	0x3f5b6469	0.8570009
73	0x3ead2b52	0.33822113
74	0x3f37f46a	0.7185732
75	0x3f4e8c5f	0.8068294
76	0x3ebc3faa	0.36767322
77	0x3d282830	0.04105395
78	0x3f653b06	0.8954319
79	0x3f10a1e7	0.56497043
80	0x3f72cc03	0.9484255
81	0x3d5eed00	0.05442524
82	0x3e83e25e	0.25758642
83	0x3e1046dc	0.1408953
84	0x3f7e7e9f	0.9941196
85	0x3ab96800	0.0014145374
86	0x3f3508ad	0.70716363
87	0x3f2b020a	0.66799986
88	0x3eae8458	0.34085345
89	0x3f429a68	0.76016855
90	0x3dcf9e88	0.10137659
91	0x3f40df90	0.7534113
92	0x3f0566b8	0.5210986
93	0x3f17353b	0.590656
94	0x3ef785d4	0.4834429
95	0x3ef41070	0.4766879
96	0x3ef221ba	0.47291356
97	0x3f774325	0.9658683
98	0x3e61346c	0.21992654
99	0x3f5771af	0.8415784
100	0x3c7e1480	0.015507817
101	0x3ceed9a0	0.029156506
102	0x3c502f80	0.012706637
103	0x3e8e1f20	0.27758121
104	0x3f6ef6f3	0.93345565
105	0x3f191a05	0.5980533
106	0x3f0bdfdf	0.54638475
107	0x3ef52d40	0.47886086
108	0x3e991864	0.2990142
109	0x3f06d4a8	0.5266824
110	0x3ea68e44	0.32530415
111	0x3e76e1e0	0.24109602
112	0x3e7bf18c	0.24603862
113	0x3f13b0c1	0.5769158
114	0x3f43d19c	0.76491714
115	0x3e934a3e	0.2876758
116	0x3e73a2cc	0.23792571
117	0x3f092929	0.5357843
118	0x3f1b3857	0.6063284
119	0x3ef1237c	0.47097385
120	0x3f5a3383	0.8523485
121	0x3f09609f	0.5366306
122	0x3f27e45a	0.6558281
123	0x3e43ff58	0.19140375
124	0x3ed3e2e6	0.41384047
125	0x3f05a3a6	0.5220283
126	0x3cfb2520	0.030657351
127	0x3e61e0c0	0.22058392
128	0x3ef060d8	0.46948886
129	0x3eda800e	0.42675823
130	0x3da1ccf8	0.07900423
131	0x3db921d8	0.09039658
132	0x3e908fca	0.28234702
133	0x3f05b64d	0.52231294
134	0x3f09c9b2	0.5382339
135	0x3f5a50e7	0.852797
136	0x3f3492bc	0.705364
137	0x3f441745	0.76598006
138	0x3f249339	0.64287144
139	0x3e8b6ed4	0.27232993
140	0x3ea0ac58	0.31381488
141	0x3c812dc0	0.015768886
142	0x3ecc75aa	0.3993352
143	0x3f7b198b	0.9808585
144	0x3e1430b0	0.14471698
145	0x3e40ae5c	0.18816513
146	0x3f63ea9f	0.8902988
147	0x3f32327d	0.6960829
148	0x3f4fcfe9	0.8117662
149	0x3f1769e4	0.5914595
150	0x3eea9e44	0.45823872
151	0x3f3ad968	0.72987986
152	0x3f6aa39c	0.916559
153	0x3f59702e	0.849368
154	0x3f05d51b	0.522783
155	0x3f7eef00	0.99583435
156	0x3d228f40	0.039687395
157	0x3f68d1fa	0.909454
158	0x3e473834	0.19455034
159	0x3f5a4a54	0.85269666
160	0x3f682e81	0.9069596
161	0x3ef72cee	0.48276466
162	0x3f217cad	0.63080865
163	0x3eb3988e	0.35077327
164	0x3ecc9282	0.39955527
165	0x3df47a90	0.119374394
166	0x3f12942c	0.5725734
167	0x3f359795	0.7093442
168	0x3efce668	0.49394536
169	0x3e5ecbf0	0.21757483
170	0x3e083738	0.13302314
171	0x3f353207	0.7077946
172	0x3eb4d7ae	0.353208
173	0x3f03e480	0.5152054
174	0x3f3b9cd7	0.73286194
175	0x3e816268	0.2527039
176	0x3f1af34a	0.6052748
177	0x3dcd90e0	0.10037398
178	0x3f05d95e	0.522848
179	0x3f3062f5	0.68900996
180	0x3e95edaa	0.29282886
181	0x3ee6f5b4	0.45109332
182	0x3f46a192	0.77590287
183	0x3e80125e	0.25014013
184	0x3da068d8	0.07832497
185	0x3e6a2e24	0.22869164
186	0x3e2869bc	0.16446584
187	0x3ce38f60	0.027778327
188	0x3f197bef	0.5995473
189	0x3f32255d	0.6958826
190	0x3e4dc258	0.20093668
191	0x3c88b1e0	0.01668638
192	0x3e69b78c	0.22823924
193	0x3f439f74	0.7641518
194	0x3f31ada3	0.69405574
195	0x3f276d09	0.6540075
196	0x3e0161a8	0.12634909
197	0x3f628f47	0.88499874
198	0x3e63e5a4	0.2225557
199	0x3ec6e36a	0.38845378
200	0x3e5eabbc	0.21745199
201	0x3ed0507a	0.406864
202	0x3edef78c	0.43548238
203	0x3f1df894	0.61707425
204	0x3f5727fc	0.84045386
205	0x3f4d667e	0.80234516
206	0x3f3a46b8	0.7276416
207	0x3f630495	0.88678867
208	0x3f255367	0.64580387
209	0x3f7ad0bb	0.9797475
210	0x3e3fb488	0.18721211
211	0x3f3d13fa	0.73858607
212	0x3f75783f	0.95886606
213	0x3f1b6487	0.6070027
214	0x3c470b80	0.012148738
215	0x3f76af0a	0.9636084
216	0x3ea0090c	0.31256902
217	0x3e1cfc2c	0.15330571
218	0x3a2f2c00	0.0006682277
219	0x3f7bb9e6	0.98330534
220	0x3f6cad71	0.9245215
221	0x3dd84368	0.10559732
222	0x3ed56b9c	0.41683662
223	0x3e9ca880	0.30597305
224	0x3e07544c	0.1321575
225	0x3e572e88	0.21013844
226	0x3d6faa30	0.058511913
227	0x3f1e6186	0.6186756
228	0x3ed839f0	0.42231703
229	0x3f1cd200	0.61257935
230	0x3e1b94bc	0.15193456
231	0x3f2bb804	0.6707766
232	0x3f6f888e	0.9356774
233	0x3ed26838	0.41095138
234	0x3eb70a3c	0.35749996
235	0x3d83b870	0.06431663
236	0x3f232a61	0.6373654
237	0x3e808c56	0.25107068
238	0x3e4542ec	0.1926381
239	0x3d760150	0.060059845
240	0x3f57af83	0.84252185
241	0x3eb69e38	0.35667586
242	0x3f6c1301	0.922165
243	0x3e253e68	0.16137087
244	0x3f55ba5b	0.8348748
245	0x3dc91568	0.09818536
246	0x3f42ad4e	0.7604569
247	0x3ef44bd0	0.4771409
248	0x3ee0fdc4	0.43943608
249	0x3d871d00	0.06597328
250	0x3f333366	0.700003
251	0x3f1fc7a0	0.6241398
252	0x3f1203ab	0.57036847
253	0x3ed88c76	0.42294663
254	0x3f3e4750	0.74327564
255	0x3ec10bc2	0.37704283

bn1.bias f4 [256]
0	0x00000000	0.0
1	0x00000000	0.0
2	0x00000000	0.0
3	0x00000000	0.0
4	0x00000000	0.0
5	0x00000000	0.0
6	0x00000000	0.0
7	0x00000000	0.0
8	0x00000000	0.0
9	0x00000000	0.0
10	0x00000000	0.0
11	0x00000000	0.0
12	0x00000000	0.0
13	0x00000000	0.0
14	0x00000000	0.0
15	0x00000000	0.0
16	0x00000000	0.0
17	0x00000000	0.0
18	0x00000000	0.0
19	0x00000000	0.0
20	0x00000000	0.0
21	0x00000000	0.0
22	0x00000000	0.0
23	0x00000000	0.0
24	0x00000000	0.0
25	0x00000000	0.0
26	0x00000000	0.0
27	0x00000000	0.0
28	0x00000000	0.0
29	0x00000000	0.0
30	0x00000000	0.0
31	0x00000000	0.0
32	0x00000000	0.0
33	0x00000000	0.0
34	0x00000000	0.0
35	0x00000000	0.0
36	0x00000000	0.0
37	0x00000000	0.0
38	0x00000000	0.0
39	0x00000000	0.0
40	0x00000000	0.0
41	0x00000000	0.0
42	0x00000000	0.0
43	0x00000000	0.0
44	0x00000000	0.0
45	0x00000000	0.0
46	0x00000000	0.0
47	0x00000000	0.0
48	0x00000000	0.0
49	0x00000000	0.0
50	0x00000000	0.0
51	0x00000000	0.0
52	0x00000000	0.0
53	0x00000000	0.0
54	0x00000000	0.0
55	0x00000000	0.0
56	0x00000000	0.0
57	0x00000000	0.0
58	0x00000000	0.0
59	0x00000000	0.0
60	0x00000000	0.0
61	0x00000000	0.0
62	0x00000000	0.0
63	0x00000000	0.0
64	0x00000000	0.0
65	0x00000000	0.0
66	0x00000000	0.0
67	0x00000000	0.0
68	0x00000000	0.0
69	0x00000000	0.0
70	0x00000000	0.0
71	0x00000000	0.0
72	0x00000000	0.0
73	0x00000000	0.0
74	0x00000000	0.0
75	0x00000000	0.0
76	0x00000000	0.0
77	0x00000000	0.0
78	0x00000000	0.0
79	0x00000000	0.0
80	0x00000000	0.0
81	0x00000000	0.0
82	0x00000000	0.0
83	0x00000000	0.0
84	0x00000000	0.0
85	0x00000000	0.0
86	0x00000000	0.0
87	0x00000000	0.0
88	0x00000000	0.0
89	0x00000000	0.0
90	0x00000000	0.0
91	0x00000000	0.0
92	0x00000000	0.0
93	0x00000000	0.0
94	0x00000000	0.0
95	0x00000000	0.0
96	0x00000000	0.0
97	0x00000000	0.0
98	0x00000000	0.0
99	0x00000000	0.0
100	0x00000000	0.0
101	0x00000000	0.0
102	0x00000000	0.0
103	0x00000000	0.0
104	0x00000000	0.0
105	0x00000000	0.0
106	0x00000000	0.0
107	0x00000000	0.0
108	0x00000000	0.0
109	0x00000000	0.0
110	0x00000000	0.0
111	0x00000000	0.0
112	0x00000000	0.0
113	0x00000000	0.0
114	0x00000000	0.0
115	0x00000000	0.0
116	0x00000000	0.0
117	0x00000000	0.0
118	0x00000000	0.0
119	0x00000000	0.0
120	0x00000000	0.0
121	0x00000000	0.0
122	0x00000000	0.0
123	0x00000000	0.0
124	0x00000000	0.0
125	0x00000000	0.0
126	0x00000000	0.0
127	0x00000000	0.0
128	0x00000000	0.0
129	0x00000000	0.0
130	0x00000000	0.0
131	0x00000000	0.0
132	0x00000000	0.0
133	0x00000000	0.0
134	0x00000000	0.0
135	0x00000000	0.0
136	0x00000000	0.0
137	0x00000000	0.0
138	0x00000000	0.0
139	0x00000000	0.0
140	0x00000000	0.0
141	0x00000000	0.0
142	0x00000000	0.0
143	0x00000000	0.0
144	0x00000000	0.0
145	0x00000000	0.0
146	0x00000000	0.0
147	0x00000000	0.0
148	0x00000000	0.0
149	0x00000000	0.0
150	0x00000000	0.0
151	0x00000000	0.0
152	0x00000000	0.0
153	0x00000000	0.0
154	0x00000000	0.0
155	0x00000000	0.0
156	0x00000000	0.0
157	0x00000000	0.0
158	0x00000000	0.0
159	0x00000000	0.0
160	0x00000000	0.0
161	0x00000000	0.0
162	0x00000000	0.0
163	0x00000000	0.0
164	0x00000000	0.0
165	0x00000000	0.0
166	0x00000000	0.0
167	0x00000000	0.0
168	0x00000000	0.0
169	0x00000000	0.0
170	0x00000000	0.0
171	0x00000000	0.0
172	0x00000000	0.0
173	0x00000000	0.0
174	0x00000000	0.0
175	0x00000000	0.0
176	0x00000000	0.0
177	0x00000000	0.0
178	0x00000000	0.0
179	0x00000000	0.0
180	0x00000000	0.0
181	0x00000000	0.0
182	0x00000000	0.0
183	0x00000000	0.0
184	0x00000000	0.0
185	0x00000000	0.0
186	0x00000000	0.0
187	0x00000000	0.0
188	0x00000000	0.0
189	0x00000000	0.0
190	0x00000000	0.0
191	0x00000000	0.0
192	0x00000000	0.0
193	0x00000000	0.0
194	0x00000000	0.0
195	0x00000000	0.0
196	0x00000000	0.0
197	0x00000000	0.0
198	0x00000000	0.0
199	0x00000000	0.0
200	0x00000000	0.0
201	0x00000000	0.0
202	0x00000000	0.0
203	0x00000000	0.0
204	0x00000000	0.0
205	0x00000000	0.0
206	0x00000000	0.0
207	0x00000000	0.0
208	0x00000000	0.0
209	0x00000000	0.0
210	0x00000000	0.0
211	0x00000000	0.0
212	0x00000000	0.0
213	0x00000000	0.0
214	0x00000000	0.0
215	0x00000000	0.0
216	0x00000000	0.0
217	0x00000000	0.0
218	0x00000000	0.0
219	0x00000000	0.0
220	0x00000000	0.0
221	0x00000000	0.0
222	0x00000000	0.0
223	0x00000000	0.0
224	0x00000000	0.0
225	0x00000000	0.0
226	0x00000000	0.0
227	0x00000000	0.0
228	0x00000000	0.0
229	0x00000000	0.0
230	0x00000000	0.0
231	0x00000000	0.0
232	0x00000000	0.0
233	0x00000000	0.0
234	0x00000000	0.0
235	0x00000000	0.0
236	0x00000000	0.0
237	0x00000000	0.0
238	0x00000000	0.0
239	0x00000000	0.0
240	0x00000000	0.0
241	0x00000000	0.0
242	0x00000000	0.0
243	0x00000000	0.0
244	0x00000000	0.0
245	0x00000000	0.0
246	0x00000000	0.0
247	0x00000000	0.0
248	0x00000000	0.0
249	0x00000000	0.0
250	0x00000000	0.0
251	0x00000000	0.0
252	0x00000000	0.0
253	0x00000000	0.0
254	0x00000000	0.0
255	0x00000000	0.0

bn1.running_mean f4 [256]
0	0x00000000	0.0
1	0x00000000	0.0
2	0x00000000	0.0
3	0x00000000	0.0
4	0x00000000	0.0
5	0x00000000	0.0
6	0x00000000	0.0
7	0x00000000	0.0
8	0x00000000	0.0
9	0x00000000	0.0
10	0x00000000	0.0
11	0x00000000	0.0
12	0x00000000	0.0
13	0x00000000	0.0
14	0x00000000	0.0
15	0x00000000	0.0
16	0x00000000	0.0
17	0x00000000	0.0
18	0x00000000	0.0
19	0x00000000	0.0
20	0x00000000	0.0
21	0x00000000	0.0
22	0x00000000	0.0
23	0x00000000	0.0
24	0x00000000	0.0
25	0x00000000	0.0
26	0x00000000	0.0
27	0x00000000	0.0
28	0x00000000	0.0
29	0x00000000	0.0
30	0x00000000	0.0
31	0x00000000	0.0
32	0x00000000	0.0
33	0x00000000	0.0
34	0x00000000	0.0
35	0x00000000	0.0
36	0x00000000	0.0
37	0x00000000	0.0
38	0x00000000	0.0
39	0x00000000	0.0
40	0x00000000	0.0
41	0x00000000	0.0
42	0x00000000	0.0
43	0x00000000	0.0
44	0x00000000	0.0
45	0x00000000	0.0
46	0x00000000	0.0
47	0x00000000	0.0
48	0x00000000	0.0
49	0x00000000	0.0
50	0x00000000	0.0
51	0x00000000	0.0
52	0x00000000	0.0
53	0x00000000	0.0
54	0x00000000	0.0
55	0x00000000	0.0
56	0x00000000	0.0
57	0x00000000	0.0
58	0x00000000	0.0
59	0x00000000	0.0
60	0x00000000	0.0
61	0x00000000	0.0
62	0x00000000	0.0
63	0x00000000	0.0
64	0x00000000	0.0
65	0x00000000	0.0
66	0x00000000	0.0
67	0x00000000	0.0
68	0x00000000	0.0
69	0x00000000	0.0
70	0x00000000	0.0
71	0x00000000	0.0
72	0x00000000	0.0
73	0x00000000	0.0
74	0x00000000	0.0
75	0x00000000	0.0
76	0x00000000	0.0
77	0x00000000	0.0
78	0x00000000	0.0
79	0x00000000	0.0
80	0x00000000	0.0
81	0x00000000	0.0
82	0x00000000	0.0
83	0x00000000	0.0
84	0x00000000	0.0
85	0x00000000	0.0
86	0x00000000	0.0
87	0x00000000	0.0
88	0x00000000	0.0
89	0x00000000	0.0
90	0x00000000	0.0
91	0x00000000	0.0
92	0x00000000	0.0
93	0x00000000	0.0
94	0x00000000	0.0
95	0x00000000	0.0
96	0x00000000	0.0
97	0x00000000	0.0
98	0x00000000	0.0
99	0x00000000	0.0
100	0x00000000	0.0
101	0x00000000	0.0
102	0x00000000	0.0
103	0x00000000	0.0
104	0x00000000	0.0
105	0x00000000	0.0
106	0x00000000	0.0
107	0x00000000	0.0
108	0x00000000	0.0
109	0x00000000	0.0
110	0x00000000	0.0
111	0x00000000	0.0
112	0x00000000	0.0
113	0x00000000	0.0
114	0x00000000	0.0
115	0x00000000	0.0
116	0x00000000	0.0
117	0x00000000	0.0
118	0x00000000	0.0
119	0x00000000	0.0
120	0x00000000	0.0
121	0x00000000	0.0
122	0x00000000	0.0
123	0x00000000	0.0
124	0x00000000	0.0
125	0x00000000	0.0
126	0x00000000	0.0
127	0x00000000	0.0
128	0x00000000	0.0
129	0x00000000	0.0
130	0x00000000	0.0
131	0x00000000	0.0
132	0x00000000	0.0
133	0x00000000	0.0
134	0x00000000	0.0
135	0x00000000	0.0
136	0x00000000	0.0
137	0x00000000	0.0
138	0x00000000	0.0
139	0x00000000	0.0
140	0x00000000	0.0
141	0x00000000	0.0
142	0x00000000	0.0
143	0x00000000	0.0
144	0x00000000	0.0
145	0x00000000	0.0
146	0x00000000	0.0
147	0x00000000	0.0
148	0x00000000	0.0
149	0x00000000	0.0
150	0x00000000	0.0
151	0x00000000	0.0
152	0x00000000	0.0
153	0x00000000	0.0
154	0x00000000	0.0
155	0x00000000	0.0
156	0x00000000	0.0
157	0x00000000	0.0
158	0x00000000	0.0
159	0x00000000	0.0
160	0x00000000	0.0
161	0x00000000	0.0
162	0x00000000	0.0
163	0x00000000	0.0
164	0x00000000	0.0
165	0x00000000	0.0
166	0x00000000	0.0
167	0x00000000	0.0
168	0x00000000	0.0
169	0x00000000	0.0
170	0x00000000	0.0
171	0x00000000	0.0
172	0x00000000	0.0
173	0x00000000	0.0
174	0x00000000	0.0
175	0x00000000	0.0
176	0x00000000	0.0
177	0x00000000	0.0
178	0x00000000	0.0
179	0x00000000	0.0
180	0x00000000	0.0
181	0x00000000	0.0
182	0x00000000	0.0
183	0x00000000	0.0
184	0x00000000	0.0
185	0x00000000	0.0
186	0x00000000	0.0
187	0x00000000	0.0
188	0x00000000	0.0
189	0x00000000	0.0
190	0x00000000	0.0
191	0x00000000	0.0
192	0x00000000	0.0
193	0x00000000	0.0
194	0x00000000	0.0
195	0x00000000	0.0
196	0x00000000	0.0
197	0x00000000	0.0
198	0x00000000	0.0
199	0x00000000	0.0
200	0x00000000	0.0
201	0x00000000	0.0
202	0x00000000	0.0
203	0x00000000	0.0
204	0x00000000	0.0
205	0x00000000	0.0
206	0x00000000	0.0
207	0x00000000	0.0
208	0x00000000	0.0
209	0x00000000	0.0
210	0x00000000	0.0
211	0x00000000	0.0
212	0x00000000	0.0
213	0x00000000	0.0
214	0x00000000	0.0
215	0x00000000	0.0
216	0x00000000	0.0
217	0x00000000	0.0
218	0x00000000	0.0
219	0x00000000	0.0
220	0x00000000	0.0
221	0x00000000	0.0
222	0x00000000	0.0
223	0x00000000	0.0
224	0x00000000	0.0
225	0x00000000	0.0
226	0x00000000	0.0
227	0x00000000	0.0
228	0x00000000	0.0
229	0x00000000	0.0
230	0x00000000	0.0
231	0x00000000	0.0
232	0x00000000	0.0
233	0x00000000	0.0
234	0x00000000	0.0
235	0x00000000	0.0
236	0x00000000	0.0
237	0x00000000	0.0
238	0x00000000	0.0
239	0x00000000	0.0
240	0x00000000	0.0
241	0x00000000	0.0
242	0x00000000	0.0
243	0x00000000	0.0
244	0x00000000	0.0
245	0x00000000	0.0
246	0x00000000	0.0
247	0x00000000	0.0
248	0x00000000	0.0
249	0x00000000	0.0
250	0x00000000	0.0
251	0x00000000	0.0
252	0x00000000	0.0
253	0x00000000	0.0
254	0x00000000	0.0
255	0x00000000	0.0

bn1.running_var f4 [256]
0	0x3f800000	1.0
1	0x3f800000	1.0
2	0x3f800000	1.0
3	0x3f800000	1.0
4	0x3f800000	1.0
5	0x3f800000	1.0
6	0x3f800000	1.0
7	0x3f800000	1.0
8	0x3f800000	1.0
9	0x3f800000	1.0
10	0x3f800000	1.0
11	0x3f800000	1.0
12	0x3f800000	1.0
13	0x3f800000	1.0
14	0x3f800000	1.0
15	0x3f800000	1.0
16	0x3f800000	1.0
17	0x3f800000	1.0
18	0x3f800000	1.0
19	0x3f800000	1.0
20	0x3f800000	1.0
21	0x3f800000	1.0
22	0x3f800000	1.0
23	0x3f800000	1.0
24	0x3f800000	1.0
25	0x3f800000	1.0
26	0x3f800000	1.0
27	0x3f800000	1.0
28	0x3f800000	1.0
29	0x3f800000	1.0
30	0x3f800000	1.0
31	0x3f800000	1.0
32	0x3f800000	1.0
33	0x3f800000	1.0
34	0x3f800000	1.0
35	0x3f800000	1.0
36	0x3f800000	1.0
37	0x3f800000	1.0
38	0x3f800000	1.0
39	0x3f800000	1.0
40	0x3f800000	1.0
41	0x3f800000	1.0
42	0x3f800000	1.0
43	0x3f800000	1.0
44	0x3f800000	1.0
45	0x3f800000	1.0
46	0x3f800000	1.0
47	0x3f800000	1.0
48	0x3f800000	1.0
49	0x3f800000	1.0
50	0x3f800000	1.0
51	0x3f800000	1.0
52	0x3f800000	1.0
53	0x3f800000	1.0
54	0x3f800000	1.0
55	0x3f800000	1.0
56	0x3f800000	1.0
57	0x3f800000	1.0
58	0x3f800000	1.0
59	0x3f800000	1.0
60	0x3f800000	1.0
61	0x3f800000	1.0
62	0x3f800000	1.0
63	0x3f800000	1.0
64	0x3f800000	1.0
65	0x3f800000	1.0
66	0x3f800000	1.0
67	0x3f800000	1.0
68	0x3f800000	1.0
69	0x3f800000	1.0
70	0x3f800000	1.0
71	0x3f800000	1.0
72	0x3f800000	1.0
73	0x3f800000	1.0
74	0x3f800000	1.0
75	0x3f800000	1.0
76	0x3f800000	1.0
77	0x3f800000	1.0
78	0x3f800000	1.0
79	0x3f800000	1.0
80	0x3f800000	1.0
81	0x3f800000	1.0
82	0x3f800000	1.0
83	0x3f800000	1.0
84	0x3f800000	1.0
85	0x3f800000	1.0
86	0x3f800000	1.0
87	0x3f800000	1.0
88	0x3f800000	1.0
89	0x3f800000	1.0
90	0x3f800000	1.0
91	0x3f800000	1.0
92	0x3f800000	1.0
93	0x3f800000	1.0
94	0x3f800000	1.0
95	0x3f800000	1.0
96	0x3f800000	1.0
97	0x3f800000	1.0
98	0x3f800000	1.0
99	0x3f800000	1.0
100	0x3f800000	1.0
101	0x3f800000	1.0
102	0x3f800000	1.0
103	0x3f800000	1.0
104	0x3f800000	1.0
105	0x3f800000	1.0
106	0x3f800000	1.0
107	0x3f800000	1.0
108	0x3f800000	1.0
109	0x3f800000	1.0
110	0x3f800000	1.0
111	0x3f800000	1.0
112	0x3f800000	1.0
113	0x3f800000	1.0
114	0x3f800000	1.0
115	0x3f800000	1.0
116	0x3f800000	1.0
117	0x3f800000	1.0
118	0x3f800000	1.0
119	0x3f800000	1.0
120	0x3f800000	1.0
121	0x3f800000	1.0
122	0x3f800000	1.0
123	0x3f800000	1.0
124	0x3f800000	1.0
125	0x3f800000	1.0
126	0x3f800000	1.0
127	0x3f800000	1.0
128	0x3f800000	1.0
129	0x3f800000	1.0
130	0x3f800000	1.0
131	0x3f800000	1.0
132	0x3f800000	1.0
133	0x3f800000	1.0
134	0x3f800000	1.0
135	0x3f800000	1.0
136	0x3f800000	1.0
137	0x3f800000	1.0
138	0x3f800000	1.0
139	0x3f800000	1.0
140	0x3f800000	1.0
141	0x3f800000	1.0
142	0x3f800000	1.0
143	0x3f800000	1.0
144	0x3f800000	1.0
145	0x3f800000	1.0
146	0x3f800000	1.0
147	0x3f800000	1.0
148	0x3f800000	1.0
149	0x3f800000	1.0
150	0x3f800000	1.0
151	0x3f800000	1.0
152	0x3f800000	1.0
153	0x3f800000	1.0
154	0x3f800000	1.0
155	0x3f800000	1.0
156	0x3f800000	1.0
157	0x3f800000	1.0
158	0x3f800000	1.0
159	0x3f800000	1.0
160	0x3f800000	1.0
161	0x3f800000	1.0
162	0x3f800000	1.0
163	0x3f800000	1.0
164	0x3f800000	1.0
165	0x3f800000	1.0
166	0x3f800000	1.0
167	0x3f800000	1.0
168	0x3f800000	1.0
169	0x3f800000	1.0
170	0x3f800000	1.0
171	0x3f800000	1.0
172	0x3f800000	1.0
173	0x3f800000	1.0
174	0x3f800000	1.0
175	0x3f800000	1.0
176	0x3f800000	1.0
177	0x3f800000	1.0
178	0x3f800000	1.0
179	0x3f800000	1.0
180	0x3f800000	1.0
181	0x3f800000	1.0
182	0x3f800000	1.0
183	0x3f800000	1.0
184	0x3f800000	1.0
185	0x3f800000	1.0
186	0x3f800000	1.0
187	0x3f800000	1.0
188	0x3f800000	1.0
189	0x3f800000	1.0
190	0x3f800000	1.0
191	0x3f800000	1.0
192	0x3f800000	1.0
193	0x3f800000	1.0
194	0x3f800000	1.0
195	0x3f800000	1.0
196	0x3f800000	1.0
197	0x3f800000	1.0
198	0x3f800000	1.0
199	0x3f800000	1.0
200	0x3f800000	1.0
201	0x3f800000	1.0
202	0x3f800000	1.0
203	0x3f800000	1.0
204	0x3f800000	1.0
205	0x3f800000	1.0
206	0x3f800000	1.0
207	0x3f800000	1.0
208	0x3f800000	1.0
209	0x3f800000	1.0
210	0x3f800000	1.0
211	0x3f800000	1.0
212	0x3f800000	1.0
213	0x3f800000	1.0
214	0x3f800000	1.0
215	0x3f800000	1.0
216	0x3f800000	1.0
217	0x3f800000	1.0
218	0x3f800000	1.0
219	0x3f800000	1.0
220	0x3f800000	1.0
221	0x3f800000	1.0
222	0x3f800000	1.0
223	0x3f800000	1.0
224	0x3f800000	1.0
225	0x3f800000	1.0
226	0x3f800000	1.0
227	0x3f800000	1.0
228	0x3f800000	1.0
229	0x3f800000	1.0
230	0x3f800000	1.0
231	0x3f800000	1.0
232	0x3f800000	1.0
233	0x3f800000	1.0
234	0x3f800000	1.0
235	0x3f800000	1.0
236	0x3f800000	1.0
237	0x3f800000	1.0
238	0x3f800000	1.0
239	0x3f800000	1.0
240	0x3f800000	1.0
241	0x3f800000	1.0
242	0x3f800000	1.0
243	0x3f800000	1.0
244	0x3f800000	1.0
245	0x3f800000	1.0
246	0x3f800000	1.0
247	0x3f800000	1.0
248	0x3f800000	1.0
249	0x3f800000	1.0
250	0x3f800000	1.0
251	0x3f800000	1.0
252	0x3f800000	1.0
253	0x3f800000	1.0
254	0x3f800000	1.0
255	0x3f800000	1.0

fc2.weight f4 [256, 256]
0	0x3d8b8da7	0.068141274
1	0x3cd614ea	0.02613302
2	0xbdd7f961	-0.10545612
3	0xbd1be89f	-0.03806364
4	0x3d2321c3	0.03982712
5	0x3d2e488c	0.042549655
6	0x3d007acc	0.03136711
7	0xbd8020e6	-0.06256275
8	0x3d4b9fc7	0.049712922
9	0xbd5490fe	-0.051896088
10	0x3d81ef6e	0.06344496
11	0x3dd69759	0.10478086
12	0xbe9fd106	-0.3121416
13	0x3dcbdb5c	0.09953949
14	0x3dd93cbe	0.10607289
15	0x3d8567f7	0.0651397
16	0xbca0cba0	-0.019628346
17	0xbc61ea98	-0.013788842
18	0x3d3afe18	0.04565248
19	0xbcc17d03	-0.02361918
20	0x3dbf8dd4	0.093532234
21	0xbd948777	-0.072524
22	0xbc427195	-0.0118679
23	0xbe0f01b7	-0.13965498
24	0xbd04deb5	-0.032438952
25	0xbd4278a8	-0.047478348
26	0xbca45bda	-0.02006333
27	0x3d9a5f19	0.0753767
28	0xbddb8624	-0.10718945
29	0xbcdf4651	-0.02725521
30	0xbb9c965c	-0.0047786664
31	0x3991e7de	0.0002782931
32	0xbd434677	-0.047674622
33	0xbd84189b	-0.064500056
34	0xbd5054a9	-0.05086199
35	0x3d7efdb0	0.062253654
36	0x3d98c264	0.07458952
37	0x3dbea406	0.09308629
38	0x3d6516f0	0.055930078
39	0xbd303229	-0.043016586
40	0x3d171815	0.0368882
41	0x3da1cbbc	0.079001874
42	0x3da085c0	0.07838011
43	0x3da3da27	0.08000594
44	0xbd7732fd	-0.06035136
45	0xbe8596d3	-0.26091632
46	0xbe3bcdf6	-0.18340287
47	0xbc3874af	-0.011258288
48	0xbba86179	-0.005138573
49	0xbe397511	-0.18111064
50	0x3dc26e41	0.094936855
51	0xbdb77daf	-0.08959519
52	0xbc516788	-0.012781031
53	0x3d3e1782	0.046409138
54	0xbcdc2564	-0.026873298
55	0xbe20f92f	-0.15720056
56	0xbe61d23a	-0.22052851
57	0x3d2e23de	0.042514674
58	0x3b833f8e	0.004005379
59	0xbe2947e7	-0.16531335
60	0xbd40b017	-0.047042932
61	0xbc99508d	-0.018715167
62	0xbd0c188e	-0.034203105
63	0xbb1db222	-0.0024062474
64	0x3d68199c	0.056665048
65	0x3d7ce398	0.061740488
66	0x3d6d92b9	0.058001254
67	0x3da06a10	0.0783273
68	0x3d897cda	0.06713267
69	0x3c4534ce	0.012036515
70	0x3b8172a4	0.003950434
71	0xbde6f2d6	-0.11276786
72	0x3d32c65a	0.043646194
73	0x3d8bbf70	0.06823623
74	0x3d332906	0.043740295
75	0x3d2aac65	0.041668314
76	0xbd122d84	-0.03568794
77	0xbe0054fb	-0.12532417
78	0x3dc98f34	0.09841767
79	0xbd4fb75c	-0.050711975
80	0xbd156609	-0.03647426
81	0x3dd86b5a	0.10567351
82	0xbe6924cf	-0.22767948
83	0xbd3b21e1	-0.045686606
84	0x3e536365	0.20643385
85	0x3da722e5	0.081609525
86	0xbe83fa2d	-0.25776806
87	0x3dbede9a	0.09319802
88	0xbce7b9c1	-0.028286817
89	0xbde04041	-0.109497555
90	0xbd1f445f	-0.038883563
91	0xbb80247a	-0.0039105983
92	0xbde30107	-0.1108418
93	0xbeb34a41	-0.3501759
94	0x3cb24827	0.02176292
95	0xbd41e39b	-0.047336202
96	0xbe36dfc0	-0.17858791
97	0xbe4851c4	-0.19562441
98	0xbd8ef8ed	-0.069810726
99	0x3db57ede	0.088620886
100	0xbd88aef6	-0.06673996
101	0x3d09ba1c	0.033624753
102	0xbd518cb3	-0.05115957
103	0x3cba4be5	0.022741267
104	0x3cbbf136	0.022942167
105	0xbd9dbd90	-0.07702172
106	0x3bf10807	0.0073556933
107	0x3d11eca3	0.035626065
108	0x3b7483e7	0.0037310065
109	0x3d62e80c	0.05539708
110	0xbda7d914	-0.08195701
111	0x3cdd7a2f	0.0270358
112	0x3d270d42	0.040784128
113	0xbccc9563	-0.024973577
114	0xbd779d35	-0.06045266
115	0xbd7a53a8	-0.061114937
116	0xbe905e04	-0.28196728
117	0x3c81a07c	0.015823595
118	0xbcf199a2	-0.029492203
119	0xbd9a97fb	-0.07548519
120	0x3d31c9f0	0.043405473
121	0xbe00fe84	-0.1259709
122	0xbd72b952	-0.059258766
123	0xbb908359	-0.004410189
124	0xbe2e0668	-0.16994631
125	0x3d9785fd	0.07398603
126	0xbcedc140	-0.029022813
127	0x3e1d6122	0.15369084
128	0xbd235592	-0.039876528
129	0xbd58d9ac	-0.052941963
130	0xbc576da4	-0.013148699
131	0xbce7e0f6	-0.028305512
132	0xbe67f150	-0.22650647
133	0xbd6cd1f9	-0.057817433
134	0xbd0a4f3f	-0.03376698
135	0x3c9fbc56	0.019498985
136	0xbddaaf13	-0.10677924
137	0x3d84fb67	0.06493264
138	0x3d795e4c	0.060880944
139	0x3e03b1c0	0.12860775
140	0x3d974bcd	0.07387505
141	0xbd212c87	-0.039349105
142	0xba29811c	-0.0006466077
143	0xbe351b3a	-0.17686167
144	0x3dc1422b	0.09436449
145	0x3d3e03f9	0.046390507
146	0xbd0ad24c	-0.03389196
147	0x3db6bf2a	0.089231804
148	0x3c845903	0.016155725
149	0xbe4e6ba9	-0.20158257
150	0xbd7dbb35	-0.061946113
151	0xbd8ad608	-0.067791045
152	0x3b989d16	0.004657398
153	0xbd23176a	-0.03981725
154	0xbe2c33d4	-0.16816646
155	0xbc4d0616	-0.012513658
156	0xb99b524a	-0.00029625214
157	0xbc69b372	-0.0142639745
158	0x3d0ab181	0.033860687
159	0xbd397b15	-0.045283396
160	0x3d8b009a	0.06787224
161	0xbd8a6cac	-0.06759009
162	0xbcf469d5	-0.02983562
163	0xbd2ca18e	-0.042146258
164	0x3ce93176	0.028465968
165	0xbb52ace8	-0.0032146517
166	0x3e8b7745	0.27239433
167	0x3d6db6b3	0.058035564
168	0x3d3cb8e1	0.04607475
169	0xbca3f5b2	-0.020014618
170	0x3e7b691d	0.24551816
171	0xbe42d16b	-0.19025199
172	0xbd35835d	-0.04431473
173	0x3b0c00e6	0.002136284
174	0xbd7fc840	-0.062446833
175	0xbcad2329	-0.02113493
176	0x3c8ff081	0.017570736
177	0x3d88d11f	0.06680512
178	0xbe5e97b4	-0.21737558
179	0xbe285904	-0.16440207
180	0x3d7233ed	0.05913155
181	0x3ce65f69	0.028121667
182	0xbd8b79f1	-0.06810368
183	0x3c67a4a8	0.014138378
184	0x3ca7f351	0.020501764
185	0xbdd918a7	-0.10600405
186	0xbd974045	-0.07385305
187	0xbe1bf386	-0.15229616
188	0xbd91eb23	-0.07124927
189	0xbd7fee40	-0.062483072
190	0x3da600eb	0.08105644
191	0x3d3ede78	0.04659888
192	0xbe1d5f4e	-0.15368387
193	0x3a6e0768	0.0009080083
194	0x3d386057	0.04501375
195	0x3da82ee0	0.08212066
196	0x3eed68c2	0.46368986
197	0x3cb32a8d	0.021870876
198	0xbe15f77e	-0.14645192
199	0xbd43843c	-0.04773353
200	0x3d9ff799	0.078108974
201	0xbd232735	-0.039832313
202	0x3df16d54	0.11788431
203	0xbd8418ca	-0.06450041
204	0x3c6c4db9	0.014422827
205	0x3d24e2d8	0.040255398
206	0xbe49732a	-0.19672838
207	0x3d03f87b	0.03221939
208	0x3bcf5c8b	0.0063281707
209	0xbca003ef	-0.019533126
210	0x3d0249f9	0.031808827
211	0xbcab766b	-0.02093049
212	0x3de057ab	0.10954221
213	0xbe3357de	-0.17513987
214	0xbe061ff0	-0.1309812
215	0x3da31e38	0.07964748
216	0xbbcfdcaf	-0.006343446
217	0xbe104f28	-0.14092696
218	0xbcfc3c8d	-0.030790592
219	0xb93127ac	-0.00016894814
220	0xbe369db1	-0.17833592
221	0x3d73b07c	0.05949448
222	0xbc71579b	-0.014730359
223	0xbc516898	-0.012781285
224	0xbc552e18	-0.013011478
225	0xbda50f82	-0.080595985
226	0xbd254030	-0.040344417
227	0xbdabcade	-0.08388303
228	0xbcc02796	-0.023456376
229	0xbc7a5ea6	-0.015281355
230	0x3d2727e4	0.040809527
231	0xbe1decd6	-0.15422377
232	0x3cef9405	0.029245386
233	0xbc8a5b01	-0.016889097
234	0x3dd8f134	0.10592881
235	0xbc63df55	-0.013908227
236	0xbdffbb42	-0.124868885
237	0xbda18915	-0.078874744
238	0xbdae77e2	-0.085189596
239	0xbcad84d8	-0.021181509
240	0xbce2101b	-0.02759557
241	0x3c381f01	0.011237861
242	0x3d35e027	0.04440322
243	0x3b5c7e55	0.0033644636
244	0xbe2e076f	-0.16995023
245	0xbd87212e	-0.065981254
246	0xbdc20f83	-0.09475615
247	0xbdd4af12	-0.103849545
248	0xbc542aad	-0.012949628
249	0xbd0ae510	-0.033909857
250	0xbde56724	-0.11201313
251	0xbe5610ff	-0.20904921
252	0xbdc5635f	-0.09638094
253	0x3de65a4b	0.11247691
254	0x3a4cb021	0.00078082277
255	0x3cbfdfd2	0.023422156

fc2.bias f4 [256]
0	0xbb6f7fbe	-0.0036544646
1	0x3dbf2788	0.09333712
2	0x3b16ec0d	0.002302888
3	0xbcae6ed6	-0.021293085
4	0xbd62a5ea	-0.05533401
5	0xbd35b6b4	-0.044363692
6	0xb8ab6a35	-8.173698e-05
7	0x3d82acce	0.06380616
8	0x3d0c329e	0.03422796
9	0x3d84894e	0.06471501
10	0x3d6c362b	0.057668846
11	0xbceaf7ce	-0.028682616
12	0x3d81fb1e	0.06346725
13	0x3d66f51c	0.0563861
14	0x3cd6fea4	0.026244469
15	0xbc8e1e39	-0.017348396
16	0xbb52f964	-0.0032192105
17	0xbc210d6f	-0.009829863
18	0x3d2d328a	0.042284526
19	0xbb729a86	-0.0037018373
20	0x3d29a937	0.04142114
21	0xbb3014b0	-0.00268678
22	0xbd16120a	-0.036638297
23	0x3d970708	0.07374388
24	0x3d6cc5e2	0.057805903
25	0xbdd4300d	-0.103607275
26	0x3e1b398e	0.15158674
27	0x3e1c7d30	0.1528213
28	0x3de01e93	0.109433316
29	0x3c8a43d8	0.016878054
30	0xba2e72a2	-0.0006654655
31	0xbe04eb70	-0.12980437
32	0x3d9a6bb2	0.075400725
33	0xbc8c396c	-0.017117225
34	0x3a573885	0.0008210021
35	0xbcdfadad	-0.027304495
36	0x3d896f38	0.067106664
37	0xbd31afb0	-0.04338044
38	0xbd2a04e7	-0.04150858
39	0x3da6ba02	0.08140947
40	0xbd005821	-0.031334046
41	0x3cdf3d81	0.027251007
42	0xbd5c67e9	-0.053810034
43	0xbd965957	-0.07341259
44	0x3e0b5756	0.13607535
45	0xbd224ef9	-0.039626095
46	0xbdb8932b	-0.09012445
47	0x3ce10271	0.027466984
48	0x3d7150fc	0.058915123
49	0x3da3708e	0.079804525
50	0x3cd4ee90	0.025992662
51	0x3e017040	0.12640476
52	0x3d21074d	0.039313603
53	0xbd5b342b	-0.053516548
54	0xbc208730	-0.009797856
55	0xbd2fa23e	-0.042879336
56	0x3d8acf87	0.06777864
57	0x3e177c5b	0.14793532
58	0x3dddd303	0.10831263
59	0xbd2c1043	-0.042007696
60	0xbc7746a3	-0.015092525
61	0xbc4d8822	-0.012544664
62	0xbcfb76e8	-0.030696347
63	0xbd93f6f4	-0.07224837
64	0xbd0347da	-0.032050945
65	0xbd93d737	-0.07218783
66	0xbbc54019	-0.006019604
67	0x3cbad3ef	0.022806136
68	0xbb5a26e0	-0.0033287331
69	0xbbdcde19	-0.0067403433
70	0xbc04bb69	-0.008101323
71	0x3c62ac66	0.013835048
72	0xbd379129	-0.04481617
73	0xbdb2274d	-0.08698902
74	0x3d647021	0.055770997
75	0xbe3d2085	-0.18469436
76	0x3c6e6fb4	0.014552999
77	0x3e1b5c19	0.15171851
78	0xbd606adb	-0.054789405
79	0x3d83b95f	0.06431841
80	0xbcb4c832	-0.022068117
81	0xbc003be7	-0.007826782
82	0xbbaaf8aa	-0.0052176313
83	0x3d86a983	0.065753005
84	0x3e01e3bb	0.12684529
85	0xbd1d5264	-0.038408652
86	0xbdd88f64	-0.105742246
87	0x3a8fbbdc	0.0010966021
88	0xbd5c2f7b	-0.05375622
89	0xbde3a435	-0.111153044
90	0xbd8f70e8	-0.07003957
91	0x3dbab207	0.09115987
92	0xbe2b4f1d	-0.16729398
93	0x3dc86613	0.09785094
94	0xbd871799	-0.06596298
95	0xbd408e75	-0.047010858
96	0xbd29ba1b	-0.04143725
97	0x3da4a9be	0.08040188
98	0x3baa3bf5	0.0051951357
99	0xbcbb27d9	-0.02284615
100	0x3da48159	0.080324836
101	0x3d5a6119	0.053315256
102	0x3d47b3b9	0.04875538
103	0x3ce24e71	0.027625294
104	0x3d9eff1c	0.07763502
105	0x3dac6d65	0.08419303
106	0x3d1c8117	0.038209047
107	0xbd1ad948	-0.03780487
108	0xbd25a47c	-0.040440068
109	0xbcf7851d	-0.03021484
110	0x3d723190	0.059129298
111	0x3d9e9b87	0.07744508
112	0xbd58feb4	-0.05297728
113	0x3d996991	0.07490838
114	0xbd781192	-0.06056363
115	0x3d18e531	0.03732795
116	0xbc097931	-0.008390711
117	0xbc872a63	-0.016499704
118	0x3d5b041b	0.053470712
119	0x3d4bddc7	0.04977205
120	0x3d1b84f1	0.03796858
121	0xbc7640aa	-0.015030066
122	0xbd9fe836	-0.078079626
123	0x3d7d9582	0.06191016
124	0x3c358c6c	0.011080842
125	0xbd6c544f	-0.05769759
126	0xbbe7c369	-0.0070728553
127	0x3d70b4e7	0.058766272
128	0x3c772044	0.015083376
129	0xbd3cf50d	-0.046132136
130	0xbd9ca7f0	-0.07649219
131	0x3b8a355a	0.004217786
132	0x3d9fa0ef	0.077943675
133	0xbd08b4ae	-0.033375435
134	0x3df41d3d	0.11919639
135	0xbd04a346	-0.032382272
136	0x3de6e2fb	0.11273762
137	0x3d70f138	0.058823794
138	0xbc6b5a5c	-0.014364805
139	0xbc85fbe6	-0.016355466
140	0xbe36c5f6	-0.17848954
141	0x3d7d9de4	0.061918154
142	0x3ccc0fe2	0.024909917
143	0x3bad1209	0.005281691
144	0xbdf614b8	-0.120156705
145	0xbd5a1238	-0.05324003
146	0xbdec24d5	-0.11530463
147	0xbd265a24	-0.04061331
148	0x3cc67860	0.024227321
149	0xbd344995	-0.044015486
150	0xbd5a2c9a	-0.05326519
151	0x3ce98a13	0.028508222
152	0xbcf2cbf9	-0.029638277
153	0xbd052433	-0.032505225
154	0x3dabc99a	0.08388062
155	0xbc964276	-0.018342238
156	0x3dbc77bb	0.09202524
157	0x3cd01d05	0.025404463
158	0x3c1932c1	0.00935048
159	0x3d0aef56	0.033919655
160	0x3e2436c8	0.16036522
161	0x3d2fcd34	0.042920306
162	0xbd866f98	-0.065642536
163	0xbbd11601	-0.006380797
164	0xbd042dbb	-0.032270174
165	0x3d01a57b	0.031651955
166	0x3dd5da45	0.10442022
167	0xbddd05a3	-0.10792091
168	0x3da67365	0.081274785
169	0xbda27d68	-0.079340756
170	0xbc231fb7	-0.009956292
171	0xbcf75b12	-0.030194793
172	0xbcba03c4	-0.022706874
173	0xbd8665f0	-0.06562412
174	0x3d89c442	0.06726886
175	0xbcdda916	-0.027058166
176	0x3d27884f	0.04090148
177	0x3d6a52b9	0.057207797
178	0xbd6bcb86	-0.057567142
179	0x3d022b37	0.031779494
180	0x3d2b8e31	0.04188365
181	0xbc641f25	-0.013923441
182	0xbd83e9ef	-0.06441104
183	0x3d5254d6	0.051350437
184	0xbda3850a	-0.079843596
185	0xbd18c96e	-0.037301473
186	0x3da1c3d0	0.078986764
187	0x3db16288	0.086613715
188	0x3daf72fb	0.08566853
189	0xbd36a631	-0.044592086
190	0x3cab2891	0.020893367
191	0xbcd4f7f3	-0.025997138
192	0xbc00b8e6	-0.007856583
193	0x3ae95f65	0.0017804919
194	0x3d0d8f56	0.034560524
195	0xbd21f118	-0.039536566
196	0xbd30e039	-0.043182585
197	0x3cfbe04d	0.030746603
198	0xbda8e8af	-0.08247506
199	0xbdd8be58	-0.1058318
200	0xbd505d15	-0.05087002
201	0xbc769a7a	-0.0150514785
202	0x3d4247f8	0.047431916
203	0xbd88122c	-0.06644091
204	0xbe0cbec0	-0.1374464
205	0xbddbdeba	-0.10735841
206	0xbddab999	-0.10679931
207	0xbcb6ea8e	-0.022328641
208	0xbd08c66f	-0.033392366
209	0xbcabecef	-0.020987002
210	0x3a86d4a7	0.0010286764
211	0xbcb6efe6	-0.02233119
212	0xbd9aacd6	-0.07552497
213	0x3c91cfe1	0.01779932
214	0xbe06be20	-0.13158464
215	0x3b619e48	0.0034426618
216	0x3c5e5745	0.013570611
217	0xbe1fbbdd	-0.15599008
218	0xbd5c84af	-0.053837474
219	0x3d0517d2	0.03249342
220	0xbd095d35	-0.033536155
221	0x3dd7520a	0.105136946
222	0x3e33cc32	0.17558363
223	0xbda457e4	-0.08024576
224	0xbd870faa	-0.065947846
225	0xbd97f678	-0.07420057
226	0x3d4e4eaa	0.05036799
227	0xbdc9604b	-0.098328196
228	0x3d9667f8	0.07344049
229	0xbce7df71	-0.028304787
230	0xbd173d7e	-0.036923878
231	0x3da352be	0.07974766
232	0xbbf07c37	-0.0073390263
233	0xbca8d1a7	-0.020607783
234	0x3dbf0cfa	0.09328647
235	0x3bbaef82	0.005704821
236	0x3d15e7a3	0.03659786
237	0xbdd4429a	-0.10364266
238	0x3beb52f1	0.0071815182
239	0x3cbb2f77	0.022849781
240	0x3cd58e7b	0.026068917
241	0x3e0127d1	0.12612845
242	0xba91597a	-0.0011089288
243	0xbd32ff05	-0.043700237
244	0x3cd80699	0.026370334
245	0x3ced2456	0.02894799
246	0xbce15fcd	-0.027511502
247	0xbcf4b645	-0.02987207
248	0xbdf2f6db	-0.1186349
249	0x3d349ab9	0.044092868
250	0xbd0e4488	-0.034733325
251	0x3d0e522a	0.034746327
252	0x3dbcbcc8	0.09215695
253	0x3d743512	0.059620924
254	0xbdf36fd4	-0.11886564
255	0xbd3f10f4	-0.046647027
