models/Prob_Noise_DeepNet_BufferPlus_Learn_FreqMin_BatchNorm_08/agent_1_critic.pth (torch_old, 97375 bytes, 9 tensors)

fcs1.weight f4 [128, 52]
000000 fd 26 33 3e 57 e1 54 bf 8c bb 7e 3b e1 8d 9c 3d
       0.17495342 -0.8315634 0.003886911 0.07644249
000010 09 f3 ae bf d0 9a 26 3f 3a a7 81 3b 10 59 42 3d
       -1.3667918 0.65079975 0.0039567025 0.047448218
000020 f7 40 6c 3e e2 2a cc be 20 f9 f9 3c bd fc c7 bc
       0.23071657 -0.39876467 0.0305143 -0.024412507
000030 de 03 f8 bf df 5c 55 3c 8b ab 17 bd 9c 0a 6d bd
       -1.937618 0.0130226305 -0.03702883 -0.057871446
000040 03 e3 9d 3e b4 0c ad be 3c 80 16 3d bc 7b 41 3d
       0.3083726 -0.33798754 0.036743388 0.047237143
000050 ac b5 db bf 88 75 e2 be 46 13 0d bc 0c 23 3f bd
       -1.7164817 -0.44230294 -0.008610552 -0.046664283
000060 3d 20 b0 bd 62 ff 9c 3e 1a e9 07 bb 17 33 e1 bb
       -0.08599899 0.30663592 -0.0020738305 -0.0068725455
000070 ed 40 aa 3f a2 93 2e 3f d9 dd f1 bb 72 91 3a bc
       1.3301064 0.6819402 -0.0073811826 -0.011387216
000080 f9 4e b9 3c b1 a0 e3 3d b4 f2 87 3d 84 43 c2 bd
       0.022620665 0.11114634 0.06638089 -0.09485534
000090 b6 ba 03 40 80 d0 07 bd 91 2d a6 bd 39 02 1d be
       2.058271 -0.033157825 -0.0811416 -0.15332879
0000a0 69 2b 97 3d ae 11 b4 bc 2f 8c b2 3d 85 fc 5d be
       0.07381327 -0.021981087 0.08718144 -0.2167836
0000b0 58 62 d9 3f e6 d4 e8 be 95 24 86 bc d0 90 26 be
       1.6983137 -0.4547493 -0.016374866 -0.16266179
0000c0 4e ef 92 3e 87 4a 0b 3d 22 db 2b 40 1c 37 0c 3f
       0.286982 0.03400662 2.6852498 0.5477159
0000d0 cd 2d 26 3f 8d b5 a1 be 9f 8c ad bd c2 59 c5 3d
       0.64913636 -0.31583825 -0.08474087 0.096362606
0000e0 02 a5 2f be 68 f1 8e bf 73 44 6c 3c 41 c9 14 3c
       -0.17152789 -1.1167421 0.014420616 0.009081186
0000f0 e9 72 0a 3f 54 ca ab be cc 19 3a bc 8e bf 2d be
       0.5408159 -0.33552802 -0.0113586895 -0.16967604
000100 f3 a5 37 3e 10 5a a8 bf 68 bb 76 bd 5a 0a 6b be
       0.17934398 -1.3152485 -0.06023732 -0.22953168
000110 df dd 42 3f 1f ec fb be bb af 25 be 75 c4 20 3f
       0.761198 -0.49203584 -0.16180317 0.6279977
000120 3f 5d b5 3e a6 dc a9 bf fb ec 42 be d3 96 1b 3f
       0.35422704 -1.3270462 -0.19035713 0.60777014
000130 c2 6d e0 3f 80 7d ac 3f d6 f4 ba bd 8a 6f ea 3e
       1.7533495 1.34758 -0.0912873 0.45788223
000140 41 ab 45 3e fe f1 75 bf 91 c0 ad bd bc 8f f3 3e
       0.1930361 -0.96072376 -0.08483995 0.47570598
000150 37 e5 c9 3f bf 3a fa 3f 7d 7d 13 be 21 15 56 3e
       1.5773076 1.9549178 -0.14403339 0.20906498
000160 26 6e 03 be 4a 76 b5 bf d8 47 83 bd b4 93 80 3e
       -0.12834987 -1.4176724 -0.064101875 0.2511269
000170 d9 36 03 40 fd 63 b6 3f 93 3f 9c 3d ab 7e 6c bf
       2.0502226 1.4249264 0.07629313 -0.9238078
000180 c4 7e 8d be 8c d1 b1 bf 87 4b 81 bd 9b a6 78 bf
       -0.27635777 -1.3892074 -0.06313234 -0.9712922
000190 5c c6 eb 3f 12 53 fb 3e 9e 87 ab 3d af d4 8a 3f
       1.841991 0.49086815 0.08375476 1.0846156
0001a0 61 16 e2 bc e5 75 d1 3f a8 91 b0 bb bf 71 db 3c
       -0.027598562 1.6364104 -0.0053884573 0.026787637
0001b0 4e d8 04 bf 1a fa b9 3f bd 6f 0e bc 80 6f 9a 3b
       -0.51892555 1.452945 -0.008693633 0.004712999
0001c0 d9 1b f2 3d 42 37 d8 3f d4 5e 43 3c 5a d6 40 3d
       0.11821718 1.6891863 0.011924464 0.04707942
0001d0 c0 48 a7 3e 33 16 d6 3e d3 cb ea bc 91 f3 e0 3c
       0.3267269 0.41813812 -0.028661644 0.027459892
0001e0 b2 b1 24 3f 3d c8 1d 40 1f ea 9b 3d 2e 2d 8a 3f
       0.6433364 2.4653466 0.076130144 1.0795038
0001f0 fe 0c 44 3f 11 38 bc bf 9b a8 ee bc 23 62 87 3f
       0.76582325 -1.470461 -0.029133132 1.0576824
000200 14 ee fe 3e 31 79 a0 3f 3a 01 b5 bd 4c 79 17 be
       0.49791014 1.2536985 -0.088381246 -0.14792365
000210 a2 64 0a 3f e4 1b c5 3f f5 79 f0 3b 7d 74 54 bb
       0.54059803 1.5399137 0.007338757 -0.0032418065
000220 cd 66 a9 3f 70 da b6 3f 37 88 5c bd 98 4d e6 3c
       1.3234497 1.4285412 -0.053840842 0.028113171
000230 72 76 6c be 35 08 b4 3e cb fa c3 bc ea 3c fd bb
       -0.23092058 0.3516251 -0.023923298 -0.007728209
000240 95 04 e1 3f 61 97 f5 3f 82 c3 98 bb 81 1b 95 3f
       1.7579523 1.9186822 -0.004661978 1.1649019
000250 12 dd 69 bf 6d 53 bf bf 8a 21 ac bc b7 67 8f 3f
       -0.9135295 -1.4947335 -0.021012086 1.1203526
000260 d9 02 d3 be 9f 33 96 3e 9f d0 0b be f8 11 aa be
       -0.4121311 0.2933626 -0.13653801 -0.33216834
000270 ce d4 e8 3d 71 8b 2f bd 8d 6e 8c bd 48 88 41 3d
       0.11368714 -0.04285759 -0.068570234 0.04724911
000280 a2 3f ff 3e 69 fb a3 be 99 8d 29 3d 1e af a5 bd
       0.49853235 -0.32027748 0.041394804 -0.080900416
000290 aa 53 2e 3f ab 41 ee be 78 2c 69 bc 64 ce 6c bc
       0.6809641 -0.46534476 -0.014231794 -0.014453504
0002a0 fc 26 e6 be ed da 7b 3e 9b c6 c2 bd e7 ce 82 bc
       -0.44951618 0.24595232 -0.09510537 -0.0159678
0002b0 4c d1 be 3f 4a 5c 13 bf 1d 8d 1e 3d 2d f2 07 3c
       1.4907622 -0.57562697 0.038708795 0.008297485
0002c0 3c f2 03 c0 ea df 2f bf ce 63 73 bd 18 fc ee 3c
       -2.0616598 -0.6870104 -0.059421353 0.029172942
0002d0 3e 5c 5f bf 5b 02 43 3f 5a f5 d1 bc e1 53 ae 3b
       -0.87250125 0.7617547 -0.025629688 0.0053200577
0002e0 68 7b 00 bf db e8 f5 be 3a 3f e7 3b 5d 6a 1b bd
       -0.50188303 -0.48029217 0.0070570977 -0.037943233
0002f0 42 1a 63 3e 1a 22 1a 3f aa f5 fb bc 2b 7f de bd
       0.22177985 0.60208285 -0.03075679 -0.10864099
000300 f8 b3 f7 3e 86 38 25 3e 87 d2 e8 bd 18 13 82 bd
       0.48379493 0.16134843 -0.1136828 -0.06351298
000310 26 f0 8e 3f b6 e4 d6 3d c9 4a c1 bd 22 41 c6 3a
       1.1167037 0.10492842 -0.09438092 0.0015125612
000320 3e e1 02 40 60 01 3f bf c8 a3 f0 bc ed 90 02 3d
       2.0449977 -0.74611473 -0.029374972 0.031876493
000330 4c c1 0d 3f fb 0e 84 bf 98 fb fd be 7b 22 a1 3d
       0.5537307 -1.0317072 -0.49606013 0.07867905
000340 a6 4c 23 3f 5b e8 80 3f 09 39 ad bd 0c f8 2c bd
       0.6378883 1.0070909 -0.08458144 -0.042228743
000350 f0 15 fa 3d bb a3 47 bf 10 be fd 3c 80 4b 77 bb
       0.122112155 -0.7798421 0.030974418 -0.003773421
000360 92 1c 0c 3f 9c 31 5b 3f 79 71 4d bb 58 1e c4 3d
       0.54731095 0.8562257 -0.0031348153 0.095761
000370 bc 39 10 3e 94 73 69 bf 0a a0 48 bd b6 70 47 3d
       0.14084524 -0.91191983 -0.04898075 0.048691474
000380 27 1c 34 3f 5e a5 5e 3f a4 1d e9 bd dd 9d 4d be
       0.7035546 0.8697108 -0.113826066 -0.20079751
000390 52 3d b7 3d 4c 61 8b bf 67 68 c4 bc 01 fe 80 be
       0.08947243 -1.0889068 -0.023975564 -0.2519379
0003a0 e0 66 83 3f 6a 88 a0 3d 40 33 a1 bd f5 97 8d 3e
       1.026577 0.07838519 -0.07871103 0.27654997
0003b0 e5 30 19 be ce 1c 4e bf fe 29 43 be df 4f 19 3e
       -0.14960058 -0.805127 -0.19058987 0.14971875
0003c0 73 66 84 3f 02 76 e9 3e a2 8e 55 3d 25 9d bc 3e
       1.0343765 0.45597845 0.05213798 0.36838642
0003d0 37 1d 4d be ac ce 66 bf 8a 8e 1a 3c 33 ae bb 3e
       -0.20030676 -0.90159106 0.009433398 0.3665634
0003e0 70 b1 7a 3f 58 55 ff 3e e9 ec 64 bb ce 98 d6 bd
       0.97927 0.498698 -0.0034931249 -0.10478364
0003f0 83 a8 d9 3c ab c4 91 bf 18 9a 06 3d 66 ff 7e be
       0.02656961 -1.1388143 0.0328618 -0.24902114

fcs1.bias f4 [128]
000000 36 86 e1 3e 29 25 34 bf 3b 99 23 bf 87 db 5d c0
       0.44047707 -0.703692 -0.63905686 -3.466524
000010 ea fc 07 bf d6 f2 04 be 7d 1a 35 bf dd fd 94 bf
       -0.5312029 -0.1298326 -0.7074354 -1.1639973
000020 2d 53 4f bf 35 d5 9a bf 76 3a 87 bf 6a 6e ff bf
       -0.8098629 -1.2096316 -1.0564716 -1.9955571
000030 7b 3f 93 be 6d 26 94 bf 67 8b 93 be 0b 80 95 bf
       -0.2875937 -1.1574227 -0.28817293 -1.1679701
000040 95 00 c5 bf 25 2d c6 bf fb 29 89 c0 0e be c1 bf
       -1.5390803 -1.5482527 -4.2863746 -1.5136125
000050 30 f1 a7 bf d5 d6 97 bf a9 ff 86 bf c2 e8 59 bf
       -1.312048 -1.1862437 -1.0546771 -0.85120785
000060 00 b7 f9 bf 6b a7 4a be da 34 cb bf f9 57 8a be
       -1.9508972 -0.19790427 -1.5875504 -0.27020243
000070 03 22 94 bf 08 99 ba bf 25 66 63 bf ee 62 cb bf
       -1.157288 -1.4577951 -0.88827735 -1.5889566
000080 2e 55 f4 be f3 c3 14 bf cb d2 ac bf 60 e4 eb be
       -0.47721237 -0.58111495 -1.3501829 -0.46072674
000090 d3 55 fb be dc e0 8f be 97 8b 94 bf 98 46 84 c0
       -0.49088916 -0.28101242 -1.16051 -4.1336174
0000a0 92 63 cd be a4 f3 55 bf 29 da 67 be b2 76 21 bf
       -0.4011503 -0.8357489 -0.22641815 -0.6307174
0000b0 bb ee b5 be a3 ae 78 bf ab de 28 bf 54 16 36 bf
       -0.355337 -0.97141474 -0.65964764 -0.7112782
0000c0 9b bb ac bf 50 7f a4 bf 31 3b 9d bf 21 ff 00 c0
       -1.3494753 -1.2851353 -1.2283689 -2.0155718
0000d0 6f 77 3c bf 85 5c 69 bf 7f fc de bf 70 15 5c bf
       -0.7361974 -0.911568 -1.7420806 -0.8597021
0000e0 ca 1e 08 bf 20 be 98 bf 35 76 7e bf 3e 43 18 bf
       -0.5317198 -1.1933022 -0.9939912 -0.59477603
0000f0 cd a0 9e bf 14 ef 15 bf f6 83 8b bf fe 5e 2b bf
       -1.2392823 -0.5856793 -1.0899646 -0.6694182
000100 6e 21 75 bf 5e 47 b9 bf 3a 97 ed 3f e7 c2 29 bf
       -0.95754135 -1.4474905 1.8561776 -0.6631302
000110 7e af 04 c0 3e 09 94 bf 8f 65 0c bf 75 ba 67 bf
       -2.0732112 -1.156532 -0.54842466 -0.90518886
000120 98 79 cc bf fa 09 96 3e 58 2b 9a bf ae af 90 c0
       -1.5974607 0.29304487 -1.2044477 -4.5214453
000130 bd 67 46 bf 14 95 59 bf 75 67 b5 bf 4a ec f7 bd
       -0.7750204 -0.849931 -1.4172198 -0.121056154
000140 8d f4 2c bf ea 7f 19 bf f0 40 40 c0 f1 16 84 bd
       -0.67560655 -0.59960806 -3.0039635 -0.06449688
000150 83 ac c1 be 90 cc 01 bf 76 66 b8 be 8c 55 5e bf
       -0.37826928 -0.5070276 -0.36015671 -0.86849284
000160 f6 cc 93 bf bc 4e f3 be 0d 65 48 bf 0f c2 81 bf
       -1.1546924 -0.47521007 -0.7827919 -1.0137347
000170 e5 13 9c bf 37 0c 01 bf 0c f6 43 bf de 1a 90 39
       -1.2193571 -0.50409263 -0.7654731 0.00027485838
000180 67 46 2f bf 78 68 35 bf 35 d0 81 bf f9 96 e2 bd
       -0.684668 -0.7086253 -1.0141665 -0.11063952
000190 62 6f 86 3e 97 2e 59 bf 7f a8 d3 be a9 2c a2 bf
       0.26256853 -0.84836715 -0.4133949 -1.2669879
0001a0 59 17 cf bf 18 25 d7 be e6 1e 59 bf cd 36 31 bf
       -1.6179 -0.42020488 -0.8481277 -0.69224244
0001b0 ba ed 18 bf f4 f1 e7 bf 67 84 bc be 41 7a f8 bf
       -0.5973774 -1.8120713 -0.36819765 -1.9412309
0001c0 32 e6 f3 be 3b 37 b9 3e 05 01 76 bf 06 5d d6 be
       -0.47636563 0.3617495 -0.96095306 -0.41867846
0001d0 bb 63 11 bf 9e 83 44 bf 3f 78 cf bf 3e 63 0b bf
       -0.567928 -0.7676333 -1.6208571 -0.54448307
0001e0 14 fa 1a bf 2a 44 ec be 9c c4 4a c0 31 ca 8b bf
       -0.6053784 -0.46145755 -3.16825 -1.0921079
0001f0 f2 3c 4d bf 0b f7 df 3e d7 9d 31 bf 7e 5b bf bf
       -0.8017112 0.43743166 -0.6938147 -1.4949796

fc2.weight f4 [128, 128]
000000 24 e2 84 be 78 c0 da 3c 18 91 04 be ce e2 94 bd
       -0.25953782 0.026703104 -0.12945974 -0.07269822
000010 99 04 af bd 35 37 85 3d 6b f4 9c 3d 7b ba f6 3d
       -0.08545799 0.065046705 0.076638065 0.12047287
000020 5a 60 9f bc 6d cb a1 3d 9f ff 04 bd 52 75 bf bd
       -0.019455124 0.079001285 -0.03247034 -0.09348549
000030 54 3b 61 bd d5 5e bf bd 69 a5 21 3d e1 8a 6a be
       -0.05498822 -0.0934426 0.039464388 -0.2290454
000040 03 f1 35 bd 61 bc bd bd a3 42 d8 bd a7 eb 20 3d
       -0.0444193 -0.09264446 -0.10559585 0.039287236
000050 1a f3 82 be 24 b9 f9 bd 0f fb 04 be 2e 9f 9a bc
       -0.25576097 -0.12193516 -0.12986396 -0.01887473
000060 ba de f2 bc 42 7b d2 bd ca c8 c7 3b b6 28 74 3d
       -0.02964722 -0.10277416 0.006096934 0.059609137
000070 3e ce dc bd df 3f 80 3d cf 06 67 bd ad 71 71 be
       -0.10781525 0.062621824 -0.056402978 -0.2357852
000080 4a fd 0a be bc b3 07 be 1a e7 19 be d7 ca 37 bd
       -0.13573185 -0.13252157 -0.15029564 -0.044871178
000090 24 42 79 bd 29 fb fb bd dc 43 98 3d f6 19 39 bd
       -0.060854092 -0.123037644 0.07434818 -0.045190774
0000a0 37 cf a1 bb 70 ed c1 bd 27 4a 23 be 71 29 4f 3d
       -0.004938032 -0.09469116 -0.15946256 0.05057663
0000b0 2a e0 0a 3b 65 e4 3b bc 91 68 93 bd 70 41 22 be
       0.002119074 -0.011468028 -0.07197679 -0.15845275
0000c0 cb 9a 44 bd 69 ea 7e bd c7 2b 51 bd c6 31 01 be
       -0.047999185 -0.06223527 -0.05106714 -0.12616643
0000d0 6d ed f0 bd a1 eb 91 3d 0a 7a 9f bc b3 f3 a8 bd
       -0.117640354 0.07125021 -0.019467372 -0.08249607
0000e0 4f a6 56 bc f7 73 a7 bd 36 b5 b7 bd d4 91 ab bc
       -0.0131011745 -0.081764154 -0.0897011 -0.02094356
0000f0 dd e4 0a be 11 d8 26 bd 34 48 63 3b d2 6c 27 bd
       -0.13563867 -0.0407334 0.0034680488 -0.040875264
000100 bf 71 08 bd c5 e1 46 bd 86 ac 3c be a5 b1 5b bc
       -0.0333116 -0.048555154 -0.18425187 -0.013409053
000110 0b 1d 4b bd a5 1e eb bc 2e ce 0d bd bb 22 db bc
       -0.049588244 -0.028701136 -0.034620456 -0.02674996
000120 24 6f e9 bd 62 33 cb bd 76 a7 4d 3d c0 fa 46 be
       -0.113981515 -0.0992191 0.05020853 -0.19431591
000130 ba 07 3a bd 2d e2 2b be a2 e8 8d bb 99 e5 be bd
       -0.045417525 -0.16785498 -0.0043307105 -0.09321136
000140 b8 33 37 be b3 40 6d bd d1 93 23 bd 72 ed fe bd
       -0.17890823 -0.05792303 -0.03993589 -0.12447633
000150 85 13 1c be 90 d7 f2 bc 7c 63 44 bc 35 95 fe bd
       -0.15241821 -0.029643804 -0.01198661 -0.12430803
000160 93 3f 08 bd 01 f8 db bd 78 1e 26 be d5 72 95 bd
       -0.033263754 -0.10740662 -0.1622256 -0.07297293
000170 21 52 81 bc 17 fb 38 bc f1 61 7f bd 39 88 f9 bd
       -0.015786232 -0.011290333 -0.062349264 -0.121841855
000180 f0 ac 11 bd 38 dc d5 bb fe 55 e2 bd 44 3d 1a 3d
       -0.035565317 -0.0065264963 -0.11051558 0.037656084
000190 17 97 90 bd 08 d7 9c bd be 92 ca bd 13 bb 02 be
       -0.07060068 -0.076582015 -0.0989127 -0.12766676
0001a0 2b 99 30 3d c7 6d 3e bd 0a a6 82 bd a4 f8 ad bd
       0.043114822 -0.04649141 -0.06379326 -0.0849469
0001b0 7b b9 39 bd 9f 5b 0c 3d 7a e1 07 3c e0 a1 e3 3c
       -0.045342904 0.034267064 0.008293504 0.027787149
0001c0 78 9d c5 bd ac 2b 13 be da 4e d6 3c c2 3d dd bd
       -0.096491754 -0.14372128 0.026160646 -0.10802795
0001d0 b9 91 5a bc 23 e8 4d bd 3f aa af bc 76 22 c0 3b
       -0.013340407 -0.05027021 -0.021443484 0.005863483
0001e0 3e 89 87 bd 49 05 cb 37 f4 3c ea bd b2 83 4d 3d
       -0.06617974 2.4201947e-05 -0.11437407 0.050174423
0001f0 f6 47 13 be 10 56 ca bc 40 0c b0 3c f8 7a 8a 3d
       -0.1438292 -0.02469924 0.021490216 0.06761736
000200 07 2f 55 3d 90 a6 7e bd 0d 01 1b be e0 09 10 be
       0.052046802 -0.062170565 -0.1513712 -0.14066267
000210 a4 89 98 bd e0 fc b0 bd 9a e0 22 be d7 fc d3 bd
       -0.07448128 -0.08641982 -0.15905991 -0.1035096
000220 81 5a 05 bd e6 51 08 bb 7a d0 49 bd 4c cd ad bd
       -0.032557014 -0.0020800768 -0.049271084 -0.08486423
000230 a2 ba 28 bd 68 b6 80 bb 69 95 25 be 63 22 6d bd
       -0.041193612 -0.0039279945 -0.16170277 -0.05789412
000240 f2 10 a4 bd 20 12 91 bc 92 7f d4 bd 6d 45 4e be
       -0.080110446 -0.017708838 -0.103758946 -0.20143671
000250 4f 4a 22 be 7f 52 19 bd ce a7 01 be bc e7 0a bd
       -0.15848659 -0.03743219 -0.12661669 -0.033912405
000260 e0 1c b4 ba 66 92 1d 3c 84 78 9e bd 5f b9 de bc
       -0.0013741516 0.009617424 -0.0773783 -0.027188001
000270 23 54 3b be 04 9f 97 3d 2a 2b 7f 3d 74 63 a5 bd
       -0.18293814 0.07403377 0.062297024 -0.0807561
000280 a5 7c 5b bd 2b 83 e8 bd 05 41 ce bd 4e 68 08 be
       -0.053585667 -0.11353143 -0.10070995 -0.13321039
000290 3f 40 11 3c 6a 9d dc bd 3f 81 af bc e8 81 48 bd
       0.008865415 -0.10772212 -0.021423934 -0.048952013
0002a0 09 44 52 be ee 76 76 bd 35 27 2d be 2f d3 ae bd
       -0.20533766 -0.060172014 -0.16909488 -0.08536374
0002b0 a6 dc c6 bc 77 55 11 be 1d 0c de bd 6a fa a5 3d
       -0.024275135 -0.14192759 -0.10842154 0.08104403
0002c0 6f b2 f2 bc 84 e7 3f be 8e 1a c1 3b 72 c8 b3 3c
       -0.0296261 -0.1874066 0.005893058 0.021946166
0002d0 50 0e 2c 3b be f9 dc bd 66 9d 18 bc 5d 35 3f be
       0.0026253648 -0.10789822 -0.00931487 -0.186727
0002e0 4d 46 7a 3d 0a 8a e4 bb b0 4c 57 be 32 04 00 bd
       0.0611022 -0.0069744634 -0.21025348 -0.031254
0002f0 4f 62 fb bd 6b 24 71 3c 85 d8 ef 3c 7c 2a ff 3a
       -0.1227461 0.014718155 0.02927805 0.0019467617
000300 d8 1d fe bd 4d 15 dd bd b1 f5 6e be 95 27 ab 3d
       -0.12408036 -0.107950784 -0.23335911 0.08357159
000310 b3 a2 f6 bd 96 9d 1e bd 12 0f 54 be 9a d5 c8 bd
       -0.12042751 -0.038724504 -0.20708874 -0.09806366
000320 31 66 07 bd 5c f3 b0 bd cd 7c 51 bd bb a0 7e be
       -0.03305644 -0.08640167 -0.05114441 -0.24866001
000330 f1 63 9e bd fc 32 5e be bd 67 04 be 20 27 20 bd
       -0.07733906 -0.21699136 -0.12930198 -0.039099813
000340 d0 1c 19 be 95 72 43 3c 2c eb 19 bd db c5 7f bd
       -0.14952397 0.011929174 -0.037577793 -0.06244455
000350 12 a5 2f bd 65 69 a6 bd 2f 62 b0 bd 63 25 9f bd
       -0.042882033 -0.08125571 -0.08612477 -0.07770803
000360 41 ef 31 bd 92 52 24 be ca 65 16 be 31 e0 73 3c
       -0.04344106 -0.16047123 -0.14687267 0.014884994
000370 fc 53 6f bd e1 a7 b2 bb 38 f1 1e bd 9b 71 68 be
       -0.058429703 -0.0054521416 -0.038804263 -0.22699587
000380 75 cf 8c 3d db 6a c0 bc 0e 60 ca bd af d1 00 3c
       0.06875507 -0.023488453 -0.09881602 0.007862492
000390 74 88 e7 bb 4b 44 b6 bd 2b 83 7b 3d 18 65 d3 bd
       -0.007065827 -0.088997446 0.06140439 -0.103220165
0003a0 bb f1 64 be 00 32 02 bd 2b 7e 9a bd 22 3f fc bc
       -0.22357838 -0.031785965 -0.07543596 -0.030791823
0003b0 e2 1c 17 be d5 9d 1c bd 37 c2 94 3d 28 2f ae be
       -0.14757112 -0.038236458 0.07263606 -0.34020352
0003c0 93 52 02 bd f5 80 03 be 67 2f 24 bd a5 b5 93 bd
       -0.03181703 -0.12842162 -0.04008427 -0.0721238
0003d0 45 d7 b7 bd 5e c9 3d be 63 09 41 3d 4f 02 75 bd
       -0.08976606 -0.18533847 0.047128092 -0.059816655
0003e0 cf 36 be bd 52 6c 60 bd d7 19 a5 bd ee f6 15 bb
       -0.09287798 -0.054790802 -0.08061569 -0.0022882777
0003f0 80 db df 3c 51 77 8e 3d e9 04 46 be 28 29 bf bc
       0.027326345 0.069563515 -0.1933781 -0.023335055

fc2.bias f4 [128]
000000 1a 28 9d be a6 b8 13 be 1c ed 68 be 16 d5 88 be
       -0.30694658 -0.14425907 -0.227467 -0.26725072
000010 a8 6a 3b be 5c 77 82 be cb 41 83 be 5d 5c 5e be
       -0.18302405 -0.2548169 -0.25636134 -0.21714921
000020 69 67 d4 bd 3a 19 86 be e5 d3 41 be cf f1 5d be
       -0.103712864 -0.2619112 -0.18928488 -0.21674274
000030 9d 62 23 be b0 37 82 be 04 f3 92 be b2 6a 50 be
       -0.15955587 -0.2543311 -0.2870103 -0.20353201
000040 25 75 49 be 2f 3e c7 3c 5f 9b a2 be 9e 03 aa be
       -0.19673593 0.024321644 -0.31759164 -0.33205885
000050 04 e4 c7 bd 78 39 a7 be fb 6f 82 be fa 05 8f be
       -0.097602874 -0.32661033 -0.2547606 -0.27934247
000060 25 e1 60 be 59 9a 45 be 2b 13 38 be 5b d6 04 be
       -0.21960886 -0.1929716 -0.17976062 -0.12972395
000070 90 5a 37 be 52 b0 20 be 8b d4 e2 be ad e2 8d be
       -0.1790564 -0.15692261 -0.44302782 -0.27712002
000080 55 a3 51 be 46 c7 05 be aa ef 78 be 4d e0 70 be
       -0.20472462 -0.13064298 -0.24310175 -0.23523064
000090 57 82 f5 bd b1 2a 87 be 46 15 71 be 9d e6 97 be
       -0.11987751 -0.26399758 -0.23543271 -0.2966813
0000a0 13 0e 2b be 7a 6a 21 be 55 d0 8c be d1 5f 6c be
       -0.16704588 -0.15763274 -0.27502695 -0.23083426
0000b0 4d 09 0f be a0 b9 be be 18 f7 4e be b5 b3 7b be
       -0.13968392 -0.37250996 -0.20211446 -0.24580272
0000c0 6c 3c 81 be ed 7d 43 be 03 0c 6b be 21 f2 55 be
       -0.2524141 -0.19091006 -0.22953801 -0.20893146
0000d0 5c 17 72 be 1f e4 4d be 5b 4f 0a be 44 13 45 be
       -0.23641723 -0.20106553 -0.13506834 -0.1924563
0000e0 8d 44 77 be 1c fb c1 be 15 e8 88 be 0e e1 7f be
       -0.24147244 -0.37886894 -0.26739565 -0.24988195
0000f0 86 c1 35 be a0 36 2a be 32 d0 25 be 62 36 df bd
       -0.17749605 -0.166224 -0.16192701 -0.108990446
000100 07 e1 c2 be 6e f1 0f be 01 53 86 be da 36 48 be
       -0.38062307 -0.14056942 -0.26235202 -0.19552174
000110 fe 1c 6f be 14 15 4b be 40 78 51 be 9b 65 96 be
       -0.23350903 -0.1983226 -0.20456028 -0.29374394
000120 94 98 33 be ae 59 17 be 53 98 30 be c2 05 53 be
       -0.17538673 -0.14780304 -0.17245607 -0.20607665
000130 95 3e 34 be f7 7b 3d be 26 f8 43 be 39 c4 1a be
       -0.17601998 -0.1850432 -0.1913763 -0.15113916
000140 01 d4 e5 be 70 80 31 bf 12 e8 14 be 51 da 48 be
       -0.4488831 -0.69336605 -0.14541653 -0.19614531
000150 5a de 7b be 84 90 4d be de 8d 32 be 49 b0 46 be
       -0.24596539 -0.2007466 -0.1743693 -0.19403185
000160 53 58 65 be 9d f4 ae be 85 b5 b1 be 22 d1 96 be
       -0.22396974 -0.34171 -0.347088 -0.2945643
000170 72 04 83 be 03 4f a9 be f9 e3 43 be 14 75 aa be
       -0.2558933 -0.33068094 -0.19129933 -0.3329245
000180 3c c8 38 be bd 65 31 be 00 96 69 be b8 63 7e be
       -0.18045133 -0.17323966 -0.22811127 -0.24842727
000190 9a 70 51 be d2 40 87 be 23 55 7f be 80 22 a3 be
       -0.2045311 -0.2641664 -0.24934821 -0.3186226
0001a0 f1 f1 84 be 6b 60 4d be 6a 7a 9d be ac d5 58 be
       -0.25965837 -0.20056312 -0.30757457 -0.2117526
0001b0 6e c5 1a be 19 c2 2b be 0b f5 f0 bd 9d bc e5 bd
       -0.15114376 -0.16773261 -0.11765488 -0.11217616
0001c0 76 03 e9 3f a3 a5 f5 bd 35 8b f1 bd 23 d2 9e be
       1.8204181 -0.11994483 -0.1179413 -0.31019697
0001d0 4d 6a 0c be 70 11 2f be c3 97 d9 bd 3d 9c 59 be
       -0.13712426 -0.17096496 -0.106246494 -0.21251006
0001e0 68 93 75 40 9a a4 56 be c2 ff 0e bd 84 f8 4a be
       3.837122 -0.20961228 -0.03491188 -0.19821364
0001f0 30 9c 3a be 63 c0 85 bd 86 e9 2d be 1e e6 75 be
       -0.18223643 -0.065308355 -0.16983613 -0.24013564

fc3.weight f4 [1, 128]
000000 44 04 b1 bc d4 f5 84 bc 7c 46 0c 3d 65 3f ae 3c
       -0.02160848 -0.016230501 0.034246907 0.021270463
000010 35 d6 28 bc 20 43 31 bc 76 dd 9f 3b 36 9e 23 bb
       -0.010304977 -0.0108192265 0.004878695 -0.0024966127
000020 6e 2f c8 3c b9 5e 31 bc 0a fa 53 3c 53 f0 65 3b
       0.024436679 -0.010825806 0.012938032 0.0035085871
000030 1b 56 38 3c 95 1e 74 3c b0 6c cc 3c 27 67 62 3b
       0.011250998 0.014899869 0.02495417 0.0034546347
000040 a8 3f bd bc 67 04 70 3c 2f 15 0c 3c 34 c8 fa 3a
       -0.023101643 0.014649487 0.008549972 0.0019133152
000050 06 0f 6b 3c 72 8b 24 b9 9b 58 4a 3c d8 47 d5 bc
       0.014346844 -0.00015692206 0.012350227 -0.026035234
000060 76 94 38 bc f3 44 8a bc 45 24 b3 bc 23 f7 8c bc
       -0.011265865 -0.01687858 -0.02186788 -0.017207688
000070 3a a4 ef 3c a2 38 38 3d e3 7f d3 bc 63 60 b7 bc
       0.029253114 0.044975884 -0.025817817 -0.022384828
000080 e4 65 13 3c b1 00 0a 3c 9a ba 35 3b ba 5f 87 ba
       0.008996461 0.008423016 0.0027729631 -0.0010328211
000090 9c 43 d0 3b 1c 84 61 bc d0 c1 02 bb 13 57 21 ba
       0.006355716 -0.0137644075 -0.0019951947 -0.00061546377
0000a0 27 3b 57 bc d0 24 c7 3c 10 77 cc 3c 1e 1e 38 3c
       -0.013136662 0.024309546 0.024959117 0.011237649
0000b0 dd 87 0e bc 09 fc 84 3c 3e 99 3f 3b c1 a4 8d 3c
       -0.0086993845 0.016233461 0.0029235627 0.017290475
0000c0 ff 1b 50 bc 5c 85 a1 3b 30 94 06 3c 69 74 bf 3c
       -0.012701987 0.0049292278 0.008214042 0.023370938
0000d0 38 e3 97 bc f0 dd e9 bb bf f1 9f 3c d4 f4 ff bb
       -0.018540964 -0.0071370527 0.019524453 -0.007811168
0000e0 f7 29 e3 3c e1 23 b6 bc c9 8a 6d bc 31 97 4c 3c
       0.027729971 -0.022233905 -0.014498421 0.012487219
0000f0 0b 42 de b9 55 b5 b4 3c ae 5f 7f 3b 23 8d 63 bd
       -0.00042392345 0.022059122 0.0038966942 -0.05555452
000100 7c b8 84 3c fc 78 79 bc f5 96 8a 3c 3f c6 ec 3b
       0.01620125 -0.015226599 0.016917685 0.007225781
000110 fa e7 8e bc 7c 79 7c bc 59 0b 40 3a 93 91 77 3b
       -0.0174446 -0.0154098235 0.00073259097 0.0037775978
000120 fc 82 df 3c 8a cd 37 3c 00 0e 16 bc 91 9e ae bb
       0.027284138 0.011218438 -0.009158611 -0.005328961
000130 48 ab 83 bb 7f d8 9d 3c 70 bb cb 3c c4 6f 05 bd
       -0.004018221 0.019268272 0.02486965 -0.03257729
000140 71 a4 53 bc 5b e2 ec bc 0f 46 a0 bc 24 04 9a 3b
       -0.012917624 -0.028916528 -0.019564657 0.0047002006
000150 e1 f3 2b 3b 3d 7b de bb 4a 19 ae bb b9 b1 db 3c
       0.0026237892 -0.0067895935 -0.0053130733 0.026818143
000160 1f ca 7f bc a0 ec a5 3c b9 1c 08 bc 9b 52 df 3c
       -0.015612154 0.020254433 -0.008307629 0.027261069
000170 ec 0c 9e 3c 0f 4e 07 bd 23 93 50 bb c5 90 af bc
       0.019293271 -0.033033427 -0.0031825982 -0.021431336
000180 64 07 88 bc f7 3b 8c 3c bd b7 ca bc bd 04 1b bc
       -0.016605087 0.017118437 -0.024745816 -0.009461579
000190 c5 b0 9d bc 04 e7 bf 3b 19 ca e5 3b ab 4c 70 bb
       -0.01924933 0.0058563966 0.0070126173 -0.0036666791
0001a0 c7 98 0d ba 0c 62 e9 3c 27 22 77 3b bb 84 7c bc
       -0.0005401489 0.028489135 0.0037709565 -0.015412505
0001b0 47 8f 0c bd f1 19 e7 bc 6a 60 5d bc 63 5f eb bc
       -0.034316327 -0.028210612 -0.013511756 -0.028732007
0001c0 ec 31 e0 3c b9 fb eb bc 2b 84 ba 3a 81 f7 dd 3c
       0.027367555 -0.028806554 0.0014230063 0.027095558
0001d0 f7 bd 29 3b 1d 35 3e 3b a5 6e 47 bb 70 88 d1 bc
       0.0025900581 0.0029023357 -0.003043094 -0.025577754
0001e0 11 14 9a 3c 06 20 53 3c 1f 5e 92 3c c1 72 c9 3c
       0.018808397 0.012886053 0.017867146 0.024590852
0001f0 34 94 4a 3c 75 b5 e3 3b 18 08 8f bc e5 e3 b9 bb
       0.012364436 0.0069491216 -0.017459914 -0.005672919

b1.weight f4 [128]
000000 44 87 9c 3e e7 0b 3c 3f 70 e5 75 3e 62 b6 34 3f
       0.3057195 0.7345566 0.24013305 0.70590794
000010 a8 e2 70 3e 00 f1 20 3d 94 57 9c 3e 80 30 ea 3e
       0.23523962 0.039292336 0.30535567 0.45740128
000020 44 67 de 3e f1 39 0c 3f e6 eb 9b 3e 01 48 2e 3f
       0.4343816 0.5477591 0.30453414 0.6807862
000030 96 55 5b 3f 34 1e 0f 3e a6 7e 7f 3f 5b 77 62 3f
       0.8567747 0.13976365 0.99802625 0.8846337
000040 5a ca dc 3e 76 88 48 3f 4c 15 6d 3e ba b2 52 3f
       0.43123132 0.7833322 0.23152655 0.82303965
000050 ff 6b 30 3f be d5 67 3f 24 52 78 3e d0 11 d0 3e
       0.6891479 0.9056052 0.24250084 0.4063859
000060 24 ec 96 3e 01 5e 7f 3f ac 9d 7c 3e c6 77 3f 3f
       0.29477036 0.99752814 0.24669522 0.74792135
000070 00 df 63 3d 30 23 79 3f b7 91 6b 3f 98 f4 10 3e
       0.05563259 0.97319317 0.9201922 0.14155805
000080 a8 72 b2 3e d0 d6 35 3f 00 ae f0 3d be 2d 09 3f
       0.348531 0.710309 0.11751938 0.5358542
000090 46 78 09 3f 30 cc 6f 3e 93 52 13 3f 01 e0 36 3f
       0.5369915 0.23417735 0.57547873 0.7143555
0000a0 1d 80 7e 3f 2d 10 1a 3f ac 92 a1 3e 18 84 07 3e
       0.99414235 0.6018093 0.31557214 0.13233984
0000b0 70 ec 62 3d 5c bf 7f 3e 59 12 3b 3f 91 87 66 3f
       0.055401266 0.24975342 0.7307487 0.9005061
0000c0 49 f4 62 3f da 98 3b 3f ca 70 ff 3e 80 80 92 3e
       0.88654 0.7328011 0.4989074 0.28613663
0000d0 5c 6b 6c 3f 78 9a e7 3d c0 b4 3a 3d 7c 27 8b 3e
       0.9235132 0.113087595 0.045582533 0.27178562
0000e0 34 12 3b 3f 27 a6 28 3f d6 b6 82 3e eb 49 19 3f
       0.7307465 0.6587853 0.25530118 0.59878415
0000f0 24 f2 b5 3e 98 c1 9f 3e d0 2c 46 3e 6c ae 70 3f
       0.355363 0.31202388 0.19353032 0.94016147
000100 d6 19 97 3e ea b9 39 3f 70 f0 4d 3f d7 16 31 3f
       0.295119 0.7254931 0.80445004 0.69175476
000110 f4 c0 f0 3e 50 61 6c 3e b8 f6 50 3e 36 75 61 3f
       0.47022212 0.23083997 0.20406616 0.88069475
000120 4b 18 52 3f 8a 16 d9 3e 50 71 d9 3e 84 0d 4e 3f
       0.8206832 0.42400008 0.42469263 0.80489373
000130 91 f6 0c 3f ce 93 51 3f d5 92 4e 3f 2c 35 5f 3e
       0.5506373 0.8186616 0.806928 0.21797627
000140 40 75 0d 3e e8 40 5a 3f 0a 02 d8 3e 6c b2 2c 3e
       0.13814259 0.8525529 0.42189056 0.16864938
000150 e2 e4 97 3e 9e 22 d5 3e ec 81 6a 3f 1a 63 fb 3e
       0.2966681 0.41627973 0.91604495 0.49099046
000160 48 cd 6c 3f 14 31 95 3e b8 ac 85 3e c6 16 81 3e
       0.92500734 0.29139006 0.26108336 0.25212687
000170 c1 2a 19 3f ad b8 73 3f 80 a9 07 3c 24 d1 14 3f
       0.5983086 0.9520367 0.008280158 0.58131623
000180 a0 cf 2e 3f 02 5d c9 3e 90 c7 f9 3d 70 ca 0b 3d
       0.6828556 0.39328772 0.12196267 0.034128606
000190 64 ca 9a 3e 71 07 3f 3f 0e a0 f6 3e 42 1c 81 3e
       0.30232537 0.7462073 0.48168987 0.25216872
0001a0 a1 44 63 3f 61 8c 4d 3f 2f 5a 6a 3f 3a d4 71 3f
       0.88776594 0.80292326 0.9154386 0.9446446
0001b0 5f 4c 4d 3f 37 7a 6b 3f c0 7c 84 3c 32 e8 57 3f
       0.8019466 0.9198336 0.016172767 0.84338677
0001c0 ae 57 30 3f e8 3f 04 3f 1e 93 63 3f b2 19 80 3e
       0.6888379 0.51660013 0.8889636 0.25019604
0001d0 cc ad 12 3f fc 0b 90 3e ef 17 59 3f 0c 80 06 3e
       0.57296443 0.28134143 0.84802145 0.13134784
0001e0 ae 56 b3 3e e0 0d 26 3d 7a 97 f8 3e d7 99 11 3f
       0.3502707 0.040540576 0.48553067 0.56875366
0001f0 a0 78 6a 3f 81 fd 26 3f 80 46 4a 3c e2 d3 fc 3e
       0.9159031 0.65230566 0.01234591 0.49380404

b1.bias f4 [128]
000000 00 00 00 00 00 00 00 00 00 00 00 00 00 00 00 00
       0.0 0.0 0.0 0.0
000010 00 00 00 00 00 00 00 00 00 00 00 00 00 00 00 00
       0.0 0.0 0.0 0.0
000020 00 00 00 00 00 00 00 00 00 00 00 00 00 00 00 00
       0.0 0.0 0.0 0.0
000030 00 00 00 00 00 00 00 00 00 00 00 00 00 00 00 00
       0.0 0.0 0.0 0.0
000040 00 00 00 00 00 00 00 00 00 00 00 00 00 00 00 00
       0.0 0.0 0.0 0.0
000050 00 00 00 00 00 00 00 00 00 00 00 00 00 00 00 00
       0.0 0.0 0.0 0.0
000060 00 00 00 00 00 00 00 00 00 00 00 00 00 00 00 00
       0.0 0.0 0.0 0.0
000070 00 00 00 00 00 00 00 00 00 00 00 00 00 00 00 00
       0.0 0.0 0.0 0.0
000080 00 00 00 00 00 00 00 00 00 00 00 00 00 00 00 00
       0.0 0.0 0.0 0.0
000090 00 00 00 00 00 00 00 00 00 00 00 00 00 00 00 00
       0.0 0.0 0.0 0.0
0000a0 00 00 00 00 00 00 00 00 00 00 00 00 00 00 00 00
       0.0 0.0 0.0 0.0
0000b0 00 00 00 00 00 00 00 00 00 00 00 00 00 00 00 00
       0.0 0.0 0.0 0.0
0000c0 00 00 00 00 00 00 00 00 00 00 00 00 00 00 00 00
       0.0 0.0 0.0 0.0
0000d0 00 00 00 00 00 00 00 00 00 00 00 00 00 00 00 00
       0.0 0.0 0.0 0.0
0000e0 00 00 00 00 00 00 00 00 00 00 00 00 00 00 00 00
       0.0 0.0 0.0 0.0
0000f0 00 00 00 00 00 00 00 00 00 00 00 00 00 00 00 00
       0.0 0.0 0.0 0.0
000100 00 00 00 00 00 00 00 00 00 00 00 00 00 00 00 00
       0.0 0.0 0.0 0.0
000110 00 00 00 00 00 00 00 00 00 00 00 00 00 00 00 00
       0.0 0.0 0.0 0.0
000120 00 00 00 00 00 00 00 00 00 00 00 00 00 00 00 00
       0.0 0.0 0.0 0.0
000130 00 00 00 00 00 00 00 00 00 00 00 00 00 00 00 00
       0.0 0.0 0.0 0.0
000140 00 00 00 00 00 00 00 00 00 00 00 00 00 00 00 00
       0.0 0.0 0.0 0.0
000150 00 00 00 00 00 00 00 00 00 00 00 00 00 00 00 00
       0.0 0.0 0.0 0.0
000160 00 00 00 00 00 00 00 00 00 00 00 00 00 00 00 00
       0.0 0.0 0.0 0.0
000170 00 00 00 00 00 00 00 00 00 00 00 00 00 00 00 00
       0.0 0.0 0.0 0.0
000180 00 00 00 00 00 00 00 00 00 00 00 00 00 00 00 00
       0.0 0.0 0.0 0.0
000190 00 00 00 00 00 00 00 00 00 00 00 00 00 00 00 00
       0.0 0.0 0.0 0.0
0001a0 00 00 00 00 00 00 00 00 00 00 00 00 00 00 00 00
       0.0 0.0 0.0 0.0
0001b0 00 00 00 00 00 00 00 00 00 00 00 00 00 00 00 00
       0.0 0.0 0.0 0.0
0001c0 00 00 00 00 00 00 00 00 00 00 00 00 00 00 00 00
       0.0 0.0 0.0 0.0
0001d0 00 00 00 00 00 00 00 00 00 00 00 00 00 00 00 00
       0.0 0.0 0.0 0.0
0001e0 00 00 00 00 00 00 00 00 00 00 00 00 00 00 00 00
       0.0 0.0 0.0 0.0
0001f0 00 00 00 00 00 00 00 00 00 00 00 00 00 00 00 00
       0.0 0.0 0.0 0.0

b1.running_mean f4 [128]
000000 00 00 00 00 00 00 00 00 00 00 00 00 00 00 00 00
       0.0 0.0 0.0 0.0
000010 00 00 00 00 00 00 00 00 00 00 00 00 00 00 00 00
       0.0 0.0 0.0 0.0
000020 00 00 00 00 00 00 00 00 00 00 00 00 00 00 00 00
       0.0 0.0 0.0 0.0
000030 00 00 00 00 00 00 00 00 00 00 00 00 00 00 00 00
       0.0 0.0 0.0 0.0
000040 00 00 00 00 00 00 00 00 00 00 00 00 00 00 00 00
       0.0 0.0 0.0 0.0
000050 00 00 00 00 00 00 00 00 00 00 00 00 00 00 00 00
       0.0 0.0 0.0 0.0
000060 00 00 00 00 00 00 00 00 00 00 00 00 00 00 00 00
       0.0 0.0 0.0 0.0
000070 00 00 00 00 00 00 00 00 00 00 00 00 00 00 00 00
       0.0 0.0 0.0 0.0
000080 00 00 00 00 00 00 00 00 00 00 00 00 00 00 00 00
       0.0 0.0 0.0 0.0
000090 00 00 00 00 00 00 00 00 00 00 00 00 00 00 00 00
       0.0 0.0 0.0 0.0
0000a0 00 00 00 00 00 00 00 00 00 00 00 00 00 00 00 00
       0.0 0.0 0.0 0.0
0000b0 00 00 00 00 00 00 00 00 00 00 00 00 00 00 00 00
       0.0 0.0 0.0 0.0
0000c0 00 00 00 00 00 00 00 00 00 00 00 00 00 00 00 00
       0.0 0.0 0.0 0.0
0000d0 00 00 00 00 00 00 00 00 00 00 00 00 00 00 00 00
       0.0 0.0 0.0 0.0
0000e0 00 00 00 00 00 00 00 00 00 00 00 00 00 00 00 00
       0.0 0.0 0.0 0.0
0000f0 00 00 00 00 00 00 00 00 00 00 00 00 00 00 00 00
       0.0 0.0 0.0 0.0
000100 00 00 00 00 00 00 00 00 00 00 00 00 00 00 00 00
       0.0 0.0 0.0 0.0
000110 00 00 00 00 00 00 00 00 00 00 00 00 00 00 00 00
       0.0 0.0 0.0 0.0
000120 00 00 00 00 00 00 00 00 00 00 00 00 00 00 00 00
       0.0 0.0 0.0 0.0
000130 00 00 00 00 00 00 00 00 00 00 00 00 00 00 00 00
       0.0 0.0 0.0 0.0
000140 00 00 00 00 00 00 00 00 00 00 00 00 00 00 00 00
       0.0 0.0 0.0 0.0
000150 00 00 00 00 00 00 00 00 00 00 00 00 00 00 00 00
       0.0 0.0 0.0 0.0
000160 00 00 00 00 00 00 00 00 00 00 00 00 00 00 00 00
       0.0 0.0 0.0 0.0
000170 00 00 00 00 00 00 00 00 00 00 00 00 00 00 00 00
       0.0 0.0 0.0 0.0
000180 00 00 00 00 00 00 00 00 00 00 00 00 00 00 00 00
       0.0 0.0 0.0 0.0
000190 00 00 00 00 00 00 00 00 00 00 00 00 00 00 00 00
       0.0 0.0 0.0 0.0
0001a0 00 00 00 00 00 00 00 00 00 00 00 00 00 00 00 00
       0.0 0.0 0.0 0.0
0001b0 00 00 00 00 00 00 00 00 00 00 00 00 00 00 00 00
       0.0 0.0 0.0 0.0
0001c0 00 00 00 00 00 00 00 00 00 00 00 00 00 00 00 00
       0.0 0.0 0.0 0.0
0001d0 00 00 00 00 00 00 00 00 00 00 00 00 00 00 00 00
       0.0 0.0 0.0 0.0
0001e0 00 00 00 00 00 00 00 00 00 00 00 00 00 00 00 00
       0.0 0.0 0.0 0.0
0001f0 00 00 00 00 00 00 00 00 00 00 00 00 00 00 00 00
       0.0 0.0 0.0 0.0

b1.running_var f4 [128]
000000 00 00 80 3f 00 00 80 3f 00 00 80 3f 00 00 80 3f
       1.0 1.0 1.0 1.0
000010 00 00 80 3f 00 00 80 3f 00 00 80 3f 00 00 80 3f
       1.0 1.0 1.0 1.0
000020 00 00 80 3f 00 00 80 3f 00 00 80 3f 00 00 80 3f
       1.0 1.0 1.0 1.0
000030 00 00 80 3f 00 00 80 3f 00 00 80 3f 00 00 80 3f
       1.0 1.0 1.0 1.0
000040 00 00 80 3f 00 00 80 3f 00 00 80 3f 00 00 80 3f
       1.0 1.0 1.0 1.0
000050 00 00 80 3f 00 00 80 3f 00 00 80 3f 00 00 80 3f
       1.0 1.0 1.0 1.0
000060 00 00 80 3f 00 00 80 3f 00 00 80 3f 00 00 80 3f
       1.0 1.0 1.0 1.0
000070 00 00 80 3f 00 00 80 3f 00 00 80 3f 00 00 80 3f
       1.0 1.0 1.0 1.0
000080 00 00 80 3f 00 00 80 3f 00 00 80 3f 00 00 80 3f
       1.0 1.0 1.0 1.0
000090 00 00 80 3f 00 00 80 3f 00 00 80 3f 00 00 80 3f
       1.0 1.0 1.0 1.0
0000a0 00 00 80 3f 00 00 80 3f 00 00 80 3f 00 00 80 3f
       1.0 1.0 1.0 1.0
0000b0 00 00 80 3f 00 00 80 3f 00 00 80 3f 00 00 80 3f
       1.0 1.0 1.0 1.0
0000c0 00 00 80 3f 00 00 80 3f 00 00 80 3f 00 00 80 3f
       1.0 1.0 1.0 1.0
0000d0 00 00 80 3f 00 00 80 3f 00 00 80 3f 00 00 80 3f
       1.0 1.0 1.0 1.0
0000e0 00 00 80 3f 00 00 80 3f 00 00 80 3f 00 00 80 3f
       1.0 1.0 1.0 1.0
0000f0 00 00 80 3f 00 00 80 3f 00 00 80 3f 00 00 80 3f
       1.0 1.0 1.0 1.0
000100 00 00 80 3f 00 00 80 3f 00 00 80 3f 00 00 80 3f
       1.0 1.0 1.0 1.0
000110 00 00 80 3f 00 00 80 3f 00 00 80 3f 00 00 80 3f
       1.0 1.0 1.0 1.0
000120 00 00 80 3f 00 00 80 3f 00 00 80 3f 00 00 80 3f
       1.0 1.0 1.0 1.0
000130 00 00 80 3f 00 00 80 3f 00 00 80 3f 00 00 80 3f
       1.0 1.0 1.0 1.0
000140 00 00 80 3f 00 00 80 3f 00 00 80 3f 00 00 80 3f
       1.0 1.0 1.0 1.0
000150 00 00 80 3f 00 00 80 3f 00 00 80 3f 00 00 80 3f
       1.0 1.0 1.0 1.0
000160 00 00 80 3f 00 00 80 3f 00 00 80 3f 00 00 80 3f
       1.0 1.0 1.0 1.0
000170 00 00 80 3f 00 00 80 3f 00 00 80 3f 00 00 80 3f
       1.0 1.0 1.0 1.0
000180 00 00 80 3f 00 00 80 3f 00 00 80 3f 00 00 80 3f
       1.0 1.0 1.0 1.0
000190 00 00 80 3f 00 00 80 3f 00 00 80 3f 00 00 80 3f
       1.0 1.0 1.0 1.0
0001a0 00 00 80 3f 00 00 80 3f 00 00 80 3f 00 00 80 3f
       1.0 1.0 1.0 1.0
0001b0 00 00 80 3f 00 00 80 3f 00 00 80 3f 00 00 80 3f
       1.0 1.0 1.0 1.0
0001c0 00 00 80 3f 00 00 80 3f 00 00 80 3f 00 00 80 3f
       1.0 1.0 1.0 1.0
0001d0 00 00 80 3f 00 00 80 3f 00 00 80 3f 00 00 80 3f
       1.0 1.0 1.0 1.0
0001e0 00 00 80 3f 00 00 80 3f 00 00 80 3f 00 00 80 3f
       1.0 1.0 1.0 1.0
0001f0 00 00 80 3f 00 00 80 3f 00 00 80 3f 00 00 80 3f
       1.0 1.0 1.0 1.0
