models/Prob_Noise_DeepNet_BufferPlus_Learn_FreqMin_BatchNorm_08/agent_0_actor.pth (torch_old, 302229 bytes, 18 tensors)

bn0.weight f4 [24]
000000 a8 5c 1d 3f 1e 14 c3 3e ed 19 23 3f 90 ec f2 3e
       0.6146951 0.38101286 0.63711435 0.47446108
000010 16 ae 36 3f 2b 79 1e 3f a4 93 e2 3e 58 22 c4 3d
       0.71359384 0.6190364 0.44253266 0.09576863
000020 68 39 1d 3f 70 d0 6a 3d a2 d2 10 3f b1 81 08 3f
       0.6141572 0.057327688 0.565714 0.53322893
000030 be b4 c7 3e 4b aa 68 3f d5 8a 08 3f 2f 14 35 3f
       0.39005083 0.90884846 0.5333684 0.7073392
000040 3f 2b 36 3f 7c f4 51 3e b4 95 9d 3e 94 19 7b 3f
       0.7115974 0.2050342 0.30778277 0.98085904
000050 00 1f 28 3c e8 9c ee 3e 4a b6 eb 3e a7 ca 5a 3f
       0.010261297 0.46604085 0.46037513 0.8546547

bn0.bias f4 [24]
000000 00 00 00 00 00 00 00 00 00 00 00 00 00 00 00 00
       0.0 0.0 0.0 0.0
000010 00 00 00 00 00 00 00 00 00 00 00 00 00 00 00 00
       0.0 0.0 0.0 0.0
000020 00 00 00 00 00 00 00 00 00 00 00 00 00 00 00 00
       0.0 0.0 0.0 0.0
000030 00 00 00 00 00 00 00 00 00 00 00 00 00 00 00 00
       0.0 0.0 0.0 0.0
000040 00 00 00 00 00 00 00 00 00 00 00 00 00 00 00 00
       0.0 0.0 0.0 0.0
000050 00 00 00 00 00 00 00 00 00 00 00 00 00 00 00 00
       0.0 0.0 0.0 0.0

bn0.running_mean f4 [24]
000000 00 00 00 00 00 00 00 00 00 00 00 00 00 00 00 00
       0.0 0.0 0.0 0.0
000010 00 00 00 00 00 00 00 00 00 00 00 00 00 00 00 00
       0.0 0.0 0.0 0.0
000020 00 00 00 00 00 00 00 00 00 00 00 00 00 00 00 00
       0.0 0.0 0.0 0.0
000030 00 00 00 00 00 00 00 00 00 00 00 00 00 00 00 00
       0.0 0.0 0.0 0.0
000040 00 00 00 00 00 00 00 00 00 00 00 00 00 00 00 00
       0.0 0.0 0.0 0.0
000050 00 00 00 00 00 00 00 00 00 00 00 00 00 00 00 00
       0.0 0.0 0.0 0.0

bn0.running_var f4 [24]
000000 00 00 80 3f 00 00 80 3f 00 00 80 3f 00 00 80 3f
       1.0 1.0 1.0 1.0
000010 00 00 80 3f 00 00 80 3f 00 00 80 3f 00 00 80 3f
       1.0 1.0 1.0 1.0
000020 00 00 80 3f 00 00 80 3f 00 00 80 3f 00 00 80 3f
       1.0 1.0 1.0 1.0
000030 00 00 80 3f 00 00 80 3f 00 00 80 3f 00 00 80 3f
       1.0 1.0 1.0 1.0
000040 00 00 80 3f 00 00 80 3f 00 00 80 3f 00 00 80 3f
       1.0 1.0 1.0 1.0
000050 00 00 80 3f 00 00 80 3f 00 00 80 3f 00 00 80 3f
       1.0 1.0 1.0 1.0

fc1.weight f4 [256, 24]
000000 a7 c6 42 3d 15 65 ba bd cb 89 9f 3c 60 26 e9 bd
       0.04755273 -0.09101311 0.019474884 -0.113842726
000010 2a ca 2d 3d 67 15 fd bd 0e b4 13 bd ac 32 9c bd
       0.042429127 -0.12357598 -0.036060385 -0.076268524
000020 71 7d ce 3d 61 b3 08 be 1d d8 97 bb cb 11 f9 3c
       0.1008252 -0.13349678 -0.004633917 0.030403992
000030 65 4b 89 39 5e 45 4f 3d 90 fc 43 bc bd 3d 09 3c
       0.0002618685 0.050603263 -0.011962071 0.008376536
000040 d1 54 06 3d af 68 13 be e2 d1 26 bc 9e 06 f2 3c
       0.03279573 -0.14395402 -0.010181876 0.029544171
000050 01 3f bd be 58 fb d5 3e 78 84 26 3c 30 5a 6c 3c
       -0.3696213 0.41793323 0.010163419 0.014425799
000060 23 d4 ea 3c 86 74 e2 3d f7 df e6 bb a2 bb 44 bc
       0.028665608 0.11057381 -0.0070457417 -0.012007626
000070 15 b2 c2 3d d0 af 4c be 25 68 24 bd ea b4 1a bd
       0.09506623 -0.19988942 -0.040138382 -0.03777019
000080 15 52 11 3e db 37 3b 3e da c2 f3 bc 61 c3 87 bd
       0.14191468 0.18283026 -0.029755998 -0.066290624
000090 ba 60 7a 3e 93 95 2c be 83 d1 95 3b 59 52 5a 3c
       0.24450961 -0.16853933 0.004572095 0.013325297
0000a0 9f 20 3d 3d 4d b8 13 bc 1b a5 55 3c fb 13 db bd
       0.046173688 -0.009016109 0.0130398525 -0.1069717
0000b0 d8 21 4b 3e 36 4e 0c be 92 e3 2a 3d 38 fd 7a bd
       0.19837129 -0.1370171 0.041720934 -0.061276644
0000c0 44 d8 fc 3d 68 c0 f6 3d 1c eb 17 3b 54 10 16 bd
       0.12345937 0.12048417 0.0023180908 -0.036636665
0000d0 ef 2c 3b 3e 07 45 00 bd 16 b0 9c bd 8e 12 32 3d
       0.1827886 -0.03131583 -0.07650773 0.043474726
0000e0 3b a9 9e 3d 0b 00 5a 3e 41 5e 9f 3b 7d 75 18 3d
       0.07747122 0.21289079 0.004863531 0.03722142
0000f0 34 2e 8a 3e 82 c0 3f be dd ca ce 3a f6 7f 97 3c
       0.26988375 -0.1872578 0.0015777011 0.018493634
000100 ba 15 1a 3e 18 8c 84 3e b9 e6 6e bc 9c 20 0b 3d
       0.1504735 0.25888133 -0.014581376 0.033966646
000110 bb 7f 99 3e ab f9 a1 be 35 bb ac bd 2e 4e ae bd
       0.29980263 -0.31635794 -0.084341444 -0.08511005
000120 ec 02 20 3d a3 4d 6d 3d c9 e7 72 bd 71 a2 ee bd
       0.039065287 0.05793537 -0.05930308 -0.11652077
000130 5d 3c b7 ba 9d e3 4b be c9 67 68 bd 28 01 31 bd
       -0.0013979782 -0.19911046 -0.056739602 -0.043213993
000140 bf fe ef 3c db 10 ad bc 0f bc 1e 3d 36 49 d8 bd
       0.029296277 -0.021126201 0.038753565 -0.10560839
000150 1d ca b0 bc 27 04 6d bd 1a 1d 03 bb 16 80 d7 bd
       -0.02158075 -0.057865288 -0.002000636 -0.10522477
000160 08 2b c5 3d 76 24 18 be ee dc 2d 3c 45 9c c6 bd
       0.09627348 -0.14857659 0.010611756 -0.09697775
000170 ab e2 a5 3d 96 1b 61 3d fb 18 d2 3c 3b 25 a9 bd
       0.08099874 0.05495795 0.025646677 -0.08259054
000180 07 96 00 bc 1c ff c4 be c9 b6 89 3b 9f fa b4 bd
       -0.007848269 -0.38475883 0.004202698 -0.08836865
000190 13 99 59 3e ee 0c a1 be bb 32 30 3c d5 52 ef bc
       0.212498 -0.31455177 0.010754283 -0.029214302
0001a0 6d e4 03 3d 5a 39 9f be 4b 67 1b 3d 9d d8 21 3d
       0.032200266 -0.31098443 0.037940305 0.03951322
0001b0 19 e7 07 3e aa 08 8a be 73 6d 97 bc 4c 17 c4 3d
       0.1327175 -0.26959735 -0.018484807 0.09574756
0001c0 31 ab d4 bc 88 45 af be b4 8b 8c 3d b0 08 18 3d
       -0.025960537 -0.34232736 0.06862584 0.03711766
0001d0 db 0d 4b bd 4a 59 57 be 9a 1e 0f bd 8c c6 71 3d
       -0.04957376 -0.21030155 -0.034941293 0.05902724
0001e0 b8 72 c7 3d 20 b0 84 be 39 0d 18 bd b4 58 01 3d
       0.09738678 -0.25915623 -0.037121985 0.031578735
0001f0 bc 32 cd 3c 2d 41 06 3d 4f 65 c3 3c 8e 35 16 bc
       0.025048606 0.032777 0.023852019 -0.009168042
000200 aa 4d 9b 3d 8f 7c 3b be 62 7c 4f bb 7a db d9 3d
       0.075831726 -0.18309234 -0.0031659831 0.10637565
000210 8f 99 ec bd 9b 2e 67 3e 5f d9 cd bc 3c 1c bd 3d
       -0.115527265 0.22576372 -0.025128065 0.09233901
000220 94 0d e9 3d 2b a3 33 be 92 33 d6 b8 9f 62 b4 3b
       0.11379543 -0.17542712 -0.00010213921 0.0055049206
000230 07 95 45 be 33 8f 01 3f 54 37 57 bc 7f 79 2a bd
       -0.1929513 0.5060913 -0.01313575 -0.041619774
000240 3c 05 3a 3e 6f 2d 44 3e 4c c3 40 3c 01 1c 1f 3e
       0.1816606 0.19157957 0.011765312 0.15538026
000250 09 dd ea 3d 22 b0 06 be e2 ae 3f bd 6d f4 90 3d
       0.1146794 -0.13153127 -0.04679764 0.070778705
000260 30 0c c8 3c 9d 5e 1a 3e 46 0c ed 3b ac 56 95 3d
       0.024419874 0.15075155 0.007234129 0.07291922
000270 ca a0 08 3e 52 07 75 be 65 6e 10 bc 03 31 4a 3d
       0.13342586 -0.23928574 -0.008815383 0.049363147
000280 13 bd 35 3d 74 0e 31 3e 02 a9 44 3c 6c 56 a2 bd
       0.04436977 0.1729067 0.012003185 -0.0792664
000290 5c e4 4e 3e 50 7b b7 be 5b dd 25 bd a0 9c e8 bd
       0.202043 -0.35836267 -0.040494304 -0.11357999
0002a0 23 1b a3 3e 97 46 f8 3e 0f 77 09 3c 5a 1f 13 3e
       0.3185664 0.48491356 0.008390202 0.14367428
0002b0 b1 f8 57 bb 58 9a 0c 3e 48 d7 6f bd 39 b7 ae 3d
       -0.0032954628 0.13730752 -0.058554918 0.08531041
0002c0 fe 20 a8 3e 74 e8 06 3f 72 c7 23 3b 50 1e e6 bd
       0.3283767 0.52698445 0.0024990705 -0.112362504
0002d0 0f 3e 72 bc c9 b7 82 3c 35 4c 61 bd ed 81 69 bd
       -0.014785304 0.015956776 -0.055004317 -0.057008673
0002e0 f4 81 85 3e 05 93 d9 3e 19 d0 08 3d 8a 1a f5 bd
       0.2607571 0.4249498 0.033401582 -0.119679525
0002f0 5a 3b 7e bd 9b 19 00 be 3c 6b 94 3b ba c3 d1 bd
       -0.06206832 -0.12509768 0.004529385 -0.1024241
000300 6e 6d af 39 02 86 50 3d c6 40 88 bc 4d c4 42 bc
       0.00033460133 0.05090905 -0.016632449 -0.011887622
000310 59 b8 81 3e a6 2a 29 be a0 1d ab 3c 64 3a be 3c
       0.2533596 -0.16520175 0.02088815 0.023221202
000320 6a ca d9 3b 36 52 2c 3d f6 2e 08 3c a6 9f c0 3c
       0.006646444 0.04207059 0.008311978 0.023513626
000330 37 bb b9 3c 79 63 a7 3d e7 45 94 b9 73 e1 7d bd
       0.022672279 0.0817327 -0.0002828084 -0.061982583
000340 c8 10 58 3c 38 55 17 3e ec 5a 6b 3c ce e2 57 bd
       0.013187595 0.14778602 0.014364939 -0.052706532
000350 e1 4f 95 be 65 69 b1 3e 80 d7 d5 bc 77 8b 00 3d
       -0.29162505 0.34650722 -0.026103735 0.031383004
000360 82 cb 38 bc 72 87 07 be 4f c7 07 bd 57 bc 10 3d
       -0.011278989 -0.13235262 -0.03314906 0.035335865
000370 67 71 07 3e cd 6e 78 be 9f 05 02 3d ef a5 b7 3c
       0.13226853 -0.24261017 0.031743642 0.02241799
000380 d7 e8 1e bd c6 f8 91 be 30 9d 2f bc fe 64 c2 bd
       -0.038796272 -0.28510112 -0.010718629 -0.09491919
000390 fd 3b bc 3d 8f 9c 9d be 66 b0 6f bd 97 08 45 bc
       0.09191129 -0.30783507 -0.058517836 -0.012025974
0003a0 70 f0 c3 bc ca 3e 8b be 85 9e 10 39 e5 de 3f 3d
       -0.02391836 -0.27196342 0.00013791963 0.04684343
0003b0 51 77 fd 3b d2 a9 18 bf 4e d1 1e 3c c3 df 58 3c
       0.007735171 -0.59634125 0.009693457 0.013236943
0003c0 33 62 e9 3d 00 24 75 bd 17 34 51 3c f0 89 19 bd
       0.11395683 -0.059848785 0.012768767 -0.037485063
0003d0 43 cd a8 bd 23 89 79 3e 5b 77 f5 3b 82 f5 28 3d
       -0.082422756 0.2436872 0.007491035 0.04124976
0003e0 12 b8 af 3d 43 55 8c bc 74 9c b9 3c fc d1 38 bd
       0.085800305 -0.0171305 0.02265761 -0.04512213
0003f0 23 83 27 bd 69 1b 2a 3e 98 19 59 bd 10 e3 65 bd
       -0.040896546 0.16612019 -0.053002924 -0.056124747

fc1.bias f4 [256]
000000 ee 70 c5 3c 98 5f 38 bd 9c 1b bd 3d b0 fa a0 3d
       0.0241017 -0.04501304 0.09233782 0.07860315
000010 73 b4 5d be 99 ee f6 bc e2 a8 d8 bd fe 37 0a be
       -0.21650867 -0.03014307 -0.10579087 -0.13497922
000020 ed c3 59 be ae 7a 76 3e bb a8 d5 3d 01 26 39 be
       -0.21266146 0.24070236 0.104325734 -0.18080904
000030 fe f1 2f 3b a7 24 7f 3e 4b 94 f7 3d b9 60 34 bc
       0.002684712 0.24916326 0.120888315 -0.011009389
000040 4a 89 d8 3e 1c f3 3e 3e e6 cc c8 3a d6 4c 80 3d
       0.42292243 0.18647426 0.0015319854 0.06264655
000050 2a 5a 95 bd 70 07 82 be b4 1e d8 bd b9 3a 92 3c
       -0.07292588 -0.253963 -0.10552731 0.017850267
000060 a3 af b5 bd ac 40 1d 3e f3 ba bd 3d ee 9d 52 3e
       -0.08871391 0.15356702 0.09264173 0.20568058
000070 eb f1 0d be 33 b1 10 3e 8b 61 81 3e e5 7f 65 3e
       -0.13861816 0.14130096 0.25269732 0.22412069
000080 d5 53 6f bd 01 81 07 bf 5a 12 f0 3d da 43 d9 3d
       -0.058429558 -0.5293122 0.1172225 0.10608645
000090 d8 f6 05 be e9 89 0e 3c 98 69 1c be 83 e5 17 be
       -0.13082445 0.0086998725 -0.15274656 -0.14833646
0000a0 66 87 4d 3d 74 9f af bd f8 6a 48 be 50 ab b8 bd
       0.050177954 -0.08575335 -0.19572055 -0.0901705
0000b0 61 0e dd bd 14 e6 1c be 20 01 e7 3c 0d ca 1f be
       -0.10793758 -0.15322143 0.028198779 -0.1560442
0000c0 71 a2 82 be 64 03 eb bd 09 9c 4d be d9 50 8d 3b
       -0.25514558 -0.11475256 -0.20079054 0.0043126163
0000d0 75 59 98 bc 07 c6 28 3d 5c df 0a be 3c e8 bb bd
       -0.018597344 0.04120448 -0.13561767 -0.091751546
0000e0 43 07 ea bd e3 53 c4 3d 8e db 49 3c 44 86 bb 3d
       -0.11427166 0.095863126 0.012320412 0.091564685
0000f0 c5 f5 b6 3d 5a 99 5b 3d 81 c3 95 be b7 de c2 3e
       0.089335956 0.053613044 -0.2925072 0.38060543
000100 ee aa 75 ba df 0d 1b be 4a 8e 4c 3e 56 cd b2 3d
       -0.0009371479 -0.1514201 0.19976154 0.08730571
000110 df 08 2d be cf 88 f9 3d ed 9c 05 3e 7b 01 9f 3c
       -0.16897915 0.12184297 0.13048144 0.019409886
000120 4e 00 82 be 23 7c 47 be 85 10 72 3c e9 36 87 3c
       -0.25390857 -0.19480948 0.014774446 0.016505675
000130 0f 07 27 3d a1 7a 85 3e 97 95 10 be 7c 09 bf bb
       0.040778216 0.2607012 -0.14119564 -0.005829988
000140 a8 c6 bf bd 86 2e 7d bc e0 f1 2e 3d 85 f8 93 3e
       -0.093640625 -0.015452987 0.04271114 0.28900543
000150 94 e4 f2 bb b2 55 e1 bd 6e 15 6e bd f2 ef a1 bd
       -0.0074125025 -0.11002673 -0.058125906 -0.07907094
000160 a8 a6 ad bc d8 68 21 be 0c bc 16 be 93 71 60 3e
       -0.021197632 -0.15762651 -0.14720172 0.21918325
000170 25 91 23 3c d6 3e 43 3e 6e 26 50 be 03 fc 24 bb
       0.009983336 0.19066939 -0.2032716 -0.0025174625
000180 b5 c7 5c be 09 25 ae bc de d1 b0 bd 70 76 9f 3d
       -0.21560557 -0.021257894 -0.08633779 0.07786262
000190 5e 5f 31 be 2c 6a fb 3d 12 93 e3 3d 6c 16 28 3e
       -0.17321536 0.1227611 0.11112036 0.16414803
0001a0 55 54 c1 3d b1 82 b8 3b 2c 4b 94 3e ea 03 58 3b
       0.09439913 0.005630814 0.28963602 0.0032961317
0001b0 21 c5 db bd 93 6f 36 bb ce 78 07 3e d1 67 1c 3e
       -0.10730959 -0.00278375 0.13229677 0.15273978
0001c0 4a df 2d be c1 b1 f8 bd bd 36 1f 3e 0f 07 7b 3e
       -0.1697971 -0.12143279 0.15548225 0.24514411
0001d0 b1 4d 33 be fe ad c4 bb 14 1e e3 bd 7c 76 23 3e
       -0.17510106 -0.006002187 -0.11089721 0.15963167
0001e0 e2 37 b2 bd 43 b8 6c be fb ea 98 bd d0 7e 4f bd
       -0.08702065 -0.23117165 -0.07466694 -0.050658047
0001f0 46 d5 8f bd 92 b4 db bd 2e bb cb 3d 06 f9 4d be
       -0.070231006 -0.107278004 0.09947811 -0.20114526
000200 da 74 75 3e 96 fc 27 be f1 cb 92 3e 2f 4f 60 bd
       0.23970357 -0.16404948 0.2867122 -0.054763015
000210 7b 24 48 3d ea c6 1d be 45 89 60 be 0d ba 8c 3e
       0.048862915 -0.15407911 -0.21927364 0.27485695
000220 3c d2 16 3c 0d 78 3e 3b f6 d1 f3 bd 22 44 9f 3d
       0.009205397 0.0029063255 -0.11905281 0.07776667
000230 60 52 76 be d2 e3 45 be 21 0c 2a 3e 0a 58 cf bd
       -0.24054861 -0.19325188 0.1660619 -0.10124214
000240 19 bd e2 bd 4d a2 92 be d4 43 8b bd 87 bb b2 3d
       -0.11071224 -0.2863945 -0.068000466 0.08727174
000250 b7 70 1f bd 32 e3 24 be 2a 5a 83 3e 55 83 39 3e
       -0.038925853 -0.16102293 0.25654727 0.18116505
000260 ba 83 0c bc 28 2d 50 be 4c 53 57 be 51 30 96 3d
       -0.008576328 -0.20329726 -0.21027869 0.073334344
000270 f3 1a 9a 3d f9 27 4c 3e 78 86 29 3e 05 f5 86 bd
       0.075246714 0.19937123 0.16555202 -0.065897025
000280 e3 01 a0 3d 1d b4 6d 3e 59 d6 08 3e 50 5d 1a bd
       0.0781286 0.23213239 0.13363017 -0.037686646
000290 e5 4c 6b bd 90 51 d8 3d c0 31 35 3e 2f 63 31 bc
       -0.05744638 0.10562432 0.1769476 -0.01082687
0002a0 45 d2 c4 bd 00 6b ec bd 67 61 e1 3d d8 1a 97 be
       -0.09610418 -0.11543846 0.11004906 -0.29512668
0002b0 98 82 31 be ec 70 09 be a7 5e 81 be 5a 86 8e be
       -0.17334974 -0.13421983 -0.25267527 -0.27836877
0002c0 20 7e 86 3d d6 c2 df bd 62 e2 d0 3d 20 86 a3 bd
       0.06567025 -0.10925834 0.10199429 -0.07984567
0002d0 8b 63 89 be 5e 9a 80 bd c7 b3 ab 3c 91 bf c7 bd
       -0.26833758 -0.06279443 0.020959748 -0.09753335
0002e0 d6 6b ba 3c 4c ff 43 3e 3e 50 f3 bd 5f 3c c9 bc
       0.022756498 0.19140357 -0.11880539 -0.02456492
0002f0 99 41 49 bc 2e d9 51 bd 01 63 41 bd de e6 15 3e
       -0.012283706 -0.05123251 -0.047213558 0.1463885
000300 ee 60 59 bd 7d f7 ed bd af 39 b5 3d 14 01 04 3d
       -0.053070955 -0.1161947 0.08848893 0.03222759
000310 7d 50 25 3e 85 25 4f 3e 35 29 94 bd 48 a3 29 be
       0.16143985 0.20229156 -0.07234422 -0.16566193
000320 a4 5b 41 be 72 5a 35 3d 3a db ec bd 58 9c 68 3b
       -0.18882614 0.04427571 -0.11565252 0.0035493579
000330 c1 91 14 be 5d eb 84 3e f6 05 d7 bd b7 1c 89 3e
       -0.14508726 0.25960818 -0.10499184 0.2677972
000340 93 c5 9a bc 0d c6 5a 3e 2f 4e 07 3c ad 2f 56 3d
       -0.018893039 0.21364613 0.0082583865 0.05229156
000350 00 d2 8b bd b3 42 dd be c6 a2 ad 3d ae d3 e0 3d
       -0.06827164 -0.4321495 0.08478312 0.10977875
000360 c5 0c 7f bd 4a 84 1c be 19 5b 7a bd 89 fe 47 3d
       -0.062268037 -0.1528484 -0.061122034 0.048826728
000370 e8 65 ac be ce c0 80 3e ad e1 1e 3e c9 a1 e0 3d
       -0.33671498 0.25147098 0.15515776 0.10968358
000380 d2 a7 eb 3d 60 ba 7e 3d 9c d1 26 3e 14 57 9e 3d
       0.115066186 0.06218946 0.16290897 0.077314526
000390 a5 26 94 3e 4e 7e f5 bc 96 5f ce bc 00 a8 14 be
       0.28935733 -0.029967453 -0.025192063 -0.14517212
0003a0 04 0b 2c bc 56 54 2a be 1f 42 0b 3e 4f ab 8d 3d
       -0.010500673 -0.16633734 0.13599442 0.0691744
0003b0 dd 09 3e 3e 08 fb 7c bd 09 75 a6 bc 25 d3 38 3e
       0.1855845 -0.06176284 -0.020319479 0.18049295
0003c0 77 dd 21 3e ae d6 15 bc 2b 44 d9 bd 08 a6 66 3c
       0.15807138 -0.009145422 -0.10608705 0.014077671
0003d0 14 08 a7 3e 12 8b af 3c f9 3a fe 3c 96 29 10 be
       0.3262335 0.021428619 0.03103398 -0.14078364
0003e0 95 2a 0c 3e 04 21 31 be 9f 83 74 3d d4 8f 14 be
       0.13688119 -0.1729775 0.059695836 -0.14507991
0003f0 2b 5c 2d be 5a f2 c2 3d 39 31 2a be 25 22 9d bd
       -0.1692969 0.09518881 -0.1662034 -0.07672528

bn1.weight f4 [256]
000000 d8 2c fe 3d 90 03 5f 3d 60 a9 91 3c d4 8a a2 3e
       0.12410897 0.054446757 0.01778096 0.31746542
000010 d4 7e a8 3e 44 43 4d 3f de 7d 94 3e 98 4f 89 3e
       0.32909262 0.80180764 0.2900228 0.26818538
000020 fe 7d a1 3e dc 68 5b 3f f0 b2 06 3e c0 f1 21 3f
       0.31541437 0.8570688 0.13154197 0.63259506
000030 d8 ec 92 3e a4 a0 36 3e 32 ed 8e 3e 54 e3 68 3f
       0.28696322 0.17834717 0.2791534 0.90971875
000040 20 04 e9 3e de 34 3a 3f e7 07 6c 3f 4e 1e e9 3e
       0.4551096 0.7273692 0.9219956 0.45530933
000050 6f c0 1d 3f 6e 04 48 3f 3d 70 5f 3f 86 f2 9c 3e
       0.61621755 0.7813176 0.8728064 0.3065378
000060 f5 a6 3b 3f 1c 6b 17 3f 60 db 60 3f 27 30 6b 3f
       0.7330163 0.5914781 0.8783474 0.9187035
000070 ad 1b 0b 3f 98 b6 0a 3e 90 e3 fb 3e 60 e7 07 3f
       0.54339105 0.13546216 0.49197054 0.53087425
000080 90 d6 8f 3e 34 4a f9 3e 51 ee 57 3f 5d 68 50 3f
       0.28093386 0.48689425 0.84348017 0.81409246
000090 60 13 a9 3e 48 97 96 3d c5 26 2c 3f c0 61 08 3d
       0.33022594 0.07353073 0.6724666 0.033296347
0000a0 96 0c b8 3e 76 40 d0 3e 30 a0 95 3e 04 d0 de 3e
       0.35947102 0.4067418 0.29223776 0.43518078
0000b0 dc c2 16 3f 12 b6 69 3f 5f 9b 25 3f d4 2f 25 3f
       0.5889108 0.9129344 0.646902 0.64526105
0000c0 0c b8 37 3e f0 72 7d 3e 5c c1 79 3e 7c 5e 2f 3e
       0.17941302 0.24750876 0.24390167 0.17125887
0000d0 24 ff 10 3f 98 0a d5 3e 2e 4e 25 3f 88 05 a7 3d
       0.56639314 0.41609645 0.6457242 0.08155352
0000e0 c0 51 57 3c a8 5f d8 3e 58 84 c5 3e 30 71 49 3e
       0.013142049 0.4226048 0.38577533 0.19672084
0000f0 dd b0 3b 3f 1b 29 48 3f d8 27 1f 3e 12 5f e4 3e
       0.73316747 0.7818772 0.15542543 0.44603783
000100 3e 52 1b 3f d7 4e 1d 3f b0 c9 4f 3e ae 24 38 3f
       0.60672367 0.61448425 0.20291781 0.7193097
000110 15 3f 49 3f c5 00 25 3f 4b e6 03 3f 56 21 94 3e
       0.7861188 0.644543 0.51523274 0.28931683
000120 69 64 5b 3f 52 2b ad 3e 6a f4 37 3f 5f 8c 4e 3f
       0.8570009 0.33822113 0.7185732 0.8068294
000130 aa 3f bc 3e 30 28 28 3d 06 3b 65 3f e7 a1 10 3f
       0.36767322 0.04105395 0.8954319 0.56497043
000140 03 cc 72 3f 00 ed 5e 3d 5e e2 83 3e dc 46 10 3e
       0.9484255 0.05442524 0.25758642 0.1408953
000150 9f 7e 7e 3f 00 68 b9 3a ad 08 35 3f 0a 02 2b 3f
       0.9941196 0.0014145374 0.70716363 0.66799986
000160 58 84 ae 3e 68 9a 42 3f 88 9e cf 3d 90 df 40 3f
       0.34085345 0.76016855 0.10137659 0.7534113
000170 b8 66 05 3f 3b 35 17 3f d4 85 f7 3e 70 10 f4 3e
       0.5210986 0.590656 0.4834429 0.4766879
000180 ba 21 f2 3e 25 43 77 3f 6c 34 61 3e af 71 57 3f
       0.47291356 0.9658683 0.21992654 0.8415784
000190 80 14 7e 3c a0 d9 ee 3c 80 2f 50 3c 20 1f 8e 3e
       0.015507817 0.029156506 0.012706637 0.27758121
0001a0 f3 f6 6e 3f 05 1a 19 3f df df 0b 3f 40 2d f5 3e
       0.93345565 0.5980533 0.54638475 0.47886086
0001b0 64 18 99 3e a8 d4 06 3f 44 8e a6 3e e0 e1 76 3e
       0.2990142 0.5266824 0.32530415 0.24109602
0001c0 8c f1 7b 3e c1 b0 13 3f 9c d1 43 3f 3e 4a 93 3e
       0.24603862 0.5769158 0.76491714 0.2876758
0001d0 cc a2 73 3e 29 29 09 3f 57 38 1b 3f 7c 23 f1 3e
       0.23792571 0.5357843 0.6063284 0.47097385
0001e0 83 33 5a 3f 9f 60 09 3f 5a e4 27 3f 58 ff 43 3e
       0.8523485 0.5366306 0.6558281 0.19140375
0001f0 e6 e2 d3 3e a6 a3 05 3f 20 25 fb 3c c0 e0 61 3e
       0.41384047 0.5220283 0.030657351 0.22058392
000200 d8 60 f0 3e 0e 80 da 3e f8 cc a1 3d d8 21 b9 3d
       0.46948886 0.42675823 0.07900423 0.09039658
000210 ca 8f 90 3e 4d b6 05 3f b2 c9 09 3f e7 50 5a 3f
       0.28234702 0.52231294 0.5382339 0.852797
000220 bc 92 34 3f 45 17 44 3f 39 93 24 3f d4 6e 8b 3e
       0.705364 0.76598006 0.64287144 0.27232993
000230 58 ac a0 3e c0 2d 81 3c aa 75 cc 3e 8b 19 7b 3f
       0.31381488 0.015768886 0.3993352 0.9808585
000240 b0 30 14 3e 5c ae 40 3e 9f ea 63 3f 7d 32 32 3f
       0.14471698 0.18816513 0.8902988 0.6960829
000250 e9 cf 4f 3f e4 69 17 3f 44 9e ea 3e 68 d9 3a 3f
       0.8117662 0.5914595 0.45823872 0.72987986
000260 9c a3 6a 3f 2e 70 59 3f 1b d5 05 3f 00 ef 7e 3f
       0.916559 0.849368 0.522783 0.99583435
000270 40 8f 22 3d fa d1 68 3f 34 38 47 3e 54 4a 5a 3f
       0.039687395 0.909454 0.19455034 0.85269666
000280 81 2e 68 3f ee 2c f7 3e ad 7c 21 3f 8e 98 b3 3e
       0.9069596 0.48276466 0.63080865 0.35077327
000290 82 92 cc 3e 90 7a f4 3d 2c 94 12 3f 95 97 35 3f
       0.39955527 0.119374394 0.5725734 0.7093442
0002a0 68 e6 fc 3e f0 cb 5e 3e 38 37 08 3e 07 32 35 3f
       0.49394536 0.21757483 0.13302314 0.7077946
0002b0 ae d7 b4 3e 80 e4 03 3f d7 9c 3b 3f 68 62 81 3e
       0.353208 0.5152054 0.73286194 0.2527039
0002c0 4a f3 1a 3f e0 90 cd 3d 5e d9 05 3f f5 62 30 3f
       0.6052748 0.10037398 0.522848 0.68900996
0002d0 aa ed 95 3e b4 f5 e6 3e 92 a1 46 3f 5e 12 80 3e
       0.29282886 0.45109332 0.77590287 0.25014013
0002e0 d8 68 a0 3d 24 2e 6a 3e bc 69 28 3e 60 8f e3 3c
       0.07832497 0.22869164 0.16446584 0.027778327
0002f0 ef 7b 19 3f 5d 25 32 3f 58 c2 4d 3e e0 b1 88 3c
       0.5995473 0.6958826 0.20093668 0.01668638
000300 8c b7 69 3e 74 9f 43 3f a3 ad 31 3f 09 6d 27 3f
       0.22823924 0.7641518 0.69405574 0.6540075
000310 a8 61 01 3e 47 8f 62 3f a4 e5 63 3e 6a e3 c6 3e
       0.12634909 0.88499874 0.2225557 0.38845378
000320 bc ab 5e 3e 7a 50 d0 3e 8c f7 de 3e 94 f8 1d 3f
       0.21745199 0.406864 0.43548238 0.61707425
000330 fc 27 57 3f 7e 66 4d 3f b8 46 3a 3f 95 04 63 3f
       0.84045386 0.80234516 0.7276416 0.88678867
000340 67 53 25 3f bb d0 7a 3f 88 b4 3f 3e fa 13 3d 3f
       0.64580387 0.9797475 0.18721211 0.73858607
000350 3f 78 75 3f 87 64 1b 3f 80 0b 47 3c 0a af 76 3f
       0.95886606 0.6070027 0.012148738 0.9636084
000360 0c 09 a0 3e 2c fc 1c 3e 00 2c 2f 3a e6 b9 7b 3f
       0.31256902 0.15330571 0.0006682277 0.98330534
000370 71 ad 6c 3f 68 43 d8 3d 9c 6b d5 3e 80 a8 9c 3e
       0.9245215 0.10559732 0.41683662 0.30597305
000380 4c 54 07 3e 88 2e 57 3e 30 aa 6f 3d 86 61 1e 3f
       0.1321575 0.21013844 0.058511913 0.6186756
000390 f0 39 d8 3e 00 d2 1c 3f bc 94 1b 3e 04 b8 2b 3f
       0.42231703 0.61257935 0.15193456 0.6707766
0003a0 8e 88 6f 3f 38 68 d2 3e 3c 0a b7 3e 70 b8 83 3d
       0.9356774 0.41095138 0.35749996 0.06431663
0003b0 61 2a 23 3f 56 8c 80 3e ec 42 45 3e 50 01 76 3d
       0.6373654 0.25107068 0.1926381 0.060059845
0003c0 83 af 57 3f 38 9e b6 3e 01 13 6c 3f 68 3e 25 3e
       0.84252185 0.35667586 0.922165 0.16137087
0003d0 5b ba 55 3f 68 15 c9 3d 4e ad 42 3f d0 4b f4 3e
       0.8348748 0.09818536 0.7604569 0.4771409
0003e0 c4 fd e0 3e 00 1d 87 3d 66 33 33 3f a0 c7 1f 3f
       0.43943608 0.06597328 0.700003 0.6241398
0003f0 ab 03 12 3f 76 8c d8 3e 50 47 3e 3f c2 0b c1 3e
       0.57036847 0.42294663 0.74327564 0.37704283

bn1.bias f4 [256]
000000 00 00 00 00 00 00 00 00 00 00 00 00 00 00 00 00
       0.0 0.0 0.0 0.0
000010 00 00 00 00 00 00 00 00 00 00 00 00 00 00 00 00
       0.0 0.0 0.0 0.0
000020 00 00 00 00 00 00 00 00 00 00 00 00 00 00 00 00
       0.0 0.0 0.0 0.0
000030 00 00 00 00 00 00 00 00 00 00 00 00 00 00 00 00
       0.0 0.0 0.0 0.0
000040 00 00 00 00 00 00 00 00 00 00 00 00 00 00 00 00
       0.0 0.0 0.0 0.0
000050 00 00 00 00 00 00 00 00 00 00 00 00 00 00 00 00
       0.0 0.0 0.0 0.0
000060 00 00 00 00 00 00 00 00 00 00 00 00 00 00 00 00
       0.0 0.0 0.0 0.0
000070 00 00 00 00 00 00 00 00 00 00 00 00 00 00 00 00
       0.0 0.0 0.0 0.0
000080 00 00 00 00 00 00 00 00 00 00 00 00 00 00 00 00
       0.0 0.0 0.0 0.0
000090 00 00 00 00 00 00 00 00 00 00 00 00 00 00 00 00
       0.0 0.0 0.0 0.0
0000a0 00 00 00 00 00 00 00 00 00 00 00 00 00 00 00 00
       0.0 0.0 0.0 0.0
0000b0 00 00 00 00 00 00 00 00 00 00 00 00 00 00 00 00
       0.0 0.0 0.0 0.0
0000c0 00 00 00 00 00 00 00 00 00 00 00 00 00 00 00 00
       0.0 0.0 0.0 0.0
0000d0 00 00 00 00 00 00 00 00 00 00 00 00 00 00 00 00
       0.0 0.0 0.0 0.0
0000e0 00 00 00 00 00 00 00 00 00 00 00 00 00 00 00 00
       0.0 0.0 0.0 0.0
0000f0 00 00 00 00 00 00 00 00 00 00 00 00 00 00 00 00
       0.0 0.0 0.0 0.0
000100 00 00 00 00 00 00 00 00 00 00 00 00 00 00 00 00
       0.0 0.0 0.0 0.0
000110 00 00 00 00 00 00 00 00 00 00 00 00 00 00 00 00
       0.0 0.0 0.0 0.0
000120 00 00 00 00 00 00 00 00 00 00 00 00 00 00 00 00
       0.0 0.0 0.0 0.0
000130 00 00 00 00 00 00 00 00 00 00 00 00 00 00 00 00
       0.0 0.0 0.0 0.0
000140 00 00 00 00 00 00 00 00 00 00 00 00 00 00 00 00
       0.0 0.0 0.0 0.0
000150 00 00 00 00 00 00 00 00 00 00 00 00 00 00 00 00
       0.0 0.0 0.0 0.0
000160 00 00 00 00 00 00 00 00 00 00 00 00 00 00 00 00
       0.0 0.0 0.0 0.0
000170 00 00 00 00 00 00 00 00 00 00 00 00 00 00 00 00
       0.0 0.0 0.0 0.0
000180 00 00 00 00 00 00 00 00 00 00 00 00 00 00 00 00
       0.0 0.0 0.0 0.0
000190 00 00 00 00 00 00 00 00 00 00 00 00 00 00 00 00
       0.0 0.0 0.0 0.0
0001a0 00 00 00 00 00 00 00 00 00 00 00 00 00 00 00 00
       0.0 0.0 0.0 0.0
0001b0 00 00 00 00 00 00 00 00 00 00 00 00 00 00 00 00
       0.0 0.0 0.0 0.0
0001c0 00 00 00 00 00 00 00 00 00 00 00 00 00 00 00 00
       0.0 0.0 0.0 0.0
0001d0 00 00 00 00 00 00 00 00 00 00 00 00 00 00 00 00
       0.0 0.0 0.0 0.0
0001e0 00 00 00 00 00 00 00 00 00 00 00 00 00 00 00 00
       0.0 0.0 0.0 0.0
0001f0 00 00 00 00 00 00 00 00 00 00 00 00 00 00 00 00
       0.0 0.0 0.0 0.0
000200 00 00 00 00 00 00 00 00 00 00 00 00 00 00 00 00
       0.0 0.0 0.0 0.0
000210 00 00 00 00 00 00 00 00 00 00 00 00 00 00 00 00
       0.0 0.0 0.0 0.0
000220 00 00 00 00 00 00 00 00 00 00 00 00 00 00 00 00
       0.0 0.0 0.0 0.0
000230 00 00 00 00 00 00 00 00 00 00 00 00 00 00 00 00
       0.0 0.0 0.0 0.0
000240 00 00 00 00 00 00 00 00 00 00 00 00 00 00 00 00
       0.0 0.0 0.0 0.0
000250 00 00 00 00 00 00 00 00 00 00 00 00 00 00 00 00
       0.0 0.0 0.0 0.0
000260 00 00 00 00 00 00 00 00 00 00 00 00 00 00 00 00
       0.0 0.0 0.0 0.0
000270 00 00 00 00 00 00 00 00 00 00 00 00 00 00 00 00
       0.0 0.0 0.0 0.0
000280 00 00 00 00 00 00 00 00 00 00 00 00 00 00 00 00
       0.0 0.0 0.0 0.0
000290 00 00 00 00 00 00 00 00 00 00 00 00 00 00 00 00
       0.0 0.0 0.0 0.0
0002a0 00 00 00 00 00 00 00 00 00 00 00 00 00 00 00 00
       0.0 0.0 0.0 0.0
0002b0 00 00 00 00 00 00 00 00 00 00 00 00 00 00 00 00
       0.0 0.0 0.0 0.0
0002c0 00 00 00 00 00 00 00 00 00 00 00 00 00 00 00 00
       0.0 0.0 0.0 0.0
0002d0 00 00 00 00 00 00 00 00 00 00 00 00 00 00 00 00
       0.0 0.0 0.0 0.0
0002e0 00 00 00 00 00 00 00 00 00 00 00 00 00 00 00 00
       0.0 0.0 0.0 0.0
0002f0 00 00 00 00 00 00 00 00 00 00 00 00 00 00 00 00
       0.0 0.0 0.0 0.0
000300 00 00 00 00 00 00 00 00 00 00 00 00 00 00 00 00
       0.0 0.0 0.0 0.0
000310 00 00 00 00 00 00 00 00 00 00 00 00 00 00 00 00
       0.0 0.0 0.0 0.0
000320 00 00 00 00 00 00 00 00 00 00 00 00 00 00 00 00
       0.0 0.0 0.0 0.0
000330 00 00 00 00 00 00 00 00 00 00 00 00 00 00 00 00
       0.0 0.0 0.0 0.0
000340 00 00 00 00 00 00 00 00 00 00 00 00 00 00 00 00
       0.0 0.0 0.0 0.0
000350 00 00 00 00 00 00 00 00 00 00 00 00 00 00 00 00
       0.0 0.0 0.0 0.0
000360 00 00 00 00 00 00 00 00 00 00 00 00 00 00 00 00
       0.0 0.0 0.0 0.0
000370 00 00 00 00 00 00 00 00 00 00 00 00 00 00 00 00
       0.0 0.0 0.0 0.0
000380 00 00 00 00 00 00 00 00 00 00 00 00 00 00 00 00
       0.0 0.0 0.0 0.0
000390 00 00 00 00 00 00 00 00 00 00 00 00 00 00 00 00
       0.0 0.0 0.0 0.0
0003a0 00 00 00 00 00 00 00 00 00 00 00 00 00 00 00 00
       0.0 0.0 0.0 0.0
0003b0 00 00 00 00 00 00 00 00 00 00 00 00 00 00 00 00
       0.0 0.0 0.0 0.0
0003c0 00 00 00 00 00 00 00 00 00 00 00 00 00 00 00 00
       0.0 0.0 0.0 0.0
0003d0 00 00 00 00 00 00 00 00 00 00 00 00 00 00 00 00
       0.0 0.0 0.0 0.0
0003e0 00 00 00 00 00 00 00 00 00 00 00 00 00 00 00 00
       0.0 0.0 0.0 0.0
0003f0 00 00 00 00 00 00 00 00 00 00 00 00 00 00 00 00
       0.0 0.0 0.0 0.0

bn1.running_mean f4 [256]
000000 00 00 00 00 00 00 00 00 00 00 00 00 00 00 00 00
       0.0 0.0 0.0 0.0
000010 00 00 00 00 00 00 00 00 00 00 00 00 00 00 00 00
       0.0 0.0 0.0 0.0
000020 00 00 00 00 00 00 00 00 00 00 00 00 00 00 00 00
       0.0 0.0 0.0 0.0
000030 00 00 00 00 00 00 00 00 00 00 00 00 00 00 00 00
       0.0 0.0 0.0 0.0
000040 00 00 00 00 00 00 00 00 00 00 00 00 00 00 00 00
       0.0 0.0 0.0 0.0
000050 00 00 00 00 00 00 00 00 00 00 00 00 00 00 00 00
       0.0 0.0 0.0 0.0
000060 00 00 00 00 00 00 00 00 00 00 00 00 00 00 00 00
       0.0 0.0 0.0 0.0
000070 00 00 00 00 00 00 00 00 00 00 00 00 00 00 00 00
       0.0 0.0 0.0 0.0
000080 00 00 00 00 00 00 00 00 00 00 00 00 00 00 00 00
       0.0 0.0 0.0 0.0
000090 00 00 00 00 00 00 00 00 00 00 00 00 00 00 00 00
       0.0 0.0 0.0 0.0
0000a0 00 00 00 00 00 00 00 00 00 00 00 00 00 00 00 00
       0.0 0.0 0.0 0.0
0000b0 00 00 00 00 00 00 00 00 00 00 00 00 00 00 00 00
       0.0 0.0 0.0 0.0
0000c0 00 00 00 00 00 00 00 00 00 00 00 00 00 00 00 00
       0.0 0.0 0.0 0.0
0000d0 00 00 00 00 00 00 00 00 00 00 00 00 00 00 00 00
       0.0 0.0 0.0 0.0
0000e0 00 00 00 00 00 00 00 00 00 00 00 00 00 00 00 00
       0.0 0.0 0.0 0.0
0000f0 00 00 00 00 00 00 00 00 00 00 00 00 00 00 00 00
       0.0 0.0 0.0 0.0
000100 00 00 00 00 00 00 00 00 00 00 00 00 00 00 00 00
       0.0 0.0 0.0 0.0
000110 00 00 00 00 00 00 00 00 00 00 00 00 00 00 00 00
       0.0 0.0 0.0 0.0
000120 00 00 00 00 00 00 00 00 00 00 00 00 00 00 00 00
       0.0 0.0 0.0 0.0
000130 00 00 00 00 00 00 00 00 00 00 00 00 00 00 00 00
       0.0 0.0 0.0 0.0
000140 00 00 00 00 00 00 00 00 00 00 00 00 00 00 00 00
       0.0 0.0 0.0 0.0
000150 00 00 00 00 00 00 00 00 00 00 00 00 00 00 00 00
       0.0 0.0 0.0 0.0
000160 00 00 00 00 00 00 00 00 00 00 00 00 00 00 00 00
       0.0 0.0 0.0 0.0
000170 00 00 00 00 00 00 00 00 00 00 00 00 00 00 00 00
       0.0 0.0 0.0 0.0
000180 00 00 00 00 00 00 00 00 00 00 00 00 00 00 00 00
       0.0 0.0 0.0 0.0
000190 00 00 00 00 00 00 00 00 00 00 00 00 00 00 00 00
       0.0 0.0 0.0 0.0
0001a0 00 00 00 00 00 00 00 00 00 00 00 00 00 00 00 00
       0.0 0.0 0.0 0.0
0001b0 00 00 00 00 00 00 00 00 00 00 00 00 00 00 00 00
       0.0 0.0 0.0 0.0
0001c0 00 00 00 00 00 00 00 00 00 00 00 00 00 00 00 00
       0.0 0.0 0.0 0.0
0001d0 00 00 00 00 00 00 00 00 00 00 00 00 00 00 00 00
       0.0 0.0 0.0 0.0
0001e0 00 00 00 00 00 00 00 00 00 00 00 00 00 00 00 00
       0.0 0.0 0.0 0.0
0001f0 00 00 00 00 00 00 00 00 00 00 00 00 00 00 00 00
       0.0 0.0 0.0 0.0
000200 00 00 00 00 00 00 00 00 00 00 00 00 00 00 00 00
       0.0 0.0 0.0 0.0
000210 00 00 00 00 00 00 00 00 00 00 00 00 00 00 00 00
       0.0 0.0 0.0 0.0
000220 00 00 00 00 00 00 00 00 00 00 00 00 00 00 00 00
       0.0 0.0 0.0 0.0
000230 00 00 00 00 00 00 00 00 00 00 00 00 00 00 00 00
       0.0 0.0 0.0 0.0
000240 00 00 00 00 00 00 00 00 00 00 00 00 00 00 00 00
       0.0 0.0 0.0 0.0
000250 00 00 00 00 00 00 00 00 00 00 00 00 00 00 00 00
       0.0 0.0 0.0 0.0
000260 00 00 00 00 00 00 00 00 00 00 00 00 00 00 00 00
       0.0 0.0 0.0 0.0
000270 00 00 00 00 00 00 00 00 00 00 00 00 00 00 00 00
       0.0 0.0 0.0 0.0
000280 00 00 00 00 00 00 00 00 00 00 00 00 00 00 00 00
       0.0 0.0 0.0 0.0
000290 00 00 00 00 00 00 00 00 00 00 00 00 00 00 00 00
       0.0 0.0 0.0 0.0
0002a0 00 00 00 00 00 00 00 00 00 00 00 00 00 00 00 00
       0.0 0.0 0.0 0.0
0002b0 00 00 00 00 00 00 00 00 00 00 00 00 00 00 00 00
       0.0 0.0 0.0 0.0
0002c0 00 00 00 00 00 00 00 00 00 00 00 00 00 00 00 00
       0.0 0.0 0.0 0.0
0002d0 00 00 00 00 00 00 00 00 00 00 00 00 00 00 00 00
       0.0 0.0 0.0 0.0
0002e0 00 00 00 00 00 00 00 00 00 00 00 00 00 00 00 00
       0.0 0.0 0.0 0.0
0002f0 00 00 00 00 00 00 00 00 00 00 00 00 00 00 00 00
       0.0 0.0 0.0 0.0
000300 00 00 00 00 00 00 00 00 00 00 00 00 00 00 00 00
       0.0 0.0 0.0 0.0
000310 00 00 00 00 00 00 00 00 00 00 00 00 00 00 00 00
       0.0 0.0 0.0 0.0
000320 00 00 00 00 00 00 00 00 00 00 00 00 00 00 00 00
       0.0 0.0 0.0 0.0
000330 00 00 00 00 00 00 00 00 00 00 00 00 00 00 00 00
       0.0 0.0 0.0 0.0
000340 00 00 00 00 00 00 00 00 00 00 00 00 00 00 00 00
       0.0 0.0 0.0 0.0
000350 00 00 00 00 00 00 00 00 00 00 00 00 00 00 00 00
       0.0 0.0 0.0 0.0
000360 00 00 00 00 00 00 00 00 00 00 00 00 00 00 00 00
       0.0 0.0 0.0 0.0
000370 00 00 00 00 00 00 00 00 00 00 00 00 00 00 00 00
       0.0 0.0 0.0 0.0
000380 00 00 00 00 00 00 00 00 00 00 00 00 00 00 00 00
       0.0 0.0 0.0 0.0
000390 00 00 00 00 00 00 00 00 00 00 00 00 00 00 00 00
       0.0 0.0 0.0 0.0
0003a0 00 00 00 00 00 00 00 00 00 00 00 00 00 00 00 00
       0.0 0.0 0.0 0.0
0003b0 00 00 00 00 00 00 00 00 00 00 00 00 00 00 00 00
       0.0 0.0 0.0 0.0
0003c0 00 00 00 00 00 00 00 00 00 00 00 00 00 00 00 00
       0.0 0.0 0.0 0.0
0003d0 00 00 00 00 00 00 00 00 00 00 00 00 00 00 00 00
       0.0 0.0 0.0 0.0
0003e0 00 00 00 00 00 00 00 00 00 00 00 00 00 00 00 00
       0.0 0.0 0.0 0.0
0003f0 00 00 00 00 00 00 00 00 00 00 00 00 00 00 00 00
       0.0 0.0 0.0 0.0

bn1.running_var f4 [256]
000000 00 00 80 3f 00 00 80 3f 00 00 80 3f 00 00 80 3f
       1.0 1.0 1.0 1.0
000010 00 00 80 3f 00 00 80 3f 00 00 80 3f 00 00 80 3f
       1.0 1.0 1.0 1.0
000020 00 00 80 3f 00 00 80 3f 00 00 80 3f 00 00 80 3f
       1.0 1.0 1.0 1.0
000030 00 00 80 3f 00 00 80 3f 00 00 80 3f 00 00 80 3f
       1.0 1.0 1.0 1.0
000040 00 00 80 3f 00 00 80 3f 00 00 80 3f 00 00 80 3f
       1.0 1.0 1.0 1.0
000050 00 00 80 3f 00 00 80 3f 00 00 80 3f 00 00 80 3f
       1.0 1.0 1.0 1.0
000060 00 00 80 3f 00 00 80 3f 00 00 80 3f 00 00 80 3f
       1.0 1.0 1.0 1.0
000070 00 00 80 3f 00 00 80 3f 00 00 80 3f 00 00 80 3f
       1.0 1.0 1.0 1.0
000080 00 00 80 3f 00 00 80 3f 00 00 80 3f 00 00 80 3f
       1.0 1.0 1.0 1.0
000090 00 00 80 3f 00 00 80 3f 00 00 80 3f 00 00 80 3f
       1.0 1.0 1.0 1.0
0000a0 00 00 80 3f 00 00 80 3f 00 00 80 3f 00 00 80 3f
       1.0 1.0 1.0 1.0
0000b0 00 00 80 3f 00 00 80 3f 00 00 80 3f 00 00 80 3f
       1.0 1.0 1.0 1.0
0000c0 00 00 80 3f 00 00 80 3f 00 00 80 3f 00 00 80 3f
       1.0 1.0 1.0 1.0
0000d0 00 00 80 3f 00 00 80 3f 00 00 80 3f 00 00 80 3f
       1.0 1.0 1.0 1.0
0000e0 00 00 80 3f 00 00 80 3f 00 00 80 3f 00 00 80 3f
       1.0 1.0 1.0 1.0
0000f0 00 00 80 3f 00 00 80 3f 00 00 80 3f 00 00 80 3f
       1.0 1.0 1.0 1.0
000100 00 00 80 3f 00 00 80 3f 00 00 80 3f 00 00 80 3f
       1.0 1.0 1.0 1.0
000110 00 00 80 3f 00 00 80 3f 00 00 80 3f 00 00 80 3f
       1.0 1.0 1.0 1.0
000120 00 00 80 3f 00 00 80 3f 00 00 80 3f 00 00 80 3f
       1.0 1.0 1.0 1.0
000130 00 00 80 3f 00 00 80 3f 00 00 80 3f 00 00 80 3f
       1.0 1.0 1.0 1.0
000140 00 00 80 3f 00 00 80 3f 00 00 80 3f 00 00 80 3f
       1.0 1.0 1.0 1.0
000150 00 00 80 3f 00 00 80 3f 00 00 80 3f 00 00 80 3f
       1.0 1.0 1.0 1.0
000160 00 00 80 3f 00 00 80 3f 00 00 80 3f 00 00 80 3f
       1.0 1.0 1.0 1.0
000170 00 00 80 3f 00 00 80 3f 00 00 80 3f 00 00 80 3f
       1.0 1.0 1.0 1.0
000180 00 00 80 3f 00 00 80 3f 00 00 80 3f 00 00 80 3f
       1.0 1.0 1.0 1.0
000190 00 00 80 3f 00 00 80 3f 00 00 80 3f 00 00 80 3f
       1.0 1.0 1.0 1.0
0001a0 00 00 80 3f 00 00 80 3f 00 00 80 3f 00 00 80 3f
       1.0 1.0 1.0 1.0
0001b0 00 00 80 3f 00 00 80 3f 00 00 80 3f 00 00 80 3f
       1.0 1.0 1.0 1.0
0001c0 00 00 80 3f 00 00 80 3f 00 00 80 3f 00 00 80 3f
       1.0 1.0 1.0 1.0
0001d0 00 00 80 3f 00 00 80 3f 00 00 80 3f 00 00 80 3f
       1.0 1.0 1.0 1.0
0001e0 00 00 80 3f 00 00 80 3f 00 00 80 3f 00 00 80 3f
       1.0 1.0 1.0 1.0
0001f0 00 00 80 3f 00 00 80 3f 00 00 80 3f 00 00 80 3f
       1.0 1.0 1.0 1.0
000200 00 00 80 3f 00 00 80 3f 00 00 80 3f 00 00 80 3f
       1.0 1.0 1.0 1.0
000210 00 00 80 3f 00 00 80 3f 00 00 80 3f 00 00 80 3f
       1.0 1.0 1.0 1.0
000220 00 00 80 3f 00 00 80 3f 00 00 80 3f 00 00 80 3f
       1.0 1.0 1.0 1.0
000230 00 00 80 3f 00 00 80 3f 00 00 80 3f 00 00 80 3f
       1.0 1.0 1.0 1.0
000240 00 00 80 3f 00 00 80 3f 00 00 80 3f 00 00 80 3f
       1.0 1.0 1.0 1.0
000250 00 00 80 3f 00 00 80 3f 00 00 80 3f 00 00 80 3f
       1.0 1.0 1.0 1.0
000260 00 00 80 3f 00 00 80 3f 00 00 80 3f 00 00 80 3f
       1.0 1.0 1.0 1.0
000270 00 00 80 3f 00 00 80 3f 00 00 80 3f 00 00 80 3f
       1.0 1.0 1.0 1.0
000280 00 00 80 3f 00 00 80 3f 00 00 80 3f 00 00 80 3f
       1.0 1.0 1.0 1.0
000290 00 00 80 3f 00 00 80 3f 00 00 80 3f 00 00 80 3f
       1.0 1.0 1.0 1.0
0002a0 00 00 80 3f 00 00 80 3f 00 00 80 3f 00 00 80 3f
       1.0 1.0 1.0 1.0
0002b0 00 00 80 3f 00 00 80 3f 00 00 80 3f 00 00 80 3f
       1.0 1.0 1.0 1.0
0002c0 00 00 80 3f 00 00 80 3f 00 00 80 3f 00 00 80 3f
       1.0 1.0 1.0 1.0
0002d0 00 00 80 3f 00 00 80 3f 00 00 80 3f 00 00 80 3f
       1.0 1.0 1.0 1.0
0002e0 00 00 80 3f 00 00 80 3f 00 00 80 3f 00 00 80 3f
       1.0 1.0 1.0 1.0
0002f0 00 00 80 3f 00 00 80 3f 00 00 80 3f 00 00 80 3f
       1.0 1.0 1.0 1.0
000300 00 00 80 3f 00 00 80 3f 00 00 80 3f 00 00 80 3f
       1.0 1.0 1.0 1.0
000310 00 00 80 3f 00 00 80 3f 00 00 80 3f 00 00 80 3f
       1.0 1.0 1.0 1.0
000320 00 00 80 3f 00 00 80 3f 00 00 80 3f 00 00 80 3f
       1.0 1.0 1.0 1.0
000330 00 00 80 3f 00 00 80 3f 00 00 80 3f 00 00 80 3f
       1.0 1.0 1.0 1.0
000340 00 00 80 3f 00 00 80 3f 00 00 80 3f 00 00 80 3f
       1.0 1.0 1.0 1.0
000350 00 00 80 3f 00 00 80 3f 00 00 80 3f 00 00 80 3f
       1.0 1.0 1.0 1.0
000360 00 00 80 3f 00 00 80 3f 00 00 80 3f 00 00 80 3f
       1.0 1.0 1.0 1.0
000370 00 00 80 3f 00 00 80 3f 00 00 80 3f 00 00 80 3f
       1.0 1.0 1.0 1.0
000380 00 00 80 3f 00 00 80 3f 00 00 80 3f 00 00 80 3f
       1.0 1.0 1.0 1.0
000390 00 00 80 3f 00 00 80 3f 00 00 80 3f 00 00 80 3f
       1.0 1.0 1.0 1.0
0003a0 00 00 80 3f 00 00 80 3f 00 00 80 3f 00 00 80 3f
       1.0 1.0 1.0 1.0
0003b0 00 00 80 3f 00 00 80 3f 00 00 80 3f 00 00 80 3f
       1.0 1.0 1.0 1.0
0003c0 00 00 80 3f 00 00 80 3f 00 00 80 3f 00 00 80 3f
       1.0 1.0 1.0 1.0
0003d0 00 00 80 3f 00 00 80 3f 00 00 80 3f 00 00 80 3f
       1.0 1.0 1.0 1.0
0003e0 00 00 80 3f 00 00 80 3f 00 00 80 3f 00 00 80 3f
       1.0 1.0 1.0 1.0
0003f0 00 00 80 3f 00 00 80 3f 00 00 80 3f 00 00 80 3f
       1.0 1.0 1.0 1.0

fc2.weight f4 [256, 256]
000000 51 f9 b0 3d 5b f3 80 3d ab 19 f3 bd 26 6f 3c bd
       0.08641303 0.06296416 -0.1187013 -0.046004437
000010 01 20 18 3e fa 41 b1 3d 85 35 98 3c 44 ea 03 bd
       0.14855959 0.08655162 0.018580208 -0.032205835
000020 12 03 75 3d a2 14 12 bd 37 f1 2a 3d 3d 2c 9c 3d
       0.05981738 -0.03566421 0.041733947 0.07625625
000030 39 ef b4 be b5 f7 ff 3d 66 bb 86 3d 63 90 a2 3d
       -0.35338762 0.12498418 0.06578712 0.07937696
000040 fd 0d c5 bb 59 87 9a 3c 19 ef d1 3d fb 66 aa bc
       -0.0060136304 0.018863367 0.102506824 -0.020801058
000050 82 86 9d 3d e1 49 82 bd d6 e5 02 bd 05 70 08 be
       0.07691671 -0.063617475 -0.03195747 -0.13323982
000060 60 08 2e bd 32 9f 35 bd 31 49 0a bd 71 96 b7 3d
       -0.042488456 -0.044341274 -0.033761207 0.08964241
000070 f8 9f cc bd d2 a7 0e bd 59 97 b5 bc 78 04 c9 bb
       -0.09991449 -0.034828015 -0.022166895 -0.006134566
000080 c7 cd a3 bd 93 cd 13 be 0a a9 00 bd a2 00 b7 3c
       -0.07998233 -0.14433889 -0.03141121 0.022339169
000090 6e 50 77 3d 50 15 0a 3e c1 4f 96 3d e5 36 9b bc
       0.060379438 0.13484693 0.073394306 -0.018947074
0000a0 46 67 25 3d 21 86 1d 3e ae 2e dc 3c 78 1b 0c 3d
       0.040381692 0.15383197 0.026877727 0.034205884
0000b0 b4 88 85 bd 27 1e dc be 8b 04 49 be 11 85 06 3d
       -0.06520215 -0.42991754 -0.1963064 0.032841746
0000c0 ee 56 38 bd 6a bc 9a be da 34 89 3d 5d 88 31 be
       -0.045004778 -0.30221874 0.06699534 -0.17337175
0000d0 95 86 19 bd de 67 ad 3b 63 a0 a0 bc 49 cb 2b be
       -0.037481863 0.005291923 -0.019607728 -0.16776766
0000e0 f2 f8 60 be 3f 66 88 3d 5b 95 0e 3c 10 ea 39 be
       -0.21969965 0.06660127 0.008702601 -0.18155694
0000f0 41 c8 29 3c 20 2f 3e 3b 72 6a d9 bd 2a de 59 3a
       0.010362686 0.0029019788 -0.10616006 0.0008310998
000100 b5 e2 50 3d ed b6 86 3c 07 fa e1 3c 93 97 8a 3d
       0.050997455 0.016444648 0.027585043 0.06767192
000110 81 47 83 3d 47 d4 99 3d f5 be 31 bd 38 bb a5 bd
       0.06410123 0.07511192 -0.043395 -0.0809235
000120 54 bb 0e 3c a5 36 ab 3d 14 16 97 3d 29 95 c1 3d
       0.008711655 0.08360032 0.07377258 0.09452278
000130 5e c0 cf ba 29 11 29 be a9 cb a1 3d 10 ec 15 be
       -0.0015850177 -0.16510452 0.07900173 -0.14640832
000140 1f ad 2d 3d 47 78 cd 3d 26 98 37 be 40 f1 74 bd
       0.04240143 0.10032707 -0.17929134 -0.059800386
000150 6a 6f 7c 3e 76 68 fd 3d 41 d9 93 be 5c 9b f8 3d
       0.24651876 0.1237344 -0.2887669 0.121390074
000160 b8 3c 09 bd b9 4b 44 be 15 d5 e1 bd 76 6d 3c 3c
       -0.03350517 -0.19169511 -0.1102697 0.011500707
000170 5f cf 32 be de dc d1 be 8a 6c d1 3c 2e 5e 78 bb
       -0.17461918 -0.4098882 0.02556445 -0.0037897932
000180 d2 39 31 be 31 4d 8f be 12 1f 7a bd 7e 99 47 3d
       -0.17307213 -0.2798858 -0.061064787 0.048730366
000190 9d 77 f4 bd 56 9a 11 3d 47 a2 4c bd 65 88 b7 3d
       -0.11936877 0.035547577 -0.049959447 0.08961562
0001a0 6c 4e 98 3d 85 eb ec bd 50 85 a8 3b 17 78 64 3d
       0.07436833 -0.11568359 0.005142845 0.05577859
0001b0 41 a4 9d 3b b4 3c 55 3d 2c c6 1e be 4d 07 4e 3d
       0.0048108404 0.052059844 -0.15505284 0.05029993
0001c0 ef b3 38 3d 62 0b 75 bc bf e7 44 bd 4e 09 b0 bd
       0.045093473 -0.014956327 -0.048072573 -0.08595525
0001d0 8c c1 a7 be 94 85 05 3d ed b6 7f bc b1 96 87 bd
       -0.32764852 0.032598093 -0.015607578 -0.06620539
0001e0 47 73 b3 3b 12 31 df bd 5c 85 a9 ba 6f fc 81 bd
       0.0054763886 -0.10898031 -0.0012933421 -0.06346976
0001f0 45 51 3f be 2d 30 80 3d 05 82 f8 3b 3f 62 03 3d
       -0.18683346 0.06259189 0.007583859 0.032076117
000200 45 40 ed bc 28 63 9b bd 03 f5 ca 3d 99 c5 aa bb
       -0.02896131 -0.07587272 0.099100135 -0.0052115438
000210 f6 32 8c be d6 21 74 bd 58 0c 70 3c df fe ba 3c
       -0.2738263 -0.05960258 0.0146513805 0.02282661
000220 e9 04 14 be e2 d2 21 3d 13 01 25 3d 83 44 3a 3e
       -0.14454998 0.039507754 0.040284228 0.18190198
000230 46 d6 2c bd 9c 63 c2 3b 86 cb fb 3b 93 88 60 be
       -0.042196535 0.0059322845 0.007684174 -0.21927099
000240 e5 6a 89 3d b7 47 a0 3d cb 88 07 be 32 85 16 3e
       0.06709842 0.078261785 -0.13235776 0.14699247
000250 36 b9 29 bc af b0 38 be 78 7c 90 bd e9 7b 78 bd
       -0.010359099 -0.1803615 -0.070549905 -0.060665045
000260 95 6b 2f 3d ce 1b b8 bd 47 65 a3 be 86 9d b8 bc
       0.042827208 -0.08989678 -0.31913206 -0.02253605
000270 42 9d 8f 3a 4a 06 8b bc 3a 57 f0 3d ec fb f6 bc
       0.0010956901 -0.016970772 0.11735387 -0.030149423
000280 48 db f7 3c b6 4e 88 bd 60 fc fb bc fb 4c 02 bd
       0.030255929 -0.06655638 -0.03075999 -0.031811696
000290 60 73 6d 3b f1 20 7a bb 4f 2c 95 3e 18 ee 58 3d
       0.00362321 -0.0038166607 0.29135367 0.05296144
0002a0 1c 1f f8 3c 04 c8 db 3d 16 0d 9f 3e 9a db 65 be
       0.030288272 0.10731509 0.3106467 -0.22447053
0002b0 68 51 6f bd 29 7f 07 bd d7 d7 b5 bd 40 cf 43 bd
       -0.058427244 -0.033080254 -0.08879059 -0.04780507
0002c0 ba 72 75 3d a9 bb 1a 3d 17 fc 8e be e5 aa 15 be
       0.059923865 0.037776623 -0.27926704 -0.14615972
0002d0 e5 d6 13 3d 24 00 bc 3d a0 eb 56 bd b7 bd 21 3c
       0.03609361 0.09179714 -0.052470803 0.009871892
0002e0 93 f0 8e 3c eb 39 5c bd b7 5d b3 bd 4d fd 38 be
       0.0174487 -0.053766172 -0.08758109 -0.18065377
0002f0 dd 77 6e bd 82 55 2a bd a9 f2 87 3d f8 05 6e 3d
       -0.05821978 -0.041585453 0.066380806 0.05811116
000300 b7 82 1b be dc 8e a0 bd 4c 53 33 3d d8 c9 ab 3d
       -0.15186583 -0.07839748 0.04378061 0.08388108
000310 1d 17 17 3f 5f af b1 3b cc f0 34 be 0a 35 69 be
       0.59019643 0.005422517 -0.17669982 -0.22774139
000320 45 52 be 3d fa 1b 2c 3d b0 33 47 3e 0b 12 81 bd
       0.092930354 0.042018868 0.19453311 -0.063022695
000330 41 0a 19 3c 9d 01 ff 3c 6c a8 12 be 93 96 49 3c
       0.009340824 0.031128699 -0.1432206 0.012303966
000340 b4 7e 46 bc 74 f0 26 bd f0 a4 34 3b d8 0b 39 bc
       -0.012115169 -0.040756658 0.002756413 -0.011294328
000350 90 76 03 3e 67 17 97 be 53 ea cd bd b2 97 d2 3d
       0.12838197 -0.29510042 -0.100544594 0.1028284
000360 a2 2a 0b bd eb 33 27 be d0 f9 6d bc 25 cb 98 bc
       -0.033976205 -0.16328399 -0.014524892 -0.018651554
000370 18 d2 ab be 1d 9f bf 3d 25 80 33 bd 79 d2 d9 bc
       -0.33558726 0.0935652 -0.04382338 -0.026589619
000380 fe 25 2f 39 b5 c4 47 be bf bc 61 bd d3 0b bc bd
       0.00016703454 -0.19508632 -0.055111643 -0.09181943
000390 eb 30 b8 3c 9e f2 3a 3d 13 a5 25 3d 38 e2 14 be
       0.022484263 0.045641534 0.04044063 -0.1453942
0003a0 ac 2a 21 3a be f6 33 bd 56 9f ca 3d 5b af 49 3c
       0.0006148021 -0.043936484 0.09893672 0.012309874
0003b0 75 95 11 be 86 aa 7c be 02 b7 12 bd 7f 85 c3 3c
       -0.1421717 -0.24674425 -0.03581906 0.023867367
0003c0 c1 15 4c bd f7 17 ea ba be 03 7b 3d 4b ed cc 3c
       -0.049825434 -0.0017859925 0.061282866 0.025015494
0003d0 82 f8 11 be 08 90 92 bd 45 90 fb bd 59 c4 06 be
       -0.14254954 -0.07156378 -0.122833766 -0.13160838
0003e0 28 19 6a 3c 96 5a 32 be ba 9b 93 bd fa 9c 1a be
       0.014288224 -0.17417368 -0.07207437 -0.15098944
0003f0 83 84 5f be 5b 9a ae 3d 1b b6 29 3d 39 15 6d 3d
       -0.21827893 0.08525535 0.041433435 0.057881568
