models/Prob_Noise_DeepNet_BufferPlus_Learn_FreqMin_BatchNorm_08/agent_0_critic.pth (torch_old, 97375 bytes, 9 tensors)

fcs1.weight f4 [128, 52]
0	0xbc9a1cf8	-0.018812642
1	0x3e3ed370	0.18635345
2	0xbc249e57	-0.010047517
3	0xbd998944	-0.074968845
4	0x3cc7957e	0.024363276
5	0xbf9630ab	-1.1733602
6	0xbd87ed00	-0.06637001
7	0xbbfbbe63	-0.007682608
8	0x3e9841e7	0.2973778
9	0x3eeca937	0.4622285
10	0xbdbb1f8d	-0.09136877
11	0x3e4240ec	0.18970078
12	0x3ee4a35c	0.44655883
13	0xc00a28d6	-2.1587424
14	0x3cd9d86d	0.026592458
15	0x3d38c83a	0.045112826
16	0x3fc5e29a	1.5459778
17	0x3f7cdf1c	0.9877794
18	0xbd356672	-0.044287153
19	0x3f8ca9e0	1.0989342
20	0x3edaedb6	0.42759484
21	0xbf293a61	-0.66104704
22	0xbd7d3046	-0.061813615
23	0x3f7775ce	0.9666413
24	0x3eaa48a6	0.3325855
25	0xc02794ec	-2.6184645
26	0xbe82f5be	-0.2557811
27	0x3df69a26	0.1204112
28	0x3ab2d418	0.0013643531
29	0xbf97290d	-1.1809403
30	0xbe916e78	-0.28404593
31	0x3dcc9062	0.09988476
32	0x3ede47c9	0.43414143
33	0xc0162f0b	-2.3466213
34	0xbe842d10	-0.2581563
35	0x3d8a1dd9	0.06743974
36	0xbea4cab6	-0.32185906
37	0xc010ad3a	-2.260573
38	0xbea0fa41	-0.3144093
39	0x3e397b59	0.1811346
40	0x3f2bd8c0	0.6712761
41	0xbfe2564f	-1.7682589
42	0xbcf6e3d8	-0.030137941
43	0x3f300676	0.6875986
44	0xbeb90f1c	-0.3614434
45	0xbf13b0b5	-0.5769151
46	0xbd77f76d	-0.060538698
47	0x3f2b2f6c	0.66869235
48	0x3fa213fc	1.2662349
49	0x3f97b588	1.1852274
50	0xbeb469ef	-0.3523707
51	0xbf010f13	-0.50413626
52	0x3da003bb	0.078132115
53	0x3f0e5dc2	0.55611813
54	0x3ce698ec	0.02814909
55	0xbdae065d	-0.084973074
56	0x3edc1d68	0.42991185
57	0x3fa96a05	1.323548
58	0xbcee4756	-0.02908675
59	0x3c3b5267	0.0114332205
60	0x3e2ee0e7	0.17077981
61	0x3d7c06d6	0.061529957
62	0x3c9998fb	0.018749705
63	0xbb74d836	-0.0037360317
64	0xbef987ae	-0.48736328
65	0xbf678b4d	-0.9044693
66	0xbc6ef066	-0.014583683
67	0xbc8ee61e	-0.017443713
68	0xbe8b2458	-0.27176166
69	0x3cfc7c1e	0.030820902
70	0xbc611b00	-0.013739347
71	0xbcfbe386	-0.03074814
72	0xbf8bf45f	-1.0933951
73	0xc082cbb4	-4.087366
74	0x3d00eb20	0.031474233
75	0x3d53fdb2	0.051755615
76	0xbf40920b	-0.75222844
77	0x3fde2b49	1.735696
78	0x3d30ab18	0.043131918
79	0x3d87c2ea	0.06628974
80	0xbef22f74	-0.4730183
81	0x3fb94ffd	1.4477535
82	0xbd08a550	-0.03336078
83	0x3cbcbac7	0.023038281
84	0xbf086679	-0.5328136
85	0x40184409	2.3791525
86	0xbd840f1b	-0.06448194
87	0x3de49b0c	0.11162385
88	0x3eec4a38	0.46150374
89	0xbf69a8ff	-0.9127349
90	0xbd2c3574	-0.042043164
91	0x3d66f479	0.05638549
92	0xbf12e5b4	-0.5738175
93	0x401f48c2	2.4888158
94	0xbd9a03d9	-0.07520265
95	0x3f176072	0.5913154
96	0x3f952bca	1.1653988
97	0xc08182d7	-4.0472217
98	0xbd62ccd3	-0.055371117
99	0x3f21f4cc	0.63264155
100	0xbdc0cb99	-0.09413833
101	0xbcb4f756	-0.022090595
102	0xc01a0895	-2.4067738
103	0xbe49a9dc	-0.19693702
104	0x3f013602	0.50473034
105	0xbdaaee7d	-0.08346269
106	0xbd72703b	-0.059189063
107	0x3db980f9	0.09057803
108	0xbe2529ad	-0.1612918
109	0xbe1cc8fc	-0.15311044
110	0x3c455e86	0.012046462
111	0xbd1c56c7	-0.038168695
112	0x3f168bac	0.5880687
113	0x3e821d71	0.25413087
114	0x3b6b7981	0.0035930576
115	0x3cf848f6	0.030308228
116	0xbd58aa8e	-0.05289703
117	0xbe67b8d2	-0.22629097
118	0xbda702fe	-0.081548676
119	0xbc9f6f47	-0.01946224
120	0x3ee03ac5	0.43794838
121	0x3e62891e	0.22122619
122	0x3d92031d	0.071295
123	0x3e750f93	0.23931722
124	0x3bf09c21	0.0073428308
125	0x3db03eee	0.08605753
126	0xbc0ea2f1	-0.00870584
127	0x3e616c62	0.22014001
128	0x3f2ab97c	0.66689277
129	0xbe03194a	-0.12802616
130	0xbda4aa23	-0.080402635
131	0x3d8bcf17	0.06826609
132	0x3debd3f7	0.115150385
133	0xbe7b8d91	-0.24565722
134	0xbd1c1332	-0.038104244
135	0xbd38a0a7	-0.045075085
136	0x3f4859ba	0.7826191
137	0x3d3a8146	0.04553344
138	0xbdaede9e	-0.085385546
139	0xbe8db0a8	-0.2767384
140	0x3e0e1b7f	0.13877676
141	0xbe107b0d	-0.1410944
142	0xbcf7cc6e	-0.030248847
143	0xbe458ac0	-0.1929121
144	0x3f3f10bb	0.74634904
145	0xbdb13f37	-0.086546354
146	0xbd95e9bf	-0.07319974
147	0xbe317860	-0.17331076
148	0xbdab5767	-0.0836628
149	0x3dbc20aa	0.09185918
150	0xbd6ff5c0	-0.058583975
151	0xbce99cd3	-0.028517162
152	0xbe9436c7	-0.28948042
153	0x3f1619a2	0.5863286
154	0x3dfb8c10	0.12282574
155	0xbdc66770	-0.09687698
156	0x3fd864b2	1.690573
157	0x3e01830c	0.12647647
158	0xbc6a1080	-0.0142861605
159	0x3e790915	0.24319871
160	0xbdd38b24	-0.10329273
161	0xbf823090	-1.017107
162	0xbdcc96fe	-0.09989737
163	0x3e5b6f9f	0.21429299
164	0x3faff62b	1.3747
165	0x3ea0cce7	0.31406328
166	0xbd188aa9	-0.03724161
167	0x3eb192f7	0.34682438
168	0x3db248fa	0.087053254
169	0xbf0c600a	-0.54834044
170	0xbd4b7605	-0.0496731
171	0x3e9c4ea9	0.30528763
172	0x3f7358c6	0.9505733
173	0x3e82ae3e	0.2552356
174	0xbdd0066c	-0.10157475
175	0x3e41e7f2	0.18936136
176	0x3d61dddb	0.05514322
177	0x3df174cb	0.117898546
178	0xbe1619e5	-0.14658315
179	0x3e45ef8a	0.19329658
180	0x3f1fac29	0.6237207
181	0x3f840b73	1.0315994
182	0xbdf032b7	-0.11728423
183	0x3e46b52f	0.19405054
184	0x3e18d030	0.14923167
185	0xbf6022ac	-0.87552905
186	0xbd87e8a5	-0.0663617
187	0x3e6214cb	0.22078244
188	0x3f486ee9	0.78294235
189	0x3fad1ff2	1.3525374
190	0x3cdeaf49	0.027183192
191	0xbe1b5360	-0.15168524
192	0x3d0156f3	0.03157706
193	0xbf091e79	-0.5356212
194	0xbd5cb135	-0.053879935
195	0xbde8350f	-0.11338245
196	0x3f5f1356	0.8713888
197	0x3f7f4075	0.9970773
198	0xbd386231	-0.045015518
199	0xbf076fcb	-0.5290496
200	0x3d445ad2	0.047938175
201	0x3e7501df	0.23926495
202	0xbdf77cc6	-0.120843455
203	0xbec43726	-0.38323325
204	0xbf892f46	-1.0717552
205	0x3f51f6b5	0.8201707
206	0x3f0e20b8	0.55518675
207	0xbd4e7959	-0.050408695
208	0xbe786318	-0.24256551
209	0x3f9e704e	1.2378023
210	0xbd770327	-0.06030574
211	0xbdd1d7f4	-0.10246268
212	0xbe368948	-0.17825806
213	0x3e0c6297	0.13709484
214	0xbcf65b32	-0.030072782
215	0xbe5bcd24	-0.21464974
216	0xbeca2875	-0.3948399
217	0x3f691f6f	0.9106359
218	0xbcc2c3d1	-0.023775013
219	0x3e8cf5bb	0.27531227
220	0x3f8f3ab2	1.1189787
221	0xbf36d4a7	-0.7141823
222	0xbd105039	-0.035232756
223	0x3ec1d501	0.37857822
224	0xbe2ea28b	-0.17054193
225	0x3fa01a06	1.2507942
226	0xbcd8b6ae	-0.026454296
227	0xbd53ddf9	-0.05172536
228	0x4006ff28	2.1093235
229	0xc014a966	-2.3228393
230	0xbd9e88f1	-0.07740963
231	0x3c5bdef7	0.013419858
232	0xbed40d1f	-0.4141626
233	0xbe024009	-0.1271974
234	0xbd7c04d2	-0.061528035
235	0x3e5f00f7	0.21777712
236	0x3df512a1	0.11966444
237	0x3dbe3e2f	0.09289204
238	0x3dc2d5a7	0.09513407
239	0x3e7c7a8c	0.24656123
240	0x3ca4a6fe	0.02009916
241	0x3c2f4050	0.010696486
242	0xbd1fcd6e	-0.039014272
243	0x3c5ea14b	0.01358826
244	0xbf889194	-1.0669427
245	0xbf3ff451	-0.7498217
246	0xbd986534	-0.07441178
247	0x3dbf899a	0.09352417
248	0x3ee3640d	0.4441227
249	0x3e3b2f24	0.18279701
250	0xbdcced6b	-0.100062214
251	0x3e5db2ea	0.21650282
252	0xc0073d72	-2.1131253
253	0xc01affb4	-2.4218569
254	0xbcef3b0b	-0.029202959
255	0x3e585518	0.2112621

fcs1.bias f4 [128]
0	0xc025a714	-2.5883226
1	0x3f94d552	1.16276
2	0xbeded6cc	-0.43523252
3	0xbf858214	-1.0430322
4	0xc0122a66	-2.2838378
5	0xbfb8c570	-1.4435253
6	0xbd0a1d97	-0.033719625
7	0xc00a90ad	-2.1650803
8	0xbf6b52a3	-0.9192297
9	0xbf92aa2e	-1.1458185
10	0xbf6cefe3	-0.9255354
11	0xbfe140eb	-1.7597936
12	0xbfd5a914	-1.6692224
13	0xc014c5f1	-2.3245814
14	0xbf500f9c	-0.8127382
15	0xbff143fd	-1.8848873
16	0xbfda79cb	-1.7068418
17	0xbffd899f	-1.9807624
18	0xc01014e2	-2.2512746
19	0xbf9fae73	-1.2475113
20	0xbf86ec0e	-1.0540788
21	0xbe8184ee	-0.2529673
22	0xbf7d7bf1	-0.99017245
23	0xbfe19172	-1.7622511
24	0xbff9da20	-1.9519691
25	0xbe4b7fa0	-0.19872904
26	0xbee6b3ff	-0.450592
27	0xbec2800d	-0.3798832
28	0x3e6f0145	0.23340328
29	0xbf7b2daf	-0.9811658
30	0xbf9939fa	-1.1970818
31	0xbf451d37	-0.76997703
32	0xc013c75c	-2.309043
33	0xbfaa5438	-1.3306952
34	0xbe6ce16c	-0.23132867
35	0xc021d3c4	-2.5285501
36	0xbf0d3a70	-0.55167294
37	0xbf7d374e	-0.98912513
38	0xc06a05df	-3.6566083
39	0xbf9ccc14	-1.224978
40	0xbe9837a2	-0.29729944
41	0xbf8b8ec3	-1.0902942
42	0xc030f9f0	-2.765255
43	0xbec8dc20	-0.39230442
44	0xc05df574	-3.4681063
45	0xc0024955	-2.0357258
46	0xbeb3cdf1	-0.35118058
47	0xc01e2a03	-2.4713142
48	0xbdd19c1c	-0.102348536
49	0x3fdb00e6	1.7109649
50	0xbfb606e7	-1.4220856
51	0x3f580d95	0.84395725
52	0x3f6d9f44	0.92821145
53	0xc0521aca	-3.282885
54	0xbdfe58ed	-0.12419305
55	0xbe682f43	-0.22674279
56	0xbfbdcc85	-1.482804
57	0xbf8a618c	-1.0811019
58	0xbf0e727e	-0.5564345
59	0xbf619c7f	-0.8812942
60	0xc01e947b	-2.4778125
61	0xbf9ab52a	-1.2086537
62	0xbfffd6dc	-1.9987445
63	0xbf2024c1	-0.6255608
64	0xbfd7c2ea	-1.6856358
65	0x3df280c2	0.11840965
66	0xc00accdb	-2.1687534
67	0x4000fe5a	2.0155244
68	0xc01c71a1	-2.4444354
69	0xbf3ca44b	-0.7368819
70	0xbf0e9a1e	-0.55703914
71	0x3e8aadfd	0.27085868
72	0xbf958c20	-1.1683388
73	0xbf2e5906	-0.6810459
74	0x402d5a72	2.7086453
75	0xbfd4fb0d	-1.6639115
76	0xbf8e0f80	-1.109848
77	0xbfe79f2e	-1.8095453
78	0xc034d025	-2.8252041
79	0xbf241441	-0.64093405
80	0xbfe69621	-1.8014566
81	0xbedbf344	-0.42959034
82	0xbfbbad7b	-1.4662317
83	0xc004e252	-2.0763135
84	0xbfec3f8e	-1.8456895
85	0xbf092a0b	-0.5357978
86	0x3fdaf6a3	1.7106518
87	0xbf9bb077	-1.2163228
88	0x3ec569e5	0.38557354
89	0xbfb2477f	-1.3928069
90	0x3fa73138	1.3061895
91	0x3f22821f	0.634798
92	0xbe6ca258	-0.23108804
93	0xbf3b28d8	-0.731092
94	0xc019116f	-2.391689
95	0xbf3536f7	-0.70786995
96	0xbe41b9f9	-0.18918599
97	0xbfc9d558	-1.5768232
98	0xc02bd216	-2.6846976
99	0xbfa8177c	-1.3132167
100	0xbfb7df27	-1.4364976
101	0xbee13b24	-0.43990433
102	0xc005113e	-2.0791774
103	0xbe324b27	-0.17411481
104	0xbfd24b23	-1.642918
105	0xbfb529ac	-1.4153342
106	0xbe88c122	-0.2670985
107	0xbf62a0a1	-0.8852635
108	0xc01324c6	-2.2991195
109	0xbf6539d7	-0.8954138
110	0xbfdbfe91	-1.7187063
111	0xbeebd152	-0.46058136
112	0xbfcf7e51	-1.6210424
113	0xbebae616	-0.36503667
114	0xbf5cbd64	-0.8622649
115	0x3f5b808f	0.8574304
116	0xbf156b0a	-0.58366454
117	0xbf0ff574	-0.56233907
118	0xbe86e654	-0.263476
119	0x3e0e04b7	0.13868986
120	0xbf448023	-0.7675802
121	0xbf460e98	-0.7736602
122	0xbf9558fe	-1.1667783
123	0xbee79d5f	-0.45237252
124	0xc0072d67	-2.1121461
125	0xbf13b136	-0.5769228
126	0xbf9d8443	-1.2305988
127	0xbfac1102	-1.344269

fc2.weight f4 [128, 128]
0	0xbcf0a9c6	-0.02937783
1	0xbd5b31a0	-0.053514123
2	0xbbc7bb16	-0.0060953004
3	0xbcb2d7c7	-0.021831406
4	0x3c26d644	0.010182921
5	0x3bf4ecaf	0.007474504
6	0x3d75ed2a	0.06004063
7	0xbd64568a	-0.055746593
8	0xbbd0fb6c	-0.006377628
9	0xbdc7d7b1	-0.09757937
10	0xbd331ebe	-0.04373049
11	0xbc205b7b	-0.009787436
12	0xbd9204a3	-0.07129791
13	0xbd172b77	-0.036906686
14	0xbc674588	-0.014115699
15	0xbd9d8a57	-0.07692402
16	0xbdbae250	-0.09125197
17	0xbcab0cca	-0.020880122
18	0xbc15e8ff	-0.009149789
19	0xbda2bbcf	-0.07945978
20	0xbc05a769	-0.0081575895
21	0xbda2f650	-0.07957137
22	0xbcca11d4	-0.024666704
23	0xbe07ff24	-0.13280922
24	0xbc6680b0	-0.014068767
25	0xbbb8e69d	-0.0056427256
26	0xbacdc804	-0.0015699868
27	0xbdbdaaae	-0.0926107
28	0xbd946ce5	-0.072473325
29	0x3d606ed0	0.05479318
30	0x3c109f9a	0.0088271145
31	0xbd814130	-0.06311262
32	0xbde22873	-0.11042871
33	0x3d4fd5f1	0.05074114
34	0xbd672fdd	-0.05644213
35	0xbd03705b	-0.032089572
36	0x3d518a29	0.05115715
37	0xbd69cfa4	-0.057082787
38	0xbc4f5970	-0.012655601
39	0xbda3cfa2	-0.07998587
40	0x3c095352	0.0083816815
41	0xbe00a7ec	-0.12564057
42	0xbdcfe141	-0.10150386
43	0xbd97b2e2	-0.07407166
44	0xbdc276d5	-0.09495322
45	0xbe0a559c	-0.1350922
46	0xbceddc8d	-0.02903583
47	0xbb100b0f	-0.0021979248
48	0xbd43d8eb	-0.04781429
49	0xbdcf9774	-0.10136309
50	0xbc151ec6	-0.009101575
51	0x3ca5a8fc	0.02022218
52	0xbd1fb8d5	-0.03899463
53	0x3d9ce1bc	0.07660243
54	0x3c91706f	0.017753808
55	0x3cd89fea	0.02644344
56	0xbc0bd682	-0.008535029
57	0xbd931e37	-0.071834974
58	0xbdbbc26e	-0.09167944
59	0xbdab73d3	-0.08371701
60	0xbc0c37f3	-0.008558261
61	0xbd3c771c	-0.04601203
62	0xbbab528d	-0.0052283467
63	0xbcdcc015	-0.02694706
64	0xbe2d6c65	-0.1693588
65	0xbe2c95b2	-0.16853979
66	0xbdd43b90	-0.10362923
67	0x3ccdf4fa	0.025141228
68	0xbda829fb	-0.08211132
69	0xbb721d15	-0.0036943604
70	0xbd5e509c	-0.054276094
71	0xbd744020	-0.059631467
72	0xbd190c96	-0.03736552
73	0x3c75e093	0.015007156
74	0xbbfabd48	-0.0076519586
75	0x3cb40d77	0.021979077
76	0xbdc1c806	-0.094619796
77	0x3b4e6f51	0.0031499455
78	0xbdee39c4	-0.11632112
79	0x3bd892e7	0.006609309
80	0xbd914652	-0.07093491
81	0xbdf4344f	-0.119240396
82	0x3d60628a	0.054781474
83	0x3d88c6dc	0.066785544
84	0x3d0503ea	0.032474436
85	0xbdfd60f7	-0.1237201
86	0xbdeddded	-0.116145946
87	0xbbf17d0d	-0.0073696435
88	0xbceb36da	-0.028712679
89	0xbbfcbbc0	-0.007712811
90	0xbdc13f3b	-0.094358884
91	0x3d24d37a	0.040240742
92	0x3d016855	0.03159364
93	0xbd831383	-0.06400206
94	0x3d484d27	0.048901703
95	0xbc246d62	-0.0100358445
96	0xbd3bb5a9	-0.04582754
97	0x3c2ca553	0.010537463
98	0x3c30ec68	0.010798551
99	0xbd2260ad	-0.03964298
100	0xbc118b26	-0.008883273
101	0xbc18101f	-0.009281187
102	0xbd12f431	-0.03587741
103	0xbe13e401	-0.14442445
104	0xbc7eb205	-0.015545373
105	0xbd386804	-0.045021072
106	0xbc80fe8d	-0.01574638
107	0xbdbb5a85	-0.091481246
108	0x3c184e9a	0.009296084
109	0xbde42078	-0.111390054
110	0xbdc7aa02	-0.09749223
111	0xbd3a10e5	-0.045426268
112	0xbc7bf2ff	-0.015377759
113	0x3d2fee2c	0.042951748
114	0xbd120fa4	-0.035659447
115	0xbddadd39	-0.10686726
116	0xbcc8380e	-0.024440791
117	0x3b8b19fc	0.004245041
118	0xbd312866	-0.043251418
119	0x3d38daa9	0.045130406
120	0xbd657df5	-0.056028325
121	0xbda6a422	-0.081367746
122	0x3c022316	0.007942935
123	0xbdbfcc13	-0.09365096
124	0xbbf9adad	-0.0076195807
125	0xbda0ced5	-0.0785195
126	0x3ce68ef4	0.028144337
127	0xbcb65878	-0.022258982
128	0xbd0e3948	-0.034722596
129	0x3d00a6a9	0.03140894
130	0xbc80b0dd	-0.015709335
131	0xbde32ad1	-0.11092151
132	0x3cb2ad12	0.021811042
133	0x3a36fab4	0.00069801067
134	0xbdf3a74c	-0.11897144
135	0xbdfe70f3	-0.12423887
136	0x3c950dff	0.01819515
137	0xbcc04844	-0.023471959
138	0xbd369279	-0.04457328
139	0xbd8ebe29	-0.06969864
140	0x3cc69bfe	0.024244305
141	0xbdee83b4	-0.11646214
142	0xbdc6edf7	-0.09713357
143	0xbdb26772	-0.08711137
144	0xbdc7e040	-0.09759569
145	0xbd1b53ad	-0.037921596
146	0xbdd7850f	-0.10523426
147	0xbdad811b	-0.084718905
148	0x3d2b8fae	0.04188507
149	0x3cbdab65	0.023153016
150	0x3b660deb	0.003510351
151	0xbc8e0908	-0.01733829
152	0xbe13ffd0	-0.14453053
153	0x3d9113d2	0.070838585
154	0x3cd58791	0.02606562
155	0xb9d30ee6	-0.00040256156
156	0xbd5d22bf	-0.053988215
157	0xbc42bb2b	-0.011885445
158	0xbdb8750e	-0.090067014
159	0xbd86858c	-0.06568441
160	0x3d1e08ae	0.038582496
161	0x3c573669	0.013135531
162	0x3ae07382	0.0017124268
163	0x3cbfef40	0.023429513
164	0xbd736931	-0.05942649
165	0xbcdd972f	-0.027049629
166	0xbda46bda	-0.080283836
167	0x3d6ab64e	0.057302766
168	0xbd9429a9	-0.072345085
169	0xbd237bfd	-0.039913166
170	0x3bf5afc8	0.0074977614
171	0xbd620333	-0.055178832
172	0xbc83722c	-0.016045652
173	0xbd262708	-0.040564567
174	0xbd1ef04f	-0.038803395
175	0xbcfea602	-0.031085018
176	0x3c0b21cc	0.0084919445
177	0xbe0dd171	-0.13849427
178	0xba44baeb	-0.00075046596
179	0xbb45fcfb	-0.0030210603
180	0x3d10a293	0.035311293
181	0xbd995573	-0.07487001
182	0xbcf56bda	-0.029958654
183	0xbd01bce8	-0.031674296
184	0xbc8bbc4a	-0.017057557
185	0x3baac056	0.0052109165
186	0xbdd9b723	-0.10630634
187	0xbdb56dfa	-0.08858867
188	0xbc3ebfb0	-0.011642382
189	0xbddbfe7c	-0.107418984
190	0xbd9444a2	-0.07239653
191	0xbd2b8157	-0.041871395
192	0xbddcaa7c	-0.10774705
193	0xbc65da8e	-0.014029158
194	0xbcb210cc	-0.021736525
195	0xbd22292d	-0.03959005
196	0xbc41a349	-0.011818715
197	0xbdb749bb	-0.0894961
198	0xbe085f39	-0.13317575
199	0xbda0d595	-0.078532375
200	0xbda66a93	-0.08125796
201	0x3c7fb751	0.015607671
202	0xbddbeaf1	-0.10738171
203	0xbd7ec239	-0.062196944
204	0xbe13d95f	-0.14438389
205	0xbd9d9d84	-0.07696059
206	0xbcc86ce4	-0.024465986
207	0xbcc52443	-0.024065142
208	0xbd90636a	-0.07050212
209	0xbd33589d	-0.04378568
210	0xbd7d0875	-0.061775643
211	0x3c39f7b4	0.011350561
212	0xbd5d3999	-0.054010008
213	0xbdea2dad	-0.11434493
214	0xbe1c6dab	-0.1527621
215	0x3d09577f	0.03353071
216	0xbc7e5ac1	-0.015524567
217	0x3cb8f303	0.022576815
218	0xbcfe42e8	-0.031037763
219	0x3bd98a31	0.006638788
220	0xbca9e393	-0.020738399
221	0xbe6175e3	-0.22017626
222	0xbc95fa92	-0.018307958
223	0xbd903061	-0.070404775
224	0x3dcdcad3	0.10048451
225	0xbdcd9b40	-0.10039377
226	0xbe3735a9	-0.17891563
227	0x3ca67aa1	0.020322146
228	0x3d76528d	0.06013732
229	0xbdd53021	-0.104095705
230	0xbe054777	-0.13015543
231	0xbe05953d	-0.13045211
232	0xbcdb376f	-0.026759831
233	0xbddb2b1e	-0.10701583
234	0xbc2e725c	-0.010647383
235	0xbd906a53	-0.0705153
236	0xbbb64ee4	-0.0055636037
237	0xbd978f48	-0.074003756
238	0xbddb94ad	-0.10721717
239	0xbd5e3825	-0.054252762
240	0xbe0e6edc	-0.13909477
241	0xbdfd76a1	-0.12376142
242	0x3c505600	0.0127158165
243	0xbcf07049	-0.029350417
244	0x3beab268	0.007162381
245	0xbd363b2d	-0.04449003
246	0x3cd147d6	0.02554695
247	0xbd930e46	-0.07180457
248	0xbdee9af8	-0.11650652
249	0xbd8e0c90	-0.0693599
250	0xbdc2b7a8	-0.09507686
251	0xbd81bfa7	-0.06335383
252	0xbd014a46	-0.031564973
253	0xbaa795d7	-0.0012785745
254	0xbcb0457f	-0.021517513
255	0xbd97f51f	-0.074198

fc2.bias f4 [128]
0	0xbe23d8ca	-0.16000667
1	0xbe2c41fd	-0.16822048
2	0xbe3a181b	-0.18173258
3	0xbdb60558	-0.08887738
4	0xbd9ba87d	-0.07600496
5	0xbd1b8362	-0.037967093
6	0xbe140285	-0.14454086
7	0xbe02d0a4	-0.12774903
8	0xbe1744dd	-0.14772363
9	0xbe65d7e6	-0.2244564
10	0xbe408094	-0.18799049
11	0xbe35e775	-0.17764075
12	0xbdb051d6	-0.08609359
13	0xbe7ee13d	-0.24890609
14	0xbe046d9c	-0.12932438
15	0xbe707686	-0.23482713
16	0xbd8bb3a7	-0.06821375
17	0xbdbf3506	-0.09336285
18	0xbe61cc63	-0.22050624
19	0xbd4d1510	-0.050068915
20	0xbe6656de	-0.22494075
21	0xbd0f83f1	-0.03503794
22	0xbe61f093	-0.22064428
23	0xbdf37c5e	-0.118889555
24	0xbe41cba2	-0.18925336
25	0xbe10e4a5	-0.14149721
26	0xbe97295c	-0.29523742
27	0xbe4df0d6	-0.20111403
28	0xbe8d0fa4	-0.27550995
29	0x3f9574f8	1.1676321
30	0xbd52eb2f	-0.05149382
31	0x3d99c203	0.07507708
32	0xbd17fb6f	-0.03710502
33	0xbe398aad	-0.18119307
34	0xbe3c4967	-0.18387376
35	0xbe2bea2b	-0.16788547
36	0xbe754983	-0.23953824
37	0x3d369b66	0.044581793
38	0xbe80f847	-0.2518942
39	0xbe2d6457	-0.16932808
40	0xbe48d563	-0.1961265
41	0xbe2f75b5	-0.17134745
42	0xbda61ea2	-0.081113115
43	0xbe69d047	-0.22833358
44	0xbdef409b	-0.116822444
45	0xbde9a563	-0.11408498
46	0xbd948457	-0.07251804
47	0xbe3918d1	-0.18075873
48	0xbe2272f6	-0.15864167
49	0xbe41c5ba	-0.18923083
50	0xbd7e2692	-0.062048502
51	0xbe0b0579	-0.13576306
52	0xbdafde52	-0.08587326
53	0xbddaef29	-0.106901474
54	0xbdadfa1b	-0.084949695
55	0xbd831932	-0.0640129
56	0xbe05e9d7	-0.13077484
57	0xbc27b740	-0.010236561
58	0xbe0f475d	-0.13992067
59	0xbe168017	-0.146973
60	0xbe2efcff	-0.17088698
61	0xbe0f4702	-0.13991931
62	0xbdcefc11	-0.101066716
63	0xbdda1eed	-0.1065043
64	0xbe1044e5	-0.14088781
65	0xbd9a5a3d	-0.07536743
66	0xbe0593c9	-0.13044657
67	0xbcd2388c	-0.02566173
68	0xbdc71325	-0.097204484
69	0xbdfad480	-0.122475624
70	0xbe51e79c	-0.20498508
71	0xbe393e04	-0.18090063
72	0xbe3df477	-0.18550287
73	0xbe3336d0	-0.17501378
74	0xbdc05b5b	-0.09392425
75	0xbdb29dcd	-0.08721504
76	0xbdc1ec0f	-0.09468853
77	0xbe49e4d2	-0.19716194
78	0xbe1128ab	-0.1417567
79	0xbdc3f9bc	-0.095691174
80	0xbddc9e7d	-0.10772417
81	0xbda6d354	-0.081457764
82	0xbd8a1e72	-0.06744088
83	0xbe141cd2	-0.14464119
84	0xbe1d0f97	-0.15337978
85	0xbd9d33ee	-0.076759204
86	0xbdb5a270	-0.08868873
87	0xbe184974	-0.1487177
88	0xbdde6049	-0.10858209
89	0x3ec100d8	0.37695956
90	0xbd9d3baf	-0.07677399
91	0xbdd464b7	-0.10370772
92	0xbe2211d8	-0.1582712
93	0xbde233c3	-0.11045029
94	0xbe6eba4b	-0.23313253
95	0xbdf63dbd	-0.120234944
96	0xbe694591	-0.22780444
97	0xbe59441a	-0.21217385
98	0xbe274b8e	-0.16337416
99	0xbe1e3573	-0.15450077
100	0xbe0e68b4	-0.13907129
101	0xbe366e45	-0.17815502
102	0xbdb7eaae	-0.089803085
103	0xbe57a5f8	-0.21059406
104	0xbdc61e83	-0.096737884
105	0xbe0a00ab	-0.13476817
106	0xbe397a27	-0.18113004
107	0xbdcfacbd	-0.10140369
108	0xbe4a3aad	-0.19748946
109	0xbe5da147	-0.21643554
110	0xbe4927ad	-0.19644041
111	0xbf1b5d2c	-0.60689044
112	0xbe2d80a9	-0.16943611
113	0xbe6ac52b	-0.22926776
114	0xbdb89d99	-0.09014434
115	0xbdb51600	-0.08842087
116	0xbde82e06	-0.11336903
117	0x4009e185	2.1543896
118	0xbdaeb949	-0.08531434
119	0xbe612697	-0.21987377
120	0xbf2e005f	-0.67969316
121	0xbe39e589	-0.18153967
122	0xbddef075	-0.10885707
123	0xbe41eee1	-0.18938781
124	0xbd0501dd	-0.03247248
125	0xbe27b8b9	-0.1637906
126	0xbdc04aa0	-0.093892336
127	0xbe54d595	-0.207846

fc3.weight f4 [1, 128]
0	0xbb3fcb87	-0.00292656
1	0xbbf304e6	-0.0074163554
2	0xbbdf190d	-0.006808406
3	0xbc819192	-0.015816484
4	0xbcf0c8df	-0.029392658
5	0xbc936300	-0.017991543
6	0xbcf8f0fe	-0.030388352
7	0x3c222f9d	0.009899047
8	0x3c896791	0.016773017
9	0xba977136	-0.0011554125
10	0x3cd8d6a3	0.026469534
11	0x3ce2a7de	0.027667936
12	0x3cc5d411	0.024148973
13	0xbbbf308c	-0.0058346447
14	0x3bdc2dee	0.0067193424
15	0x3c458ae9	0.012057045
16	0x3c706007	0.014671332
17	0xbe12549f	-0.14290093
18	0x3c873f4d	0.016509676
19	0xbc38f8fc	-0.011289831
20	0xbc8d6d13	-0.017263925
21	0x3c449162	0.011997553
22	0x3d8d2759	0.068922706
23	0xbcc331dd	-0.023827488
24	0xbc5716e9	-0.013128021
25	0x3d003e56	0.03130945
26	0xbb53105d	-0.0032205798
27	0xbb1d0bba	-0.0023963288
28	0xbc418daa	-0.0118135605
29	0xbc83b63c	-0.016078107
30	0xbc06de33	-0.008231687
31	0x3d063c29	0.032772217
32	0x3c125b3b	0.008932884
33	0x3c90a3d0	0.017656237
34	0x3c620a91	0.013796465
35	0xbcb9ce7d	-0.02268147
36	0x3cf615eb	0.030039748
37	0x3d2f969a	0.042868234
38	0xbbad7320	-0.005293265
39	0xbc8d3f5e	-0.01724213
40	0xbb49d9ab	-0.0030799906
41	0xbcdf5e67	-0.027266694
42	0xbc81d0d1	-0.015846642
43	0x3ba657d4	0.005076388
44	0xbc8fe963	-0.017567342
45	0x3cbb9528	0.022898272
46	0x3c929477	0.01789306
47	0xbc28b75a	-0.010297621
48	0xba387757	-0.0007036826
49	0xbcb27ade	-0.021787103
50	0xbca48751	-0.020084055
51	0x3ccf0e12	0.025275264
52	0x3c69e18d	0.014274967
53	0xbcfd5f43	-0.030929213
54	0xbb8ff3d9	-0.0043930826
55	0xbd3230a4	-0.04350342
56	0x3bb82b02	0.0056203613
57	0xbc895c7f	-0.016767738
58	0xbbce05c4	-0.0062873084
59	0x3c5e0945	0.013552015
60	0xbaad01ac	-0.0013199351
61	0xbc5270ec	-0.0128443055
62	0x3af6e6c0	0.0018837079
63	0x3d596ffd	0.053085316
64	0x3c96eaf4	0.018422581
65	0xbcab04d5	-0.020876328
66	0xbbb93f98	-0.005653333
67	0xbc8192b0	-0.015817016
68	0xbca81807	-0.02051927
69	0xbc58ce7c	-0.013232823
70	0x3c1ea99d	0.009683994
71	0x3c9a019a	0.018799592
72	0x3b78de89	0.0037974438
73	0xbc34e081	-0.011039854
74	0x3cb25307	0.021768106
75	0xbc26879f	-0.0101641705
76	0x3a20538c	0.0006115965
77	0x3b38dfa9	0.0028209484
78	0x3c19dc04	0.009390835
79	0x3d0adbe5	0.033901114
80	0x3c8fdd83	0.01756168
81	0xba250796	-0.0006295381
82	0x3b93f418	0.004515182
83	0x3b8e1319	0.0043357727
84	0x3b03ec19	0.002012974
85	0x3c2df81a	0.010618234
86	0xbc889d95	-0.016676703
87	0xbbd83b8f	-0.006598897
88	0xbc81bf52	-0.015838299
89	0x3c1482ec	0.009064417
90	0xbb51b9f5	-0.0032001708
91	0x3ce0164d	0.027354384
92	0x3cc7875a	0.024356533
93	0x3be52777	0.00699323
94	0xb8a13fd2	-7.688966e-05
95	0x3cf9addd	0.030478412
96	0x3b44f970	0.0030055903
97	0x3ca8e5be	0.020617362
98	0x3c8750ea	0.016518075
99	0xbcc6dc1b	-0.024274876
100	0x3cdb143b	0.026743045
101	0x3bc2a53f	0.005940109
102	0x3b6fc075	0.003658322
103	0xbc944db1	-0.018103452
104	0x3c36e961	0.01116404
105	0xbc411d7f	-0.011786818
106	0xbd25ae63	-0.04044951
107	0x3c84bc61	0.016203107
108	0xbb67d02a	-0.0035371878
109	0x3b8f56b6	0.0043743504
110	0xbb9baa36	-0.0047505153
111	0xbbd4d449	-0.006495033
112	0x3bf1fe1c	0.0073850285
113	0x3cf5245c	0.029924564
114	0xbb843258	-0.0040343218
115	0x3b28f67c	0.0025781682
116	0x3cfc5abe	0.030804988
117	0x3c6bf969	0.014402726
118	0x3c0652cc	0.008198451
119	0x3c2ca991	0.010538475
120	0xbc931655	-0.017954985
121	0xbcad59cd	-0.021160984
122	0xbb08ac4c	-0.002085465
123	0x3c93f389	0.018060463
124	0x3cee7132	0.02910671
125	0x3b9f5045	0.004861864
126	0x3c4b0c7f	0.012393116
127	0xbc97ef3c	-0.018546693

b1.weight f4 [128]
0	0x3da1dee8	0.07903844
1	0x3ec49680	0.38396072
2	0x3f27e64f	0.655858
3	0x3d79b030	0.06095904
4	0x3f62dae5	0.88615257
5	0x3f5f0007	0.87109417
6	0x3e234238	0.15943229
7	0x3f0c478a	0.5479666
8	0x3de45248	0.111485064
9	0x3c537000	0.012905121
10	0x3f1b459d	0.60653096
11	0x3d8bb6b8	0.0682196
12	0x3e34adb4	0.17644387
13	0x3f44d791	0.7689143
14	0x3f63520c	0.8879707
15	0x3f5c4471	0.86041933
16	0x3f5f47b5	0.8721879
17	0x3f65d1a6	0.89773023
18	0x3f222aa2	0.633463
19	0x3f26088b	0.64856786
20	0x3f1e2c21	0.61786085
21	0x3f7fa81f	0.9986591
22	0x3f2ee618	0.68319845
23	0x3f76c3ba	0.96392405
24	0x3c76a800	0.015054703
25	0x3f0c329e	0.54764736
26	0x3ec74d00	0.38925934
27	0x3f1abe35	0.6044648
28	0x3f39011b	0.7226731
29	0x3f2ab93e	0.6668891
30	0x3f6fb533	0.93635863
31	0x3f5d67d3	0.8648655
32	0x3f2ab9c5	0.6668971
33	0x3f18a644	0.596287
34	0x3f56cb7e	0.83904254
35	0x3befc980	0.007317722
36	0x3dcf3c48	0.101189196
37	0x3f4dc2cd	0.8037537
38	0x3cc84560	0.024447143
39	0x3e0a8658	0.1352781
40	0x3d0de910	0.034646094
41	0x3ed1faee	0.41011757
42	0x3d2ec2c0	0.042666197
43	0x3f32b03f	0.6980018
44	0x3f2f2e0c	0.68429637
45	0x3f7d1f26	0.98875654
46	0x3f456b9a	0.7711731
47	0x3c11e800	0.008905411
48	0x3f4e3d73	0.80562514
49	0x3d8783a0	0.06616902
50	0x3e7ba45c	0.24574417
51	0x3f3d5087	0.73951
52	0x3e5a8ddc	0.21343178
53	0x3f1f3bba	0.6220051
54	0x3e5f8940	0.218297
55	0x3f4dc4f7	0.8037867
56	0x3e62c418	0.22145116
57	0x3f5a0311	0.8516093
58	0x3f5461b0	0.8296156
59	0x3f0273c7	0.5095791
60	0x3f2ae500	0.66755676
61	0x3f0a2377	0.53960365
62	0x3f419d1a	0.7563034
63	0x3dfe0558	0.12403363
64	0x3f6ca1b4	0.9243424
65	0x3d98b090	0.074555516
66	0x3f734547	0.95027584
67	0x3f330cc5	0.6994136
68	0x3e736104	0.23767477
69	0x3f17b315	0.5925763
70	0x3cab1aa0	0.02088672
71	0x3c002c80	0.00782311
72	0x3ee88122	0.4541102
73	0x3e542c24	0.20719963
74	0x3f092703	0.5357515
75	0x3eb01da0	0.34397602
76	0x3f7622d4	0.96146894
77	0x3dfce5e0	0.12348533
78	0x3f23aa08	0.6393132
79	0x3f1db988	0.61611223
80	0x3e263110	0.16229653
81	0x3e693a5c	0.22776169
82	0x3f242823	0.64123744
83	0x3e7c0500	0.24611282
84	0x3e2732ec	0.16328019
85	0x3f173d8e	0.590783
86	0x3f451a92	0.7699367
87	0x3e85d940	0.2614231
88	0x3f272169	0.65285355
89	0x3ca342c0	0.01992929
90	0x3f4b1ca0	0.79340553
91	0x3f4307f4	0.7618401
92	0x3ebf76b2	0.37395245
93	0x3dc58708	0.09644896
94	0x3f34229b	0.70365304
95	0x3f119fdd	0.56884557
96	0x3f55e5a4	0.8355353
97	0x3e3c38cc	0.18381041
98	0x3e878eec	0.26476228
99	0x3f692100	0.9106598
100	0x3e5f39c4	0.2179938
101	0x3e6400b4	0.22265893
102	0x3f6d06f2	0.9258872
103	0x3eb44af6	0.3521344
104	0x3eb5299a	0.35383302
105	0x3f37b954	0.71767163
106	0x3f31f298	0.69510794
107	0x3f7502a7	0.9570717
108	0x3df3fa20	0.11912942
109	0x3e97dbc6	0.2965986
110	0x3f654536	0.8955873
111	0x3f5c857d	0.86141187
112	0x3f260bbf	0.64861673
113	0x3f101c8f	0.56293577
114	0x3f6953a7	0.9114327
115	0x3d61bde0	0.05511272
116	0x3f4b7546	0.7947582
117	0x3c939920	0.018017352
118	0x3f570a75	0.8400033
119	0x3d016f90	0.031600535
120	0x3e980ef8	0.2969892
121	0x3e857f20	0.2607355
122	0x3ecd7fea	0.40136653
123	0x3f6d26bc	0.9263723
124	0x3f0efce1	0.5585461
125	0x3dfd23c8	0.1236034
126	0x3f13c4c3	0.5772211
127	0x3cd95440	0.026529431

b1.bias f4 [128]
0	0x00000000	0.0
1	0x00000000	0.0
2	0x00000000	0.0
3	0x00000000	0.0
4	0x00000000	0.0
5	0x00000000	0.0
6	0x00000000	0.0
7	0x00000000	0.0
8	0x00000000	0.0
9	0x00000000	0.0
10	0x00000000	0.0
11	0x00000000	0.0
12	0x00000000	0.0
13	0x00000000	0.0
14	0x00000000	0.0
15	0x00000000	0.0
16	0x00000000	0.0
17	0x00000000	0.0
18	0x00000000	0.0
19	0x00000000	0.0
20	0x00000000	0.0
21	0x00000000	0.0
22	0x00000000	0.0
23	0x00000000	0.0
24	0x00000000	0.0
25	0x00000000	0.0
26	0x00000000	0.0
27	0x00000000	0.0
28	0x00000000	0.0
29	0x00000000	0.0
30	0x00000000	0.0
31	0x00000000	0.0
32	0x00000000	0.0
33	0x00000000	0.0
34	0x00000000	0.0
35	0x00000000	0.0
36	0x00000000	0.0
37	0x00000000	0.0
38	0x00000000	0.0
39	0x00000000	0.0
40	0x00000000	0.0
41	0x00000000	0.0
42	0x00000000	0.0
43	0x00000000	0.0
44	0x00000000	0.0
45	0x00000000	0.0
46	0x00000000	0.0
47	0x00000000	0.0
48	0x00000000	0.0
49	0x00000000	0.0
50	0x00000000	0.0
51	0x00000000	0.0
52	0x00000000	0.0
53	0x00000000	0.0
54	0x00000000	0.0
55	0x00000000	0.0
56	0x00000000	0.0
57	0x00000000	0.0
58	0x00000000	0.0
59	0x00000000	0.0
60	0x00000000	0.0
61	0x00000000	0.0
62	0x00000000	0.0
63	0x00000000	0.0
64	0x00000000	0.0
65	0x00000000	0.0
66	0x00000000	0.0
67	0x00000000	0.0
68	0x00000000	0.0
69	0x00000000	0.0
70	0x00000000	0.0
71	0x00000000	0.0
72	0x00000000	0.0
73	0x00000000	0.0
74	0x00000000	0.0
75	0x00000000	0.0
76	0x00000000	0.0
77	0x00000000	0.0
78	0x00000000	0.0
79	0x00000000	0.0
80	0x00000000	0.0
81	0x00000000	0.0
82	0x00000000	0.0
83	0x00000000	0.0
84	0x00000000	0.0
85	0x00000000	0.0
86	0x00000000	0.0
87	0x00000000	0.0
88	0x00000000	0.0
89	0x00000000	0.0
90	0x00000000	0.0
91	0x00000000	0.0
92	0x00000000	0.0
93	0x00000000	0.0
94	0x00000000	0.0
95	0x00000000	0.0
96	0x00000000	0.0
97	0x00000000	0.0
98	0x00000000	0.0
99	0x00000000	0.0
100	0x00000000	0.0
101	0x00000000	0.0
102	0x00000000	0.0
103	0x00000000	0.0
104	0x00000000	0.0
105	0x00000000	0.0
106	0x00000000	0.0
107	0x00000000	0.0
108	0x00000000	0.0
109	0x00000000	0.0
110	0x00000000	0.0
111	0x00000000	0.0
112	0x00000000	0.0
113	0x00000000	0.0
114	0x00000000	0.0
115	0x00000000	0.0
116	0x00000000	0.0
117	0x00000000	0.0
118	0x00000000	0.0
119	0x00000000	0.0
120	0x00000000	0.0
121	0x00000000	0.0
122	0x00000000	0.0
123	0x00000000	0.0
124	0x00000000	0.0
125	0x00000000	0.0
126	0x00000000	0.0
127	0x00000000	0.0

b1.running_mean f4 [128]
0	0x00000000	0.0
1	0x00000000	0.0
2	0x00000000	0.0
3	0x00000000	0.0
4	0x00000000	0.0
5	0x00000000	0.0
6	0x00000000	0.0
7	0x00000000	0.0
8	0x00000000	0.0
9	0x00000000	0.0
10	0x00000000	0.0
11	0x00000000	0.0
12	0x00000000	0.0
13	0x00000000	0.0
14	0x00000000	0.0
15	0x00000000	0.0
16	0x00000000	0.0
17	0x00000000	0.0
18	0x00000000	0.0
19	0x00000000	0.0
20	0x00000000	0.0
21	0x00000000	0.0
22	0x00000000	0.0
23	0x00000000	0.0
24	0x00000000	0.0
25	0x00000000	0.0
26	0x00000000	0.0
27	0x00000000	0.0
28	0x00000000	0.0
29	0x00000000	0.0
30	0x00000000	0.0
31	0x00000000	0.0
32	0x00000000	0.0
33	0x00000000	0.0
34	0x00000000	0.0
35	0x00000000	0.0
36	0x00000000	0.0
37	0x00000000	0.0
38	0x00000000	0.0
39	0x00000000	0.0
40	0x00000000	0.0
41	0x00000000	0.0
42	0x00000000	0.0
43	0x00000000	0.0
44	0x00000000	0.0
45	0x00000000	0.0
46	0x00000000	0.0
47	0x00000000	0.0
48	0x00000000	0.0
49	0x00000000	0.0
50	0x00000000	0.0
51	0x00000000	0.0
52	0x00000000	0.0
53	0x00000000	0.0
54	0x00000000	0.0
55	0x00000000	0.0
56	0x00000000	0.0
57	0x00000000	0.0
58	0x00000000	0.0
59	0x00000000	0.0
60	0x00000000	0.0
61	0x00000000	0.0
62	0x00000000	0.0
63	0x00000000	0.0
64	0x00000000	0.0
65	0x00000000	0.0
66	0x00000000	0.0
67	0x00000000	0.0
68	0x00000000	0.0
69	0x00000000	0.0
70	0x00000000	0.0
71	0x00000000	0.0
72	0x00000000	0.0
73	0x00000000	0.0
74	0x00000000	0.0
75	0x00000000	0.0
76	0x00000000	0.0
77	0x00000000	0.0
78	0x00000000	0.0
79	0x00000000	0.0
80	0x00000000	0.0
81	0x00000000	0.0
82	0x00000000	0.0
83	0x00000000	0.0
84	0x00000000	0.0
85	0x00000000	0.0
86	0x00000000	0.0
87	0x00000000	0.0
88	0x00000000	0.0
89	0x00000000	0.0
90	0x00000000	0.0
91	0x00000000	0.0
92	0x00000000	0.0
93	0x00000000	0.0
94	0x00000000	0.0
95	0x00000000	0.0
96	0x00000000	0.0
97	0x00000000	0.0
98	0x00000000	0.0
99	0x00000000	0.0
100	0x00000000	0.0
101	0x00000000	0.0
102	0x00000000	0.0
103	0x00000000	0.0
104	0x00000000	0.0
105	0x00000000	0.0
106	0x00000000	0.0
107	0x00000000	0.0
108	0x00000000	0.0
109	0x00000000	0.0
110	0x00000000	0.0
111	0x00000000	0.0
112	0x00000000	0.0
113	0x00000000	0.0
114	0x00000000	0.0
115	0x00000000	0.0
116	0x00000000	0.0
117	0x00000000	0.0
118	0x00000000	0.0
119	0x00000000	0.0
120	0x00000000	0.0
121	0x00000000	0.0
122	0x00000000	0.0
123	0x00000000	0.0
124	0x00000000	0.0
125	0x00000000	0.0
126	0x00000000	0.0
127	0x00000000	0.0

b1.running_var f4 [128]
0	0x3f800000	1.0
1	0x3f800000	1.0
2	0x3f800000	1.0
3	0x3f800000	1.0
4	0x3f800000	1.0
5	0x3f800000	1.0
6	0x3f800000	1.0
7	0x3f800000	1.0
8	0x3f800000	1.0
9	0x3f800000	1.0
10	0x3f800000	1.0
11	0x3f800000	1.0
12	0x3f800000	1.0
13	0x3f800000	1.0
14	0x3f800000	1.0
15	0x3f800000	1.0
16	0x3f800000	1.0
17	0x3f800000	1.0
18	0x3f800000	1.0
19	0x3f800000	1.0
20	0x3f800000	1.0
21	0x3f800000	1.0
22	0x3f800000	1.0
23	0x3f800000	1.0
24	0x3f800000	1.0
25	0x3f800000	1.0
26	0x3f800000	1.0
27	0x3f800000	1.0
28	0x3f800000	1.0
29	0x3f800000	1.0
30	0x3f800000	1.0
31	0x3f800000	1.0
32	0x3f800000	1.0
33	0x3f800000	1.0
34	0x3f800000	1.0
35	0x3f800000	1.0
36	0x3f800000	1.0
37	0x3f800000	1.0
38	0x3f800000	1.0
39	0x3f800000	1.0
40	0x3f800000	1.0
41	0x3f800000	1.0
42	0x3f800000	1.0
43	0x3f800000	1.0
44	0x3f800000	1.0
45	0x3f800000	1.0
46	0x3f800000	1.0
47	0x3f800000	1.0
48	0x3f800000	1.0
49	0x3f800000	1.0
50	0x3f800000	1.0
51	0x3f800000	1.0
52	0x3f800000	1.0
53	0x3f800000	1.0
54	0x3f800000	1.0
55	0x3f800000	1.0
56	0x3f800000	1.0
57	0x3f800000	1.0
58	0x3f800000	1.0
59	0x3f800000	1.0
60	0x3f800000	1.0
61	0x3f800000	1.0
62	0x3f800000	1.0
63	0x3f800000	1.0
64	0x3f800000	1.0
65	0x3f800000	1.0
66	0x3f800000	1.0
67	0x3f800000	1.0
68	0x3f800000	1.0
69	0x3f800000	1.0
70	0x3f800000	1.0
71	0x3f800000	1.0
72	0x3f800000	1.0
73	0x3f800000	1.0
74	0x3f800000	1.0
75	0x3f800000	1.0
76	0x3f800000	1.0
77	0x3f800000	1.0
78	0x3f800000	1.0
79	0x3f800000	1.0
80	0x3f800000	1.0
81	0x3f800000	1.0
82	0x3f800000	1.0
83	0x3f800000	1.0
84	0x3f800000	1.0
85	0x3f800000	1.0
86	0x3f800000	1.0
87	0x3f800000	1.0
88	0x3f800000	1.0
89	0x3f800000	1.0
90	0x3f800000	1.0
91	0x3f800000	1.0
92	0x3f800000	1.0
93	0x3f800000	1.0
94	0x3f800000	1.0
95	0x3f800000	1.0
96	0x3f800000	1.0
97	0x3f800000	1.0
98	0x3f800000	1.0
99	0x3f800000	1.0
100	0x3f800000	1.0
101	0x3f800000	1.0
102	0x3f800000	1.0
103	0x3f800000	1.0
104	0x3f800000	1.0
105	0x3f800000	1.0
106	0x3f800000	1.0
107	0x3f800000	1.0
108	0x3f800000	1.0
109	0x3f800000	1.0
110	0x3f800000	1.0
111	0x3f800000	1.0
112	0x3f800000	1.0
113	0x3f800000	1.0
114	0x3f800000	1.0
115	0x3f800000	1.0
116	0x3f800000	1.0
117	0x3f800000	1.0
118	0x3f800000	1.0
119	0x3f800000	1.0
120	0x3f800000	1.0
121	0x3f800000	1.0
122	0x3f800000	1.0
123	0x3f800000	1.0
124	0x3f800000	1.0
125	0x3f800000	1.0
126	0x3f800000	1.0
127	0x3f800000	1.0
