models/Prob_Noise_DeepNet_BufferPlus_Learn_FreqMin_BatchNorm_08/agent_1_actor.pth (torch_old, 302229 bytes, 18 tensors)

bn0.weight f4 [24]
00000000: 00b5 8b3b c034 d83d f259 923e 60d0 dc3c
00000010: 7077 f13e 803c 763d 0099 453f 1563 3e3f
00000020: fd2b 183f 934a 633f 94ed e63e 6bab 4c3f
00000030: e46f 193e 528d cd3e a0e8 5d3d 2a37 eb3e
00000040: dcd1 333e a6fd 723f e0e9 583f 94f6 5f3f
00000050: acf7 253f 74e9 5b3e a705 733f 8063 463c
0.0042635202 0.10556936 0.28584248 0.02695483 0.47161436 0.06011629 0.77186584 0.7436994
0.5944212 0.88785666 0.45103133 0.79949063 0.14984089 0.4014688 0.054176927 0.45940524
0.17560524 0.94918287 0.84731865 0.87485623 0.6483104 0.21475774 0.949305 0.012108684

bn0.bias f4 [24]
00000000: 0000 0000 0000 0000 0000 0000 0000 0000
00000010: 0000 0000 0000 0000 0000 0000 0000 0000
00000020: 0000 0000 0000 0000 0000 0000 0000 0000
00000030: 0000 0000 0000 0000 0000 0000 0000 0000
00000040: 0000 0000 0000 0000 0000 0000 0000 0000
00000050: 0000 0000 0000 0000 0000 0000 0000 0000
0.0 0.0 0.0 0.0 0.0 0.0 0.0 0.0
0.0 0.0 0.0 0.0 0.0 0.0 0.0 0.0
0.0 0.0 0.0 0.0 0.0 0.0 0.0 0.0

bn0.running_mean f4 [24]
00000000: 0000 0000 0000 0000 0000 0000 0000 0000
00000010: 0000 0000 0000 0000 0000 0000 0000 0000
00000020: 0000 0000 0000 0000 0000 0000 0000 0000
00000030: 0000 0000 0000 0000 0000 0000 0000 0000
00000040: 0000 0000 0000 0000 0000 0000 0000 0000
00000050: 0000 0000 0000 0000 0000 0000 0000 0000
0.0 0.0 0.0 0.0 0.0 0.0 0.0 0.0
0.0 0.0 0.0 0.0 0.0 0.0 0.0 0.0
0.0 0.0 0.0 0.0 0.0 0.0 0.0 0.0

bn0.running_var f4 [24]
00000000: 0000 803f 0000 803f 0000 803f 0000 803f
00000010: 0000 803f 0000 803f 0000 803f 0000 803f
00000020: 0000 803f 0000 803f 0000 803f 0000 803f
00000030: 0000 803f 0000 803f 0000 803f 0000 803f
00000040: 0000 803f 0000 803f 0000 803f 0000 803f
00000050: 0000 803f 0000 803f 0000 803f 0000 803f
1.0 1.0 1.0 1.0 1.0 1.0 1.0 1.0
1.0 1.0 1.0 1.0 1.0 1.0 1.0 1.0
1.0 1.0 1.0 1.0 1.0 1.0 1.0 1.0

fc1.weight f4 [256, 24]
00000000: 42cb a63d 6168 f03d 89fc 58bd 4810 693d
00000010: 163c 0c3d 8e9a 7c3b d711 21bc e1db 693c
00000020: 060b 113c 384a 6a3d 4a0f e03c 47e5 fe3d
00000030: 41c6 493e 674b 8cbd 917e 1fbd f567 003e
00000040: e574 d43d 716f fc3d 3744 093d 0bb0 9a3d
00000050: 4247 903e cdfe 05be 60c6 183c 7287 1b3e
00000060: 7d2a 7bbd a9fd 8cbd 5be4 803d 3ad7 f43b
00000070: 8d9d ecbd b03b a93d 1731 3cbd 8b3b af3a
00000080: f597 e0bd 2fd8 02be 4542 cd3c 282b 2b3c
00000090: b0f1 0e3e c2fe 673e c5a2 90bc 3044 51bc
000000a0: ac51 83bd c9cf 06be 0577 5b3c b934 c93c
000000b0: e73b b63e a3d9 343e 5674 8cbc 34b5 643d
000000c0: 4fa9 c53d c0f5 893d 6141 873c aeb1 6a3c
000000d0: 3a15 2bbe a439 28be 37ee 89bc 3e15 2dbd
000000e0: 7070 c03d 7cd0 803d 1585 813d c24d 863d
000000f0: 3b56 8b3d 8089 b3bd 00d4 3ebd 7cac 0e3d
00000100: e5d6 8a3d 318c f93d 9e15 c93d a343 77bc
00000110: 168c f23d 7682 1c3d 7149 ddba 92e0 343c
00000120: 2e69 b93d e396 b0bd 551f 173d 821c b3bd
00000130: 3a5b 1abe ffaf 973d ef8a 563d 3af0 bebd
00000140: d8e0 6d3d 2708 8bbd 407a 253c 203d 463d
00000150: e340 ebbc b3d3 cf3c 71f7 2f3d 2f6f 4a3c
00000160: 2a6d 303d 4490 7abd efbf 2d3d 11c4 253e
00000170: 210d 713d c550 a8bd b978 533d 53fe 243e
00000180: 4031 f8bc 1465 a53d 1ec8 b3bb 706e 553d
00000190: a881 6a3e 583e 283d 9e09 a2bc a4c9 ba3d
000001a0: 34ea c7bd 9514 763d d43e b3bc a748 e1bb
000001b0: 06de b43d df3b c73c 203e 23bd e37e f0ba
000001c0: c436 d0bc 2e94 dcbc 754c 69bc 6af4 62bc
000001d0: 7f6f cdbd 042f 2dbe eb60 cf3b a770 4fbd
000001e0: 1a7d bf3d 546a a0bd d892 3bbd 18b9 e23c
000001f0: a03a 1e3d 3042 4bbe 763f c6bb 8dc2 afbd
00000200: 82ec c73d 5218 18be bdd5 78bc cf13 df3d
00000210: 127f 8abd 606c 2dbe 0194 8a3c af5c e43d
00000220: dc22 753d 0a55 febd 8f01 2dbc aebc 473e
00000230: 2f85 00be ec97 c9bd f811 8c3d f24b 6b3e
00000240: cfa2 42bd d4c0 6e3d e596 6ebc 85bb 02bd
00000250: 54ae 943e 1759 12bd fa31 a03c 3dd3 c5bb
00000260: 6ad6 43bc ee4f c93c 3bc6 37bd 6dc8 43bd
00000270: 6f28 183e 3eef 1d3d 9d6d 443d 3b81 d5bd
00000280: 61c8 bfbd 1202 343c af4f 09bc fa00 963d
00000290: 6a07 cbbd 0c1d 663e c01f 3c3c dd2b f33c
000002a0: f9b1 cdbb ddf2 2dbe 0c57 ab3c e09e c9bd
000002b0: 6be4 423e 752a 00be ff65 09bd 6f0f 6abd
000002c0: b299 29bd e70b 2bbe d19a 323d 70c3 3c3d
000002d0: 4125 fbb8 c4e5 413d cb71 a0bc 2dcf bb3c
000002e0: 06bf aebd cc54 61be 8783 b9bc f3d2 a3bc
000002f0: 3c0c 05be 60b4 813e 7701 61bd 0eab 70bd
00000300: 0787 3f3d a5ba 77be f37f 8fbd 6247 cabb
00000310: 4bea e4bd bee1 adbd d6c1 84bc 2be5 86bd
00000320: 26cb 27bd 25ec 68be 518a 623c 8cf2 e9bd
00000330: aef6 0a3b 3e49 88bd da75 043a 7e72 bcbd
00000340: 4d93 92bd 4f9d 8fbe 3059 a03b 2e10 ff39
00000350: 62c7 d63d 6e94 163e da87 ebbb 2f18 57bb
00000360: 24dd 4b3e 5ee7 b13e 2fc4 3b3d 98ec 51bd
00000370: e84d 633e c07a 7dbd 936a ddbc da7e 83bd
00000380: f9e4 e73d 6ac0 9b3e c9b9 4cbd fc73 0cbe
00000390: be36 eb3d 0fb6 1dbd dd6a 263d 1a73 08be
000003a0: fec5 f33d 32e9 9b3e bba0 cbbd bcb3 85bd
000003b0: 1f2c aa3a 6571 953c 76c2 06bd f706 1fbe
000003c0: 48e1 973e ce18 ab3e 9628 1a3c 2427 cd3d
000003d0: 5824 403e 5fad 0bbd c4da 9dbd 88b5 2e3d
000003e0: 6528 1d3e 37a3 ad3e d24b 51bd cfa6 aebc
000003f0: 0533 b13d 7fa9 9e3c 1b29 f83b bb11 1abd
0.08144237 0.11738659 -0.05297521 0.056900293 0.03423699 0.003854427 -0.0098309135 0.014273615
0.008852726 0.057199687 0.02735104 0.12446075 0.19704534 -0.06850319 -0.038939063 0.12539656
0.10373858 0.12325943 0.03351232 0.07553109 0.28179365 -0.1308548 0.00932464 0.15188387
-0.061319817 -0.06884319 0.06293555 0.007471946 -0.11553488 0.082633376 -0.045945253 0.0013369186
-0.109664835 -0.1277778 0.025056014 0.010447301 0.13959384 0.22655776 -0.01765574 -0.012772605
-0.06412062 -0.13165201 0.013395076 0.024561273 0.35592577 0.17661147 -0.017145317 0.05583687
0.09651434 0.06736326 0.016510667 0.014324589 -0.16707316 -0.16428238 -0.016837223 -0.042256586
0.09396446 0.06289765 0.063242115 0.065578 0.068035565 -0.087664604 -0.046588898 0.034832463
0.06779269 0.121849425 0.09818576 -0.015091809 0.118431255 0.038210355 -0.0016882849 0.01103987
0.090532646 -0.08622529 0.036895115 -0.08745672 -0.15073863 0.074066155 0.05237859 -0.09323163
0.058075756 -0.06788664 0.010099947 0.048398137 -0.028717464 0.0253695 0.042960588 0.01235561
0.043072857 -0.06117274 0.04241937 0.16188075 0.05885041 -0.082185306 0.051628802 0.16112642
-0.030296922 0.0807592 -0.0054865023 0.052107275 0.22901022 0.04107508 -0.019779976 0.09120491
-0.097614676 0.060078222 -0.021880545 -0.006875116 0.0883141 0.024320541 -0.03985417 -0.0018348362
-0.02541674 -0.026926126 -0.01423942 -0.013852218 -0.10031032 -0.16912466 0.006328692 -0.050644543
0.09350033 -0.078327805 -0.045794338 0.02767615 0.038630128 -0.19849467 -0.0060500456 -0.085820295
0.09761907 -0.14853027 -0.015187678 0.1089245 -0.06762518 -0.16935873 0.016916277 0.111504905
0.059847698 -0.12418564 -0.010559454 0.1950557 -0.12550806 -0.0984343 0.06839365 0.2297819
-0.047518548 0.058289364 -0.014562343 -0.031917114 0.29039252 -0.035729494 0.01955508 -0.0060371445
-0.011952976 0.024574246 -0.04486678 -0.047798563 0.14859174 0.038558237 0.047956098 -0.104250394
-0.09364391 0.010986822 -0.008380814 0.07324405 -0.099135235 0.22472018 0.011482179 0.029684002
-0.0062773195 -0.16987176 0.02091553 -0.09844756 0.19032447 -0.12516196 -0.033544537 -0.057143625
-0.04140634 -0.16703759 0.043604676 0.04608482 -0.00011975552 0.047338262 -0.01958551 0.022925938
-0.085325286 -0.22005004 -0.022645725 -0.01999805 -0.12992948 0.25332928 -0.054933038 -0.05875688
0.04675963 -0.24192293 -0.07006826 -0.0061730603 -0.111775 -0.084903225 -0.01620571 -0.06586679
-0.04096522 -0.22746332 0.0138269225 -0.11423215 0.0021204161 -0.06654595 0.00050529616 -0.09201525
-0.07157002 -0.28049704 0.0048934445 0.00048649445 0.10487248 0.14705059 -0.0071878256 -0.003282081
0.19908577 0.34746832 0.045841392 -0.051251024 0.22197688 -0.06188464 -0.027028358 -0.064206794
0.1132297 0.30420238 -0.049981866 -0.1371612 0.114850506 -0.038503703 0.040629257 -0.13325158
0.119029984 0.3045135 -0.09942766 -0.06528422 0.001298312 0.018242547 -0.032900296 -0.1553
0.29664063 0.33417362 0.0094090905 0.10017231 0.18763864 -0.034100886 -0.07707742 0.04265359
0.1534744 0.33913586 -0.0510977 -0.021319775 0.08652309 0.019367931 0.0075732595 -0.037614565

fc1.bias f4 [256]
00000000: 37bc cfbd 6df4 b3bd 93f9 04be cd0a 6ebe
00000010: 1fb5 b93d a9fd a53d cb60 f73d 5709 3c3c
00000020: d5a3 88be b87d 4c3d 4367 a83d e345 793d
00000030: fab1 0c3e 215d 0e3e d814 a4bd b58a fd3c
00000040: 3399 40be 07d4 24be 90fd f03d 8250 7bbd
00000050: 38f3 55be 2ada 6ebe 1137 623e 0992 60be
00000060: a700 27be 9e99 863d 95ef 383e 7b76 abbd
00000070: 4936 2ebe 513c 5d3e 5e74 34be 53c6 10be
00000080: 2d70 a7bd 7340 cb3d 532c cdbd 6d18 99bd
00000090: 0188 da3d 4012 bfbc fabe 2abe 00e7 293e
000000a0: dfd6 0abe eeb5 c6bd 926f bcbd 047a b0bc
000000b0: d4c5 8b3c ab82 363e ef7c a0bd dc5b 8cbe
000000c0: 24b7 52be 87e2 3c3e 2bf2 96be 7d90 08be
000000d0: b435 79be 4216 17bc a952 25be 0c68 4f3e
000000e0: eeec 80bc 2171 85be 6ae2 1ebd 7758 3ebe
000000f0: 95bc f33c 4c9d 07be eef1 943e 5106 46bd
00000100: d07c 9cbd 6a2c fabc fc4c 6e3d e1ac 4fbd
00000110: 8158 c93d 44ee a8bd 4def 72bd cecb 9dbd
00000120: 00dd 18bd fc3c 39be bb50 5ebd f143 debd
00000130: 9081 1abe 5032 8d3e ceb6 0fbe 0274 b8bd
00000140: 07da a8bd a544 fa3a 549e 28be 921c debc
00000150: 9a3f 243d 0852 8bbe 13df 61bd 40d5 803e
00000160: 1632 03be b7bb 1ebd e78e 31bd 533f c7bd
00000170: 57a7 13be 6cd7 803e 1380 083d eec5 c9bd
00000180: 5a98 be3d a812 52bd cff6 223d 39d6 b3bc
00000190: d55b 87bd 6f4f fcbd 7eac 0abd eabb 94bd
000001a0: 072f 733e 9e9e 4abe f9e3 1dbe 9bb7 08be
000001b0: 1e9d 243e 0182 ba3d 2e39 22be 3016 d4bd
000001c0: fcb4 10be cd4a 003e f114 1a3e 17c3 b6bd
000001d0: a0b1 b9bd 2499 053d a011 143e fd8d bcbd
000001e0: c301 21be bd4c f23c fd1a 41be 60e8 893e
000001f0: 360b a4bd fb3f 563d 7d48 97bd 1a70 36be
00000200: d742 3c3e 9b8b ea3d 8cdb 723d 3fed 4abd
00000210: 73d0 03bd 47c4 54bd 5e8f 003e 0400 58bd
00000220: efb5 513d 2ee1 873e 7a01 b0bd 3339 383d
00000230: 2bb2 3d3d a870 05be 55f9 f73c 8ef4 2c3b
00000240: 5145 0a3c 7a91 193d 59a6 403e 9740 80bc
00000250: 0b65 b8bd 78fe 60bd 66ab 88bb 16f5 343e
00000260: 42d2 bc3c 5b8a 12be 60b6 c13c bae8 263e
00000270: c8a6 e13d 86e1 70bd 3fe8 603d 2584 40bc
00000280: f12c f7bc 52c1 0cbe 12f5 30be dc34 c0bd
00000290: da2e ecbd 4577 88be a590 fd3d 3850 14be
000002a0: 9ab0 453e 1f64 a0bc 3f98 813d c366 7fbd
000002b0: adbe 8bbc a004 08bd be0f 383e c081 d83d
000002c0: 58ac cf3d df71 1b3d 7d50 103e f602 fbbd
000002d0: 8bef 01bb a6e9 d13d f09a 3d3e 1130 263e
000002e0: e564 9bbc 73c2 8bbe 55ad e13d 8a53 cbbd
000002f0: 202b 183e b0f5 b4bd cc43 e8bd 749a 433e
00000300: d51a 2cbd 09d5 59bd 4022 cb3d 7227 82bd
00000310: a8df 87bd 49ae 37bd d03c 0d3d 30fa 0e3e
00000320: 1afc cc3d 1197 a33d f3d1 72bd 31d6 f0bd
00000330: 041c 073e 1337 b63d 8dc7 c8bc 9a51 003e
00000340: 4127 a3bd 47c7 5f3d 7417 0ebe 32ce 57be
00000350: c5e5 7a3e 8971 e4bd d274 51be 4cf2 233e
00000360: 7667 fdbd e01e c5bd 8ba9 b93d 5757 d63d
00000370: 41be 0ebc 3fc9 203e b1df 70be 3144 61bc
00000380: 158c a9bd 72fe 343e ad17 8fbc 3d5e 2ebe
00000390: 3954 3d3e fcfb b8bd b4c4 10be 655f 31be
000003a0: 55a2 dc3d 606f 19bd d1e0 3b3b 3532 56be
000003b0: 824b 47be 44f8 a33c 5d5b eabd 2425 3f3e
000003c0: 3726 9d3d c0da 9b3d 9596 47bc 4acb 673d
000003d0: 3b0c a8bd 2522 fbbd bfef 673d cff6 debd
000003e0: e1bd 0dbe d5bb 2b3e fcb0 a63c ac36 8f3c
000003f0: 1812 0f3e 3f6c fc3b 55b1 94bd ff05 4e3e
-0.10143321 -0.08786855 -0.1298583 -0.23246308 0.09067749 0.081050225 0.12079009 0.011476836
-0.26687494 0.049924582 0.082228206 0.060857665 0.13739768 0.13902713 -0.08011788 0.03094993
-0.18808441 -0.16096507 0.11767113 -0.061356075 -0.20893562 -0.2332541 0.22091319 -0.21930708
-0.16308843 0.06572269 0.18060143 -0.08372208 -0.17012896 0.2160504 -0.17622516 -0.14138155
-0.08175693 0.09924402 -0.1001822 -0.07475362 0.10670472 -0.023324132 -0.16674414 0.16592026
-0.1355853 -0.09702669 -0.09200968 -0.021542557 0.017062105 0.17823283 -0.07836329 -0.27413833
-0.20577675 0.18445788 -0.29481634 -0.13336368 -0.24336892 -0.009221615 -0.16144814 0.20254534
-0.015737977 -0.26062873 -0.038790144 -0.18588434 0.029753009 -0.13243598 0.29090828 -0.048345868
-0.076409936 -0.030538756 0.058178887 -0.05070198 0.09831334 -0.082485706 -0.059310246 -0.07704888
-0.037320137 -0.1808967 -0.05427621 -0.108528025 -0.15088487 0.27577448 -0.14034578 -0.09006502
-0.082447104 0.0019093944 -0.16466647 -0.027113233 0.040099718 -0.27211022 -0.05514438 0.25162697
-0.12812075 -0.038753238 -0.043349173 -0.09728875 -0.14419304 0.25164354 0.033325266 -0.09852205
0.093064025 -0.051287323 0.039786156 -0.021952735 -0.066093124 -0.12319838 -0.033855908 -0.07262404
0.23748408 -0.1978707 -0.15418996 -0.1335129 0.1607556 0.091068275 -0.15842125 -0.103557944
-0.1413154 0.12528534 0.15047051 -0.08923929 -0.090670824 0.03261675 0.14459848 -0.092067696
-0.15723328 0.029577607 -0.18857951 0.269351 -0.08009951 0.05230711 -0.07386873 -0.17816201
0.18384872 0.11452409 0.059291407 -0.04954266 -0.032181215 -0.051944997 0.1255469 -0.05273439
0.051198896 0.26538986 -0.08594032 0.044976424 0.046312492 -0.13031256 0.030270258 0.0026390883
0.008439378 0.037492253 0.18813457 -0.015655799 -0.090036474 -0.05493018 -0.004170823 0.17671618
0.023049477 -0.14310591 0.023646533 0.16299716 0.11018139 -0.058808826 0.054908987 -0.011750256
-0.030172797 -0.13745621 -0.17280987 -0.09385082 -0.11532374 -0.26653495 0.123811044 -0.14483726
0.1930565 -0.019578991 0.06327867 -0.06235386 -0.017058695 -0.033207536 0.17974755 0.10571623
0.10140294 0.037950393 0.14093204 -0.12256424 -0.0019826617 0.10249643 0.18516135 0.16229273
-0.018969009 -0.2729679 0.110193886 -0.09928043 0.14860201 -0.08835924 -0.11341056 0.19101888
-0.042017777 -0.05318168 0.09918642 -0.0635518 -0.06634456 -0.044843946 0.034481823 0.13962626
0.10009022 0.07987798 -0.059282254 -0.11759604 0.13194281 0.08897223 -0.024509216 0.12531129
-0.079664715 0.054633405 -0.13876134 -0.21074751 0.24501713 -0.111544676 -0.2045472 0.16010398
-0.12373249 -0.096250296 0.09065541 0.104658775 -0.008712352 0.1570177 -0.23522831 -0.013749168
-0.08278672 0.17675188 -0.017467344 -0.17028137 0.1848916 -0.09032437 -0.14137536 -0.17321546
0.1077315 -0.03745973 0.0028667937 -0.2091759 -0.19462398 0.020015843 -0.114432074 0.18666512
0.076733045 0.076100826 -0.012181898 0.056590356 -0.08205458 -0.12262372 0.056625124 -0.10886919
-0.13841964 0.16770871 0.020348065 0.017482124 0.13971746 0.0077033336 -0.07260386 0.20119475

bn1.weight f4 [256]
00000000: 4889 313f 20a1 443f 2ed4 fd3e c4e6 0a3f
00000010: e7f8 173f f0d2 523d 420f 283f c264 963e
00000020: 278d 453f 0331 323f 48fa 183e 1cfc 343e
00000030: f0c6 a93d 6c6c 763f 089c e63e d83b ad3e
00000040: 0050 783b d0d9 903e 9023 b03d 7e6c 8b3e
00000050: f478 fe3e 8852 3b3f a049 ce3c 0e86 713f
00000060: 505f 443d 80b7 5c3c ac8a 0f3e 7c64 783f
00000070: b495 ef3e 3a79 393f 4a1e 503f 87d7 673f
00000080: f8f1 5a3e 206c b43c dd4c 6f3f ad2c 533f
00000090: 80e5 003d 5465 9b3e 4f51 303f f556 4e3f
000000a0: 3ea1 aa3e ecdf 153f 62f1 b13e 0492 753e
000000b0: d00b 783f 0057 8a3d 06f4 db3e 9743 113f
000000c0: bfde 6d3f 322f 993e d36b 5f3f 7d64 493f
000000d0: 80b2 e73c ae2e 7a3f 3813 1f3e c47a c63e
000000e0: 1c79 153e 81c8 623f a088 2f3d 129e fa3e
000000f0: 73da 6a3f e114 523f 08ef 2b3f 004a 5b3b
00000100: 545c cf3e d863 793e 1efb 033f 13f1 7c3f
00000110: cd47 123f c089 d33e 9cb5 6e3e 2093 423d
00000120: 504a e03e 6470 193e 9e73 f93e b0bf 6a3d
00000130: dfeb 1d3f f808 b63e c012 173d 565f d23e
00000140: 58ef 053e 6a18 e03e 2e90 573f 006f 9a3c
00000150: e0bb ae3d ea43 583f 32bc 2b3f 6cf5 5d3e
00000160: 03ab 743f 549c 5f3e 8259 793f c266 3f3f
00000170: ae35 333f 3a31 4c3f 3406 453e 1070 813d
00000180: 944a cf3e e06a f33e 48d2 993e 0c7f 973e
00000190: aa58 6c3f dc21 103e ac9c e13e 47ad 2a3f
000001a0: 8033 a93c d2e7 993e e425 0b3e 8e0f 4a3f
000001b0: 0ec8 193f 3059 6b3f 9c7a 2f3f 807c 6d3f
000001c0: f030 333e d4be 673f 009b fe3e 5600 003f
000001d0: 04f2 043f b08d c13e d885 943d 4c1e 743e
000001e0: 2d74 383f c7ef 063f e80a 493e d438 4b3e
000001f0: a830 6e3f 634a 723f 8022 473d 94a0 733e
00000200: cc4d f03e c084 df3e 1eb4 8c3e bc77 4f3f
00000210: b1fe 233f a4f9 0a3e 25d1 573f 401b cc3e
00000220: 3103 6b3f a0cb 9e3c 3015 723e 3a9b d53e
00000230: a06e 793e b41a 303f 3c18 0f3f 4c93 313f
00000240: 422f 063f f71d 4c3f d0fb 263d e0f7 f53d
00000250: dcf5 5d3e b703 323f d2c2 503f cc57 5d3e
00000260: a083 863e 6c12 0b3e 8efe 5e3f 6042 ff3d
00000270: 341b 3a3e 9445 a03e d007 a93d b079 e43e
00000280: 4ce7 493f 406b 5c3d c8e0 933e 24c4 3e3f
00000290: f0df 5b3f 004b 093d dfcf 423f 2031 f93c
000002a0: 3d57 263f 9833 e63e 5474 253e 776c 7e3f
000002b0: 64c6 193e 1061 1e3f 80da ff3d 2f09 773f
000002c0: 49a4 3e3f 0e95 e83e ac86 983e 1ee9 183f
000002d0: 55b5 353f e3ac 123f bd47 413f c368 2f3f
000002e0: 3a79 e13e e064 283e 3283 803e a066 1e3d
000002f0: 2d05 7e3f 62a3 373f 52e7 a23e 70bb 823e
00000300: 3d13 283f 7ee1 ff3e 3230 cc3e 5e1f f93e
00000310: ca65 133f c2a8 823e 47ce 463f aa2c 173f
00000320: 9086 ca3e 85b3 013f 4a6c e43e 706f 733f
00000330: 6093 3f3f c57d 653f bd2e 3d3f 7423 2f3e
00000340: 6d45 3a3f c46f 7f3f a0c0 3d3d f05d 103e
00000350: e009 d63d e406 de3e 3181 193f 5fbe 2c3f
00000360: 6811 f93e 381a 653e 0af1 f43e 7289 a93e
00000370: 0706 043f ee87 3d3f 8c0b a13e 9ea0 d63e
00000380: b0f4 c43e cc8b 0a3e 0038 e93a 6a1a 7c3f
00000390: 71ea 633f 387e 803d 4eec 213f 3d3a 363f
000003a0: 34b5 303f a913 363f d8cd 553e 32de 613f
000003b0: 9372 0b3f 2756 003f a230 193f 701c e33e
000003c0: 30aa 083f a81f 603e c0ab 6b3e 9e3f 123f
000003d0: 2499 6b3f b17b 1b3f 2f48 223f d88c 263f
000003e0: b5f0 493f f0ad 6d3f 803d 5b3c c64f 8c3e
000003f0: 0014 9d3b 235f 4c3f 6860 103f 9560 7f3f
0.693501 0.7680836 0.49575943 0.5425837 0.5936417 0.051470697 0.6564828 0.29373747
0.77168506 0.69606036 0.14939225 0.17674297 0.082898974 0.9625919 0.45040917 0.3383472
0.003788948 0.28291178 0.08600533 0.2723121 0.49701655 0.7317281 0.025181592 0.94345176
0.04794246 0.013471484 0.14017743 0.97028327 0.46793902 0.724506 0.8129622 0.90563244
0.21381366 0.022024214 0.9347666 0.82490045 0.03146887 0.30350745 0.6887407 0.80601436
0.33326143 0.585448 0.34754473 0.23981482 0.96893024 0.06754875 0.42959613 0.5674376
0.9291801 0.2991882 0.872739 0.7866896 0.028283358 0.9772748 0.15534675 0.38765538
0.14596981 0.88587195 0.042854905 0.48948723 0.9173958 0.8206311 0.6716161 0.0033460855
0.40500128 0.24354494 0.5155505 0.9880535 0.5714081 0.41316032 0.23311466 0.04750359
0.43806696 0.1498428 0.4872102 0.057311714 0.61688036 0.35553718 0.036883116 0.4108836
0.13079584 0.43768626 0.84204376 0.018851757 0.08531928 0.8447863 0.6708404 0.21675652
0.95573443 0.21836978 0.97402203 0.7476617 0.70003784 0.79762614 0.19240648 0.06320202
0.40486586 0.47542477 0.30043244 0.29589117 0.9232279 0.14075416 0.44064844 0.6667065
0.02065444 0.30059677 0.13588673 0.78929985 0.60070884 0.91932964 0.6854646 0.92768097
0.17499137 0.90525556 0.4972763 0.5000051 0.51931787 0.3780341 0.07252091 0.23839682
0.7205227 0.5270962 0.19633067 0.19845897 0.93042994 0.94644755 0.048616886 0.23791724
0.46934354 0.43655968 0.27481169 0.81042075 0.64060503 0.13571793 0.84303504 0.3986454
0.91801745 0.019384205 0.23640895 0.4171999 0.24358606 0.68790746 0.55896354 0.6936538
0.5241586 0.7973322 0.04076749 0.12010169 0.21675819 0.6953692 0.8154727 0.21615523
0.26272297 0.13581246 0.8710717 0.12463832 0.1817444 0.31303084 0.08253443 0.4462409
0.78868556 0.05381322 0.28882432 0.74518037 0.85888577 0.03351879 0.76098436 0.030418932
0.64976865 0.44961238 0.16157657 0.99384254 0.15017086 0.61866856 0.124928474 0.9649839
0.7446943 0.4542622 0.29790246 0.5973071 0.70979816 0.57295054 0.7550009 0.6851923
0.440378 0.16444731 0.25100094 0.03867209 0.9922665 0.7173368 0.31817108 0.25533628
0.65654355 0.49976724 0.3988052 0.48656744 0.5757719 0.25519377 0.77658504 0.59052527
0.39555788 0.5066455 0.44613868 0.95091915 0.7483425 0.89645034 0.7389944 0.17103368
0.72762185 0.99779916 0.04632628 0.14098334 0.10451102 0.43364632 0.59962755 0.67477983
0.48646092 0.22373283 0.47840148 0.33112675 0.51571697 0.7403554 0.31454122 0.41919416
0.38467932 0.13529891 0.0017793179 0.98477805 0.89029604 0.06274074 0.632512 0.71182615
0.69026494 0.7112375 0.20879304 0.8822967 0.544717 0.5013146 0.5983983 0.44357634
0.53384686 0.21887076 0.23014736 0.5712832 0.9203055 0.60735613 0.63391393 0.6505866
0.78882915 0.9284353 0.013381362 0.27404612 0.004793644 0.7983267 0.56397104 0.9975675

bn1.bias f4 [256]
00000000: 0000 0000 0000 0000 0000 0000 0000 0000
00000010: 0000 0000 0000 0000 0000 0000 0000 0000
00000020: 0000 0000 0000 0000 0000 0000 0000 0000
00000030: 0000 0000 0000 0000 0000 0000 0000 0000
00000040: 0000 0000 0000 0000 0000 0000 0000 0000
00000050: 0000 0000 0000 0000 0000 0000 0000 0000
00000060: 0000 0000 0000 0000 0000 0000 0000 0000
00000070: 0000 0000 0000 0000 0000 0000 0000 0000
00000080: 0000 0000 0000 0000 0000 0000 0000 0000
00000090: 0000 0000 0000 0000 0000 0000 0000 0000
000000a0: 0000 0000 0000 0000 0000 0000 0000 0000
000000b0: 0000 0000 0000 0000 0000 0000 0000 0000
000000c0: 0000 0000 0000 0000 0000 0000 0000 0000
000000d0: 0000 0000 0000 0000 0000 0000 0000 0000
000000e0: 0000 0000 0000 0000 0000 0000 0000 0000
000000f0: 0000 0000 0000 0000 0000 0000 0000 0000
00000100: 0000 0000 0000 0000 0000 0000 0000 0000
00000110: 0000 0000 0000 0000 0000 0000 0000 0000
00000120: 0000 0000 0000 0000 0000 0000 0000 0000
00000130: 0000 0000 0000 0000 0000 0000 0000 0000
00000140: 0000 0000 0000 0000 0000 0000 0000 0000
00000150: 0000 0000 0000 0000 0000 0000 0000 0000
00000160: 0000 0000 0000 0000 0000 0000 0000 0000
00000170: 0000 0000 0000 0000 0000 0000 0000 0000
00000180: 0000 0000 0000 0000 0000 0000 0000 0000
00000190: 0000 0000 0000 0000 0000 0000 0000 0000
000001a0: 0000 0000 0000 0000 0000 0000 0000 0000
000001b0: 0000 0000 0000 0000 0000 0000 0000 0000
000001c0: 0000 0000 0000 0000 0000 0000 0000 0000
000001d0: 0000 0000 0000 0000 0000 0000 0000 0000
000001e0: 0000 0000 0000 0000 0000 0000 0000 0000
000001f0: 0000 0000 0000 0000 0000 0000 0000 0000
00000200: 0000 0000 0000 0000 0000 0000 0000 0000
00000210: 0000 0000 0000 0000 0000 0000 0000 0000
00000220: 0000 0000 0000 0000 0000 0000 0000 0000
00000230: 0000 0000 0000 0000 0000 0000 0000 0000
00000240: 0000 0000 0000 0000 0000 0000 0000 0000
00000250: 0000 0000 0000 0000 0000 0000 0000 0000
00000260: 0000 0000 0000 0000 0000 0000 0000 0000
00000270: 0000 0000 0000 0000 0000 0000 0000 0000
00000280: 0000 0000 0000 0000 0000 0000 0000 0000
00000290: 0000 0000 0000 0000 0000 0000 0000 0000
000002a0: 0000 0000 0000 0000 0000 0000 0000 0000
000002b0: 0000 0000 0000 0000 0000 0000 0000 0000
000002c0: 0000 0000 0000 0000 0000 0000 0000 0000
000002d0: 0000 0000 0000 0000 0000 0000 0000 0000
000002e0: 0000 0000 0000 0000 0000 0000 0000 0000
000002f0: 0000 0000 0000 0000 0000 0000 0000 0000
00000300: 0000 0000 0000 0000 0000 0000 0000 0000
00000310: 0000 0000 0000 0000 0000 0000 0000 0000
00000320: 0000 0000 0000 0000 0000 0000 0000 0000
00000330: 0000 0000 0000 0000 0000 0000 0000 0000
00000340: 0000 0000 0000 0000 0000 0000 0000 0000
00000350: 0000 0000 0000 0000 0000 0000 0000 0000
00000360: 0000 0000 0000 0000 0000 0000 0000 0000
00000370: 0000 0000 0000 0000 0000 0000 0000 0000
00000380: 0000 0000 0000 0000 0000 0000 0000 0000
00000390: 0000 0000 0000 0000 0000 0000 0000 0000
000003a0: 0000 0000 0000 0000 0000 0000 0000 0000
000003b0: 0000 0000 0000 0000 0000 0000 0000 0000
000003c0: 0000 0000 0000 0000 0000 0000 0000 0000
000003d0: 0000 0000 0000 0000 0000 0000 0000 0000
000003e0: 0000 0000 0000 0000 0000 0000 0000 0000
000003f0: 0000 0000 0000 0000 0000 0000 0000 0000
0.0 0.0 0.0 0.0 0.0 0.0 0.0 0.0
0.0 0.0 0.0 0.0 0.0 0.0 0.0 0.0
0.0 0.0 0.0 0.0 0.0 0.0 0.0 0.0
0.0 0.0 0.0 0.0 0.0 0.0 0.0 0.0
0.0 0.0 0.0 0.0 0.0 0.0 0.0 0.0
0.0 0.0 0.0 0.0 0.0 0.0 0.0 0.0
0.0 0.0 0.0 0.0 0.0 0.0 0.0 0.0
0.0 0.0 0.0 0.0 0.0 0.0 0.0 0.0
0.0 0.0 0.0 0.0 0.0 0.0 0.0 0.0
0.0 0.0 0.0 0.0 0.0 0.0 0.0 0.0
0.0 0.0 0.0 0.0 0.0 0.0 0.0 0.0
0.0 0.0 0.0 0.0 0.0 0.0 0.0 0.0
0.0 0.0 0.0 0.0 0.0 0.0 0.0 0.0
0.0 0.0 0.0 0.0 0.0 0.0 0.0 0.0
0.0 0.0 0.0 0.0 0.0 0.0 0.0 0.0
0.0 0.0 0.0 0.0 0.0 0.0 0.0 0.0
0.0 0.0 0.0 0.0 0.0 0.0 0.0 0.0
0.0 0.0 0.0 0.0 0.0 0.0 0.0 0.0
0.0 0.0 0.0 0.0 0.0 0.0 0.0 0.0
0.0 0.0 0.0 0.0 0.0 0.0 0.0 0.0
0.0 0.0 0.0 0.0 0.0 0.0 0.0 0.0
0.0 0.0 0.0 0.0 0.0 0.0 0.0 0.0
0.0 0.0 0.0 0.0 0.0 0.0 0.0 0.0
0.0 0.0 0.0 0.0 0.0 0.0 0.0 0.0
0.0 0.0 0.0 0.0 0.0 0.0 0.0 0.0
0.0 0.0 0.0 0.0 0.0 0.0 0.0 0.0
0.0 0.0 0.0 0.0 0.0 0.0 0.0 0.0
0.0 0.0 0.0 0.0 0.0 0.0 0.0 0.0
0.0 0.0 0.0 0.0 0.0 0.0 0.0 0.0
0.0 0.0 0.0 0.0 0.0 0.0 0.0 0.0
0.0 0.0 0.0 0.0 0.0 0.0 0.0 0.0
0.0 0.0 0.0 0.0 0.0 0.0 0.0 0.0

bn1.running_mean f4 [256]
00000000: 0000 0000 0000 0000 0000 0000 0000 0000
00000010: 0000 0000 0000 0000 0000 0000 0000 0000
00000020: 0000 0000 0000 0000 0000 0000 0000 0000
00000030: 0000 0000 0000 0000 0000 0000 0000 0000
00000040: 0000 0000 0000 0000 0000 0000 0000 0000
00000050: 0000 0000 0000 0000 0000 0000 0000 0000
00000060: 0000 0000 0000 0000 0000 0000 0000 0000
00000070: 0000 0000 0000 0000 0000 0000 0000 0000
00000080: 0000 0000 0000 0000 0000 0000 0000 0000
00000090: 0000 0000 0000 0000 0000 0000 0000 0000
000000a0: 0000 0000 0000 0000 0000 0000 0000 0000
000000b0: 0000 0000 0000 0000 0000 0000 0000 0000
000000c0: 0000 0000 0000 0000 0000 0000 0000 0000
000000d0: 0000 0000 0000 0000 0000 0000 0000 0000
000000e0: 0000 0000 0000 0000 0000 0000 0000 0000
000000f0: 0000 0000 0000 0000 0000 0000 0000 0000
00000100: 0000 0000 0000 0000 0000 0000 0000 0000
00000110: 0000 0000 0000 0000 0000 0000 0000 0000
00000120: 0000 0000 0000 0000 0000 0000 0000 0000
00000130: 0000 0000 0000 0000 0000 0000 0000 0000
00000140: 0000 0000 0000 0000 0000 0000 0000 0000
00000150: 0000 0000 0000 0000 0000 0000 0000 0000
00000160: 0000 0000 0000 0000 0000 0000 0000 0000
00000170: 0000 0000 0000 0000 0000 0000 0000 0000
00000180: 0000 0000 0000 0000 0000 0000 0000 0000
00000190: 0000 0000 0000 0000 0000 0000 0000 0000
000001a0: 0000 0000 0000 0000 0000 0000 0000 0000
000001b0: 0000 0000 0000 0000 0000 0000 0000 0000
000001c0: 0000 0000 0000 0000 0000 0000 0000 0000
000001d0: 0000 0000 0000 0000 0000 0000 0000 0000
000001e0: 0000 0000 0000 0000 0000 0000 0000 0000
000001f0: 0000 0000 0000 0000 0000 0000 0000 0000
00000200: 0000 0000 0000 0000 0000 0000 0000 0000
00000210: 0000 0000 0000 0000 0000 0000 0000 0000
00000220: 0000 0000 0000 0000 0000 0000 0000 0000
00000230: 0000 0000 0000 0000 0000 0000 0000 0000
00000240: 0000 0000 0000 0000 0000 0000 0000 0000
00000250: 0000 0000 0000 0000 0000 0000 0000 0000
00000260: 0000 0000 0000 0000 0000 0000 0000 0000
00000270: 0000 0000 0000 0000 0000 0000 0000 0000
00000280: 0000 0000 0000 0000 0000 0000 0000 0000
00000290: 0000 0000 0000 0000 0000 0000 0000 0000
000002a0: 0000 0000 0000 0000 0000 0000 0000 0000
000002b0: 0000 0000 0000 0000 0000 0000 0000 0000
000002c0: 0000 0000 0000 0000 0000 0000 0000 0000
000002d0: 0000 0000 0000 0000 0000 0000 0000 0000
000002e0: 0000 0000 0000 0000 0000 0000 0000 0000
000002f0: 0000 0000 0000 0000 0000 0000 0000 0000
00000300: 0000 0000 0000 0000 0000 0000 0000 0000
00000310: 0000 0000 0000 0000 0000 0000 0000 0000
00000320: 0000 0000 0000 0000 0000 0000 0000 0000
00000330: 0000 0000 0000 0000 0000 0000 0000 0000
00000340: 0000 0000 0000 0000 0000 0000 0000 0000
00000350: 0000 0000 0000 0000 0000 0000 0000 0000
00000360: 0000 0000 0000 0000 0000 0000 0000 0000
00000370: 0000 0000 0000 0000 0000 0000 0000 0000
00000380: 0000 0000 0000 0000 0000 0000 0000 0000
00000390: 0000 0000 0000 0000 0000 0000 0000 0000
000003a0: 0000 0000 0000 0000 0000 0000 0000 0000
000003b0: 0000 0000 0000 0000 0000 0000 0000 0000
000003c0: 0000 0000 0000 0000 0000 0000 0000 0000
000003d0: 0000 0000 0000 0000 0000 0000 0000 0000
000003e0: 0000 0000 0000 0000 0000 0000 0000 0000
000003f0: 0000 0000 0000 0000 0000 0000 0000 0000
0.0 0.0 0.0 0.0 0.0 0.0 0.0 0.0
0.0 0.0 0.0 0.0 0.0 0.0 0.0 0.0
0.0 0.0 0.0 0.0 0.0 0.0 0.0 0.0
0.0 0.0 0.0 0.0 0.0 0.0 0.0 0.0
0.0 0.0 0.0 0.0 0.0 0.0 0.0 0.0
0.0 0.0 0.0 0.0 0.0 0.0 0.0 0.0
0.0 0.0 0.0 0.0 0.0 0.0 0.0 0.0
0.0 0.0 0.0 0.0 0.0 0.0 0.0 0.0
0.0 0.0 0.0 0.0 0.0 0.0 0.0 0.0
0.0 0.0 0.0 0.0 0.0 0.0 0.0 0.0
0.0 0.0 0.0 0.0 0.0 0.0 0.0 0.0
0.0 0.0 0.0 0.0 0.0 0.0 0.0 0.0
0.0 0.0 0.0 0.0 0.0 0.0 0.0 0.0
0.0 0.0 0.0 0.0 0.0 0.0 0.0 0.0
0.0 0.0 0.0 0.0 0.0 0.0 0.0 0.0
0.0 0.0 0.0 0.0 0.0 0.0 0.0 0.0
0.0 0.0 0.0 0.0 0.0 0.0 0.0 0.0
0.0 0.0 0.0 0.0 0.0 0.0 0.0 0.0
0.0 0.0 0.0 0.0 0.0 0.0 0.0 0.0
0.0 0.0 0.0 0.0 0.0 0.0 0.0 0.0
0.0 0.0 0.0 0.0 0.0 0.0 0.0 0.0
0.0 0.0 0.0 0.0 0.0 0.0 0.0 0.0
0.0 0.0 0.0 0.0 0.0 0.0 0.0 0.0
0.0 0.0 0.0 0.0 0.0 0.0 0.0 0.0
0.0 0.0 0.0 0.0 0.0 0.0 0.0 0.0
0.0 0.0 0.0 0.0 0.0 0.0 0.0 0.0
0.0 0.0 0.0 0.0 0.0 0.0 0.0 0.0
0.0 0.0 0.0 0.0 0.0 0.0 0.0 0.0
0.0 0.0 0.0 0.0 0.0 0.0 0.0 0.0
0.0 0.0 0.0 0.0 0.0 0.0 0.0 0.0
0.0 0.0 0.0 0.0 0.0 0.0 0.0 0.0
0.0 0.0 0.0 0.0 0.0 0.0 0.0 0.0

bn1.running_var f4 [256]
00000000: 0000 803f 0000 803f 0000 803f 0000 803f
00000010: 0000 803f 0000 803f 0000 803f 0000 803f
00000020: 0000 803f 0000 803f 0000 803f 0000 803f
00000030: 0000 803f 0000 803f 0000 803f 0000 803f
00000040: 0000 803f 0000 803f 0000 803f 0000 803f
00000050: 0000 803f 0000 803f 0000 803f 0000 803f
00000060: 0000 803f 0000 803f 0000 803f 0000 803f
00000070: 0000 803f 0000 803f 0000 803f 0000 803f
00000080: 0000 803f 0000 803f 0000 803f 0000 803f
00000090: 0000 803f 0000 803f 0000 803f 0000 803f
000000a0: 0000 803f 0000 803f 0000 803f 0000 803f
000000b0: 0000 803f 0000 803f 0000 803f 0000 803f
000000c0: 0000 803f 0000 803f 0000 803f 0000 803f
000000d0: 0000 803f 0000 803f 0000 803f 0000 803f
000000e0: 0000 803f 0000 803f 0000 803f 0000 803f
000000f0: 0000 803f 0000 803f 0000 803f 0000 803f
00000100: 0000 803f 0000 803f 0000 803f 0000 803f
00000110: 0000 803f 0000 803f 0000 803f 0000 803f
00000120: 0000 803f 0000 803f 0000 803f 0000 803f
00000130: 0000 803f 0000 803f 0000 803f 0000 803f
00000140: 0000 803f 0000 803f 0000 803f 0000 803f
00000150: 0000 803f 0000 803f 0000 803f 0000 803f
00000160: 0000 803f 0000 803f 0000 803f 0000 803f
00000170: 0000 803f 0000 803f 0000 803f 0000 803f
00000180: 0000 803f 0000 803f 0000 803f 0000 803f
00000190: 0000 803f 0000 803f 0000 803f 0000 803f
000001a0: 0000 803f 0000 803f 0000 803f 0000 803f
000001b0: 0000 803f 0000 803f 0000 803f 0000 803f
000001c0: 0000 803f 0000 803f 0000 803f 0000 803f
000001d0: 0000 803f 0000 803f 0000 803f 0000 803f
000001e0: 0000 803f 0000 803f 0000 803f 0000 803f
000001f0: 0000 803f 0000 803f 0000 803f 0000 803f
00000200: 0000 803f 0000 803f 0000 803f 0000 803f
00000210: 0000 803f 0000 803f 0000 803f 0000 803f
00000220: 0000 803f 0000 803f 0000 803f 0000 803f
00000230: 0000 803f 0000 803f 0000 803f 0000 803f
00000240: 0000 803f 0000 803f 0000 803f 0000 803f
00000250: 0000 803f 0000 803f 0000 803f 0000 803f
00000260: 0000 803f 0000 803f 0000 803f 0000 803f
00000270: 0000 803f 0000 803f 0000 803f 0000 803f
00000280: 0000 803f 0000 803f 0000 803f 0000 803f
00000290: 0000 803f 0000 803f 0000 803f 0000 803f
000002a0: 0000 803f 0000 803f 0000 803f 0000 803f
000002b0: 0000 803f 0000 803f 0000 803f 0000 803f
000002c0: 0000 803f 0000 803f 0000 803f 0000 803f
000002d0: 0000 803f 0000 803f 0000 803f 0000 803f
000002e0: 0000 803f 0000 803f 0000 803f 0000 803f
000002f0: 0000 803f 0000 803f 0000 803f 0000 803f
00000300: 0000 803f 0000 803f 0000 803f 0000 803f
00000310: 0000 803f 0000 803f 0000 803f 0000 803f
00000320: 0000 803f 0000 803f 0000 803f 0000 803f
00000330: 0000 803f 0000 803f 0000 803f 0000 803f
00000340: 0000 803f 0000 803f 0000 803f 0000 803f
00000350: 0000 803f 0000 803f 0000 803f 0000 803f
00000360: 0000 803f 0000 803f 0000 803f 0000 803f
00000370: 0000 803f 0000 803f 0000 803f 0000 803f
00000380: 0000 803f 0000 803f 0000 803f 0000 803f
00000390: 0000 803f 0000 803f 0000 803f 0000 803f
000003a0: 0000 803f 0000 803f 0000 803f 0000 803f
000003b0: 0000 803f 0000 803f 0000 803f 0000 803f
000003c0: 0000 803f 0000 803f 0000 803f 0000 803f
000003d0: 0000 803f 0000 803f 0000 803f 0000 803f
000003e0: 0000 803f 0000 803f 0000 803f 0000 803f
000003f0: 0000 803f 0000 803f 0000 803f 0000 803f
1.0 1.0 1.0 1.0 1.0 1.0 1.0 1.0
1.0 1.0 1.0 1.0 1.0 1.0 1.0 1.0
1.0 1.0 1.0 1.0 1.0 1.0 1.0 1.0
1.0 1.0 1.0 1.0 1.0 1.0 1.0 1.0
1.0 1.0 1.0 1.0 1.0 1.0 1.0 1.0
1.0 1.0 1.0 1.0 1.0 1.0 1.0 1.0
1.0 1.0 1.0 1.0 1.0 1.0 1.0 1.0
1.0 1.0 1.0 1.0 1.0 1.0 1.0 1.0
1.0 1.0 1.0 1.0 1.0 1.0 1.0 1.0
1.0 1.0 1.0 1.0 1.0 1.0 1.0 1.0
1.0 1.0 1.0 1.0 1.0 1.0 1.0 1.0
1.0 1.0 1.0 1.0 1.0 1.0 1.0 1.0
1.0 1.0 1.0 1.0 1.0 1.0 1.0 1.0
1.0 1.0 1.0 1.0 1.0 1.0 1.0 1.0
1.0 1.0 1.0 1.0 1.0 1.0 1.0 1.0
1.0 1.0 1.0 1.0 1.0 1.0 1.0 1.0
1.0 1.0 1.0 1.0 1.0 1.0 1.0 1.0
1.0 1.0 1.0 1.0 1.0 1.0 1.0 1.0
1.0 1.0 1.0 1.0 1.0 1.0 1.0 1.0
1.0 1.0 1.0 1.0 1.0 1.0 1.0 1.0
1.0 1.0 1.0 1.0 1.0 1.0 1.0 1.0
1.0 1.0 1.0 1.0 1.0 1.0 1.0 1.0
1.0 1.0 1.0 1.0 1.0 1.0 1.0 1.0
1.0 1.0 1.0 1.0 1.0 1.0 1.0 1.0
1.0 1.0 1.0 1.0 1.0 1.0 1.0 1.0
1.0 1.0 1.0 1.0 1.0 1.0 1.0 1.0
1.0 1.0 1.0 1.0 1.0 1.0 1.0 1.0
1.0 1.0 1.0 1.0 1.0 1.0 1.0 1.0
1.0 1.0 1.0 1.0 1.0 1.0 1.0 1.0
1.0 1.0 1.0 1.0 1.0 1.0 1.0 1.0
1.0 1.0 1.0 1.0 1.0 1.0 1.0 1.0
1.0 1.0 1.0 1.0 1.0 1.0 1.0 1.0

fc2.weight f4 [256, 256]
00000000: a67f 96bd d354 153d c85d d93c b888 40bd
00000010: 3526 cdbd baf6 cebd ee1e 25be a7cc e83d
00000020: df09 d43d 0147 35be 25f7 17be 783c 21bc
00000030: 0cb3 93bd 24ef d5bd f79c 07be 8699 71be
00000040: 27ae 103e 27f4 96bd 26d1 02be e6b7 31be
00000050: 2694 b93d 5e0c b7bd 4f66 b9bd a94e 013e
00000060: 174f 693c cf24 eabb a3df 78be c335 0fbe
00000070: ed0f 673d 54df c8bd 46f9 a63c 7aac bd3d
00000080: 1bac 80be c83e 8d3c e9b6 58bd d01c afbd
00000090: fe98 883d 3f93 e83d 8936 f23d 8dd2 21be
000000a0: baf1 d43d e7b2 1b3d 795f 033e 6e77 9dbe
000000b0: 9b4e 863d 27df 11bd b6f8 b3bd 569e 3abe
000000c0: 5294 1a3d 0152 faba 6c9a 8ebd 6ccb 2fbe
000000d0: c590 c8bd 0f55 673d a8fb d03d 903b 04be
000000e0: de19 b23d b1c2 0d3e e061 6ebe bca9 d13d
000000f0: b734 483e 8411 643d 22b5 b3be b22a 1ebe
00000100: f8f7 223e 8616 e73c 6de2 0cbe 70a1 d33d
00000110: 0921 06be 1e9d 26bc bf16 3e3d 8534 acbd
00000120: 5d67 7cbd 2391 cd3c 45f9 d83c 7300 31bd
00000130: 9895 dabd 4a29 1fbc 9da3 66be f1b2 ae3d
00000140: fbda 07bb 37a0 743e d1c4 0ebe 7bea 27be
00000150: 25b4 67be 0b69 143e fe8b 983d 603f b8bd
00000160: d989 1d3e 847d 823c c2ca 36be 5c03 0cbc
00000170: b3e4 9bbd aed9 3dbe f25f b6bc d16a e33d
00000180: 664b 4dbe 3de3 8bbd 5367 663d 19ec 243d
00000190: 81c1 9dbd aa50 c1bc 875f b3bd 614a 56bc
000001a0: a688 8bbe 5810 943c 6e83 f33d 470b e5bd
000001b0: 5255 043d aa51 8abe 190b 85bd d282 4c3d
000001c0: cd0d 1dbc fcb4 4c3e 7647 da3d 303d 0f3e
000001d0: 54d6 903d 2bc7 8d3d 2a5f 2bbe a381 4bbb
000001e0: 567e 01bd 9322 303c 1716 37bd b069 5dbe
000001f0: 1e33 253e c845 f63d 35fe 043e f4c5 193e
00000200: 7b82 353c 9e8d 163e 2965 d4bd 3e83 05be
00000210: 931e 413c 701c 383d 4aaf e63d e6ce ae3d
00000220: 3d5b f1ba 60b2 d6bd 88cb b9bd 91bd 27bd
00000230: b9f2 7fbe a633 103d 530b b1bc bca9 423d
00000240: 04dd 59bd e4aa fa3d 57cf 233c e16e 25bd
00000250: a968 46be 46e4 1dbe 102b 28bd 0488 d6bc
00000260: dc99 753d bc5d 29be 983b 2d3c e49b 7e3c
00000270: b981 78bd 2f28 32ba 7438 cbbd 1cfd 39bd
00000280: 44a4 843c e0fe 0c3e 141b 18be 0085 a8bd
00000290: d585 09be 4e18 44bd 7a2a cb3d ec2e da3d
000002a0: bda6 2ebe a9a4 573e 9d31 00be 8b3e dc3d
000002b0: cf49 52bd 59be 5ebd cef4 a3bd 9586 cf3b
000002c0: 6c92 893d e3e0 553e 32b9 9c3c 2218 b7bc
000002d0: 6242 063e 0cca 303e 156a 7cbd ffc0 b83d
000002e0: 8851 74be d31a 043e 95dc 10bd 3b4c 64bd
000002f0: 0e8f ad3d c283 24be a26a 0e3e 44f3 86bc
00000300: 6fb0 883d 75f4 413e 2a80 2d3e 919b 28bd
00000310: 44b5 49be 1cd1 36be 7ef5 bd3d c228 76bd
00000320: 3c40 44bd 1dbc 783d e4dc a7bd 8190 323d
00000330: 8e0b bc3d 534e 643e 5f19 723d 610e bd3d
00000340: 78bf 9dbd 221e f7bd 340c 74bd 87ed 033d
00000350: 157e f2bd 01d0 4ebe 4da7 0b3e 71f5 4fbe
00000360: c508 c63c e5be 18be c010 b5bd aec9 50be
00000370: 8a24 46bd c643 a5be 4aa2 c43c aa9b 99bb
00000380: 5b87 883d bfe7 8dbd 036c 273d f333 213e
00000390: a13e a53d ec68 26be 11ae c33d 8379 433d
000003a0: 1425 aa3d 5081 e63d f538 cbbd 0847 5f3d
000003b0: f721 45be a35d bbbd 2a04 e03c 38ab 66be
000003c0: b625 b0bd b3c2 1f3c a037 65bc 4ad1 603d
000003d0: 8885 cb3d 7380 0d3b b5a3 daba 293c 06be
000003e0: f310 a9bd e7aa b43c bcae f53d 29f4 443d
000003f0: ab94 1cbc 2ef5 a0bc a2cc 113e 3e76 44be
-0.07348566 0.036457848 0.026533976 -0.047005385 -0.10017053 -0.10105653 -0.1612508 0.11367159
0.10353445 -0.17702867 -0.14840372 -0.009841077 -0.07211885 -0.10446003 -0.13243471 -0.23593721
0.14128934 -0.07370787 -0.12775096 -0.17355308 0.0906146 -0.08937906 -0.09052717 0.12627663
0.014240048 -0.007145501 -0.2430406 -0.13985352 0.056411672 -0.098082215 0.020382535 0.09261413
-0.25131306 0.01724185 -0.05290881 -0.085504174 0.06669806 0.1135621 0.11826808 -0.15802975
0.10397668 0.03801241 0.12829389 -0.3075518 0.065579616 -0.035613205 -0.08787672 -0.18224463
0.037739106 -0.0019097925 -0.069630474 -0.17167443 -0.097932376 0.056477603 0.102042496 -0.12913346
0.0869634 0.138438 -0.23279524 0.102374524 0.19551359 0.055680767 -0.3509913 -0.15445974
0.15914905 0.028208982 -0.1375825 0.10333526 -0.1309854 -0.010169296 0.04640841 -0.08408455
-0.061622012 0.02509362 0.026486048 -0.04321332 -0.10673064 -0.009714434 -0.22523351 0.08530224
-0.0020729888 0.23889242 -0.13942267 -0.16398041 -0.22627313 0.14493196 0.074485764 -0.08996463
0.15384616 0.015928991 -0.17850783 -0.008545723 -0.0761198 -0.1854007 -0.022262547 0.11104358
-0.20048293 -0.06830452 0.05625088 0.040264223 -0.077029236 -0.023598034 -0.08758455 -0.013079257
-0.27252692 0.0180742 0.118903026 -0.111837916 0.03230793 -0.2701543 -0.06496257 0.049929447
-0.00958581 0.19990915 0.10658161 0.13988185 0.0707213 0.06922754 -0.16735521 -0.0031052611
-0.031614624 0.010750431 -0.0446988 -0.21622348 0.16132781 0.120250285 0.12987597 0.1501692
0.011078472 0.1470246 -0.10370857 -0.13038346 0.011787075 0.044948995 0.112639025 0.085355565
-0.0018414032 -0.10483241 -0.09072024 -0.04095227 -0.24994935 0.035205506 -0.021611845 0.047525153
-0.053189293 0.12239626 0.009998164 -0.040388945 -0.19375862 -0.1541911 -0.041056693 -0.026187904
0.059961185 -0.16539663 0.01057329 0.015540097 -0.06067059 -0.0006796149 -0.09922877 -0.0454074
0.01619161 0.13769102 -0.1485408 -0.08228493 -0.13429959 -0.04787474 0.09920211 0.10653481
-0.17055793 0.21058907 -0.12518926 0.107541166 -0.05133992 -0.05438075 -0.08005677 0.006333182
0.06717381 0.20886569 0.019131277 -0.022350375 0.1311126 0.17264575 -0.061624605 0.09021186
-0.23859227 0.12900858 -0.035366613 -0.05573676 0.08474551 -0.16065887 0.13907865 -0.01647342
0.06674277 0.18940909 0.16943422 -0.041163985 -0.19698054 -0.17853206 0.092753395 -0.060097463
-0.04791282 0.060726274 -0.081964284 0.04359484 0.091818914 0.22295503 0.059106227 0.09231258
-0.077025354 -0.12066294 -0.05958195 0.032208946 -0.118404545 -0.20196535 0.13638039 -0.20308472
0.024174104 -0.1491657 -0.088410854 -0.20389435 -0.04837469 -0.3227827 0.024003167 -0.004687746
0.06666442 -0.06928968 0.040874492 0.15742473 0.08068586 -0.16250962 0.09554685 0.047723304
0.08307853 0.11255133 -0.09922973 0.0545111 -0.19251238 -0.09148719 0.027345736 -0.22526252
-0.08600943 0.00975101 -0.013990313 0.054887094 0.099375784 0.0021591454 -0.0016680869 -0.13108887
-0.08255186 0.022054149 0.119962186 0.04808441 -0.00955693 -0.01964816 0.14238217 -0.19185731

fc2.bias f4 [256]
00000000: d320 cbbd c2b6 9dbd b67e 883a 3d68 45bd
00000010: 746b fc3c 4121 9abd 79ef 463d 9c65 9d3c
00000020: e1fd 273c 7cf1 35bd a79c 84bd 3d07 bb3d
00000030: b85f 7f3b dc6b 153b 16fd 85bc cb6b e3bd
00000040: 0f89 1f3d b528 b93d d31f b73d 1a61 f8bb
00000050: e357 fdbd 5307 aebd f41a 073e 1206 b13c
00000060: 018c ad3d 91d1 2b3d 1a61 cfbd de73 ecbd
00000070: d8e8 87bc 32b2 febc 85b7 ff3d d1ac e5bd
00000080: 7187 c8bc f050 a63d e6aa fbbd a3ca 883c
00000090: 5a77 03bd 63b8 023d 1ad8 d5bb a7a0 16bd
000000a0: d62d cd3c 25fe 033d e629 863d 534d 553d
000000b0: b44b b23d c582 b4bd aa7c 77bd 7735 903d
000000c0: a352 bbbc 5eef 1d3d c3bc f13c ea1f 8dbc
000000d0: 0c34 82bd 2acb 5d3d a956 12be 5420 29bd
000000e0: 7015 93bd 9f7d 26bc 282f 24be 8c7a d13c
000000f0: 2395 4b3d bed7 3fbd e585 f03c 4cf2 853d
00000100: 2d0e 9fbc 05b0 18bd 7afa 79bd dce8 613d
00000110: 78a6 c93c ce32 4b3d 1a1f c5bd da02 f03c
00000120: 4d51 633c 789f 3abd 5dd2 7f3d fc8a 9d3d
00000130: 7c71 f03b c273 0ebe 817c 24bd d27b cc3d
00000140: 50f0 e9bd c314 7abb b898 403d ad2f fb3a
00000150: 1198 613d 1b23 7e3c 7147 7a3d 96d4 593d
00000160: cea7 ce3c e10f d3bb 374c b6bd 3393 a13d
00000170: 2de0 3b3d d0d4 983d fb53 f3bd 50c5 afbd
00000180: a3f4 9ebd 7b1f 813d b1bd 9c3c 4219 513d
00000190: 65a6 613c fc1e 3abd 1301 f73c 4b93 11bd
000001a0: ea21 d63c c310 0fbd 3466 283e 2992 f2bd
000001b0: 362c 10be c559 be3d db36 acbd a9df f23c
000001c0: 5e69 54bd 1835 94bc b934 4abd e047 cdbc
000001d0: aae4 583d 0b08 05bd 0e45 213d 0ba7 ae3d
000001e0: a881 0a3e 02d9 c4bc f7aa 183d 1712 f0bd
000001f0: 1031 213e 259c c8bd f410 27bc e626 13be
00000200: 03e0 19bb 9786 8fbd 0433 66bd a596 06bd
00000210: 66d7 5d3d 113b 3bbd 1be8 b6bd 7b35 1ebd
00000220: c258 8bbc 3c9b 863d 5b22 8d3d b9f5 20bd
00000230: 39c2 51bd 826e 76bd f1f7 6ebd 08a2 97bd
00000240: c53d b43d 3d90 a33d cb94 093e 9f57 1dbd
00000250: 1f18 953d 897e 2c3e 173c 9ebc 3ec7 393d
00000260: 1fe2 98bd aec9 693c a0c9 313d 39dd cebd
00000270: 3b4f 823c f535 07be 4e81 29bc 1ad0 90bd
00000280: ddbf adbd a10a 76bd 76a8 e2bc eee3 7bbc
00000290: c7dd de3d 6724 383d 1481 1dbd 8d62 97bd
000002a0: 2e29 46bd f749 cb3c 2497 19bc fcac 7e3d
000002b0: de97 d03d 622a f73d bb86 41bd d63f 243c
000002c0: 23c7 42bd 776f 1f3d 6ab3 17bc 488f 463c
000002d0: ef22 b63c e8c1 80bd 3f4c c53d 9cbc 3dbd
000002e0: e1b8 893b dd84 65bd 1507 1ebd 6f01 adbd
000002f0: f610 b5bd e768 ff3d 349e 953d 2515 a73d
00000300: 6750 f53d 9173 42bd a29a c6bd d77f b2bd
00000310: 1c78 c8bd 3d1a 7dbc 0dda 5c3c af51 c3bb
00000320: 9c6f 603d 83e1 21bc 0393 b939 16cd 0e3d
00000330: 50e8 953a 6861 c3bd 0958 fe3c da38 a8bd
00000340: c29b ce3b 5308 403d be67 a93d 9443 c43c
00000350: f1fc 9e3d dfd2 093d fe78 9d3d d186 b93d
00000360: 501e cb3d 7557 153e c242 cf3d 5532 2abd
00000370: 5be8 5d3d 6eaa 73bd 0a39 0f3d 289b bebc
00000380: ef4b 9fbd 3510 ac3d 2166 eebd 135f 0fbd
00000390: 3b45 c73a 64ed b3bd 95e9 b73c eba4 9f3c
000003a0: b0ec 2bbc 0d8d a33d 49e1 51bd 2034 003e
000003b0: 90bf 9ebd f301 14bd 89b3 443d e20c efbd
000003c0: e353 40bd 6c13 bdbd b1c3 a2bd ec9a 57b9
000003d0: 8126 6ebd 3a34 f73c a60b 03bc ed4b e9bd
000003e0: 4475 83bd e4d7 01bd 75fb 54bc ddec 963d
000003f0: d8d8 25bc 8ebb 703c 9ffe e1ba 3b13 91bb
-0.0991837 -0.07700874 0.0010413739 -0.048195112 0.030812956 -0.07525874 0.048568223 0.01921349
0.010253401 -0.04441975 -0.064751916 0.0913224 0.0038966965 0.0022799885 -0.016356032 -0.11104544
0.03894907 0.090409674 0.08941617 -0.007579935 -0.12370279 -0.08497491 0.13193876 0.02160934
0.08473969 0.041947905 -0.101259425 -0.115455374 -0.01659052 -0.03109083 0.124861754 -0.11214603
-0.024478646 0.08120906 -0.12288456 0.016698187 -0.032096244 0.031914126 -0.0065260055 -0.036774304
0.02504627 0.032224793 0.0655096 0.052075695 0.087058455 -0.08814005 -0.060421623 0.070414476
-0.022866553 0.038558356 0.029508954 -0.017227132 -0.063575834 0.05414883 -0.1429087 -0.041290596
-0.07181823 -0.010161786 -0.16033614 0.02557113 0.049702775 -0.046836607 0.02936072 0.06540355
-0.01941594 -0.03727724 -0.06102989 0.055153713 0.024615511 0.049608998 -0.09625073 0.029298235
0.013874364 -0.045562238 0.062456477 0.07692525 0.007337747 -0.13911346 -0.0401578 0.09984554
-0.11422789 -0.0038159348 0.047020644 0.0019163989 0.055076662 0.0155112995 0.061103288 0.053181253
0.0252265 -0.006441102 -0.089012556 0.07889404 0.045868088 0.07462466 -0.118812524 -0.08582556
-0.077615045 0.063048325 0.01913342 0.05104948 0.013772582 -0.045439705 0.03015188 -0.03554086
0.026139218 -0.034928095 0.16445237 -0.11844284 -0.14079365 0.09294466 -0.084089 0.029647665
-0.0518583 -0.018091723 -0.049366686 -0.025058687 0.052952446 -0.032478373 0.039372496 0.08527955
0.13526022 -0.024029259 0.03727242 -0.117222 0.15741372 -0.09795407 -0.010196913 -0.14370307
-0.0023479469 -0.07008093 -0.056200996 -0.03285851 0.054160498 -0.045710627 -0.08930989 -0.03862522
-0.017010096 0.06572577 0.068913184 -0.03929684 -0.051210616 -0.060163982 -0.058341924 -0.07403952
0.08800844 0.07986496 0.13435666 -0.03841364 0.07279991 0.16845144 -0.019315762 0.045356028
-0.07465004 0.014269276 0.043405175 -0.101007886 0.01590692 -0.13204177 -0.01034577 -0.07070942
-0.08483861 -0.06006873 -0.027668219 -0.015374167 0.108821444 0.04495659 -0.038453177 -0.07391844
-0.048379116 0.024815543 -0.009374414 0.06217669 0.10185216 0.12068631 -0.04724763 0.010024985
-0.047553193 0.03892466 -0.009259084 0.012119122 0.022233455 -0.06286985 0.096336834 -0.04632245
0.0042029475 -0.05603491 -0.038580973 -0.08447539 -0.08841126 0.124711804 0.073055655 0.0815833
0.11978226 -0.047473494 -0.096974626 -0.0871579 -0.09788534 -0.01544815 0.013479722 -0.005960665
0.05479394 -0.009880426 0.00035395482 0.034863554 0.0011437032 -0.09540063 0.031047838 -0.082139686
0.006305189 0.04688294 0.082717404 0.023958005 0.077630885 0.033648368 0.07689093 0.09058917
0.09917891 0.14584143 0.10120155 -0.041551907 0.05417667 -0.059488706 0.034966506 -0.023267344
-0.07778155 0.08401529 -0.11640573 -0.03500278 0.0015203127 -0.08785513 0.022450248 0.019487819
-0.010493442 0.07985888 -0.05124024 0.12519884 -0.077513814 -0.03613467 0.04802278 -0.11672379
-0.046955 -0.0923222 -0.079474814 -0.0002056171 -0.05814219 0.03017627 -0.007998383 -0.11391435
-0.06418851 -0.03170003 -0.012999405 0.07369397 -0.0101225 0.014693154 -0.0017242021 -0.0044273413
